production/TDC/Solubility_AqSolDB/checkpoint/state_dict.pt (torch, 833493 bytes, 41 tensors)

lin1.weight f4 [128, 27]
0	0x3df8ad2e	0.121424064
1	0x3ddf68e3	0.109086774
2	0xbdafbea6	-0.08581285
3	0xbba1e92d	-0.004941127
4	0x3e09a9a1	0.13443615
5	0x3e4509c7	0.19242011
6	0x3dabe07d	0.08392427
7	0x3cdfbcd6	0.027311724
8	0x3e10174f	0.14071392
9	0xbde1a25b	-0.11017295
10	0x3d25273e	0.040320627
11	0xbe1aa72a	-0.1510283
12	0xbe010839	-0.12600793
13	0xbdd3f8e8	-0.103502095
14	0x3daf3ac0	0.085561275
15	0x3da4ef74	0.080534846
16	0xbde05659	-0.109539695
17	0x3d8e686c	0.06953511
18	0x3ddb299b	0.10701295
19	0xbcd5a8a1	-0.026081385
20	0x3bf0c7d7	0.0073480415
21	0x3d1ed799	0.03877983
22	0x3df4838c	0.11939153
23	0x3e43fcdb	0.19139425
24	0xbe13c709	-0.14431395
25	0xbd907088	-0.07052714
26	0x3d99836e	0.07495771
27	0x3e234804	0.1594544
28	0x3e3f191d	0.18661924
29	0x3e1dac6a	0.15397802
30	0x3d13ae3d	0.03605484
31	0xbe2f000c	-0.17089862
32	0x3c2504cd	0.010071945
33	0xbe045915	-0.12924607
34	0xbe242d30	-0.16032863
35	0x3e24cd5e	0.16093966
36	0x3e080837	0.13284384
37	0xbe464376	-0.19361672
38	0x3d07de62	0.033171065
39	0xbd1079fb	-0.03527258
40	0xbcd28c38	-0.025701627
41	0xbdc40f25	-0.09573201
42	0x3d9a02c3	0.07520058
43	0xbdeccfda	-0.11563082
44	0x3d85f6d9	0.06541223
45	0x3dbd8a45	0.092548884
46	0x3e142917	0.144688
47	0x3d935f5d	0.071959235
48	0xbe4d5334	-0.2005127
49	0xbdffad0c	-0.12484178
50	0x3db306e7	0.08741551
51	0x3d1238bc	0.035698637
52	0xbe19baf5	-0.15012725
53	0xbdfc87dc	-0.123306006
54	0x3e396476	0.18104729
55	0x3e0abfd6	0.13549742
56	0xbdbb2730	-0.09138334
57	0xbd1e8fba	-0.038711287
58	0xbe3b546c	-0.18293923
59	0xbc8201f3	-0.01587007
60	0xbe126025	-0.14294489
61	0xbe08052c	-0.13283223
62	0xbc3b2fc7	-0.011424965
63	0x3cb0054b	0.021486899
64	0xbdb9b38d	-0.0906745
65	0x3dda6e0e	0.106655225
66	0xbdf0f300	-0.117650986
67	0x3e3d39cb	0.18479078
68	0x3e0872e8	0.13325083
69	0xbe173717	-0.14767109
70	0xbd74c4e9	-0.0597581
71	0x3bafaf2f	0.0053614597
72	0x3cdc8e42	0.026923303
73	0x3d43ca59	0.047800396
74	0x3d9aabba	0.075522855
75	0x3cb68510	0.022280246
76	0xbdc04fa8	-0.09390193
77	0x3da5aa89	0.080891676
78	0xbe3f313b	-0.18671124
79	0xbde99bac	-0.11406645
80	0xbd1d2372	-0.03836388
81	0xbdbffd62	-0.09374501
82	0xbd811a55	-0.063038506
83	0xbe34a472	-0.17640856
84	0xbd222125	-0.03958239
85	0x3d35144c	0.04420881
86	0xbe002123	-0.1251264
87	0xbc816fa3	-0.015800303
88	0x3e11599e	0.14194342
89	0xbcc14fb9	-0.023597585
90	0x3c5ba6dc	0.013406482
91	0xbc236807	-0.0099735325
92	0x3d692bf6	0.05692669
93	0x3df58809	0.11988837
94	0x3e315dea	0.17320982
95	0x3de282bc	0.11060092
96	0x3e409bc1	0.18809415
97	0xbbeedbc9	-0.007289384
98	0xbe2d44e0	-0.16920805
99	0xbdbf6b2f	-0.093466155
100	0x3e080b29	0.13285507
101	0xbaa384f9	-0.0012475542
102	0xbdd00160	-0.10156512
103	0xbe170426	-0.14747676
104	0xbe3b191b	-0.18271296
105	0xbe223da5	-0.15843828
106	0xbd1fe429	-0.03903595
107	0x3de16a50	0.110066056
108	0x3dd5164b	0.10404643
109	0xbe3aaefb	-0.18230812
110	0x3df22809	0.11824042
111	0xbe1bb26a	-0.15204778
112	0xbd2fef8d	-0.042953063
113	0xbd9c6714	-0.07636848
114	0xbd1e08d2	-0.03858263
115	0xbd1fe27a	-0.039034344
116	0xbe379af2	-0.179302
117	0xbe306245	-0.17224987
118	0xbd19c32c	-0.037539646
119	0x3a674378	0.00088220043
120	0xbda1b122	-0.078951135
121	0x3d897ad8	0.06712884
122	0xbe3d11c9	-0.18463816
123	0xbcbc9f1e	-0.023025092
124	0x3e25b3db	0.1618189
125	0xbd92ce6e	-0.071682796
126	0x3e358700	0.1772728
127	0x3d885071	0.06655968
128	0xbe31d8d4	-0.1736787
129	0x3dfa23ae	0.122138366
130	0xbcb5ece0	-0.022207677
131	0xbda7dd06	-0.08196454
132	0x3e23e0e1	0.16003753
133	0xbe1f401c	-0.155518
134	0x3c9d43ea	0.019197423
135	0xbd250a4d	-0.040293027
136	0x3e176489	0.14784445
137	0x3d61a67d	0.055090416
138	0x3da2f508	0.07956892
139	0x3da5de95	0.08099095
140	0xbd60ce2c	-0.05488412
141	0xbd430a7a	-0.047617413
142	0xbe237681	-0.15963174
143	0x3defd3e3	0.11710336
144	0x3e1584ff	0.14601515
145	0x3e00b4b3	0.12568931
146	0xbe0879b2	-0.13327673
147	0x3c0367ea	0.0080203805
148	0xbe082c03	-0.13298039
149	0xbde753de	-0.11295293
150	0xbdcd765c	-0.10032341
151	0x3d74daba	0.059778906
152	0xbde9c608	-0.114147246
153	0xbaa669a4	-0.0012696278
154	0x3bb1a05a	0.0054207267
155	0x3dfe11ff	0.12405776
156	0xbe14bdff	-0.14525603
157	0xbe074a4b	-0.13211934
158	0xbdd16e1f	-0.10226082
159	0x3e156eb5	0.14593013
160	0xbd8dadc2	-0.06917907
161	0x3e1ff337	0.15620123
162	0x3d8e85f0	0.0695914
163	0x3cd54352	0.026033077
164	0xbc05ea85	-0.00817359
165	0xbd000577	-0.03125521
166	0x3c96f478	0.018427119
167	0xbcfd29b6	-0.030903678
168	0xbbc6aab6	-0.006062831
169	0x3d0d7934	0.034539416
170	0xbe0de7b5	-0.1385792
171	0xbdbf6b27	-0.093466096
172	0x3e303c23	0.1721044
173	0xbe1e485a	-0.15457287
174	0xbc825b94	-0.015912808
175	0x3e3e0fb0	0.18560672
176	0x3d9f06c7	0.077649646
177	0x3c2f5ea4	0.010703716
178	0xbe19adbc	-0.1500768
179	0x3dbc469d	0.09193156
180	0xbe096130	-0.1341598
181	0xbd6b3841	-0.057426695
182	0xbd843d5b	-0.06457015
183	0xbd2c32d8	-0.042040676
184	0x3b09f549	0.0021050742
185	0x3e244206	0.16040811
186	0x3cd1b935	0.025601009
187	0x3e308361	0.17237617
188	0x3dff0f77	0.124541216
189	0xbdf92dee	-0.121669635
190	0x3db0c4bf	0.08631276
191	0xbe02fc7f	-0.12791632
192	0xbd902a43	-0.07039311
193	0x3d505446	0.05086162
194	0x3d6f4e0a	0.058424033
195	0x3e010e9f	0.12603234
196	0xbd87050e	-0.06592761
197	0xbc2b0bb2	-0.0104398
198	0x3dde36d3	0.10850301
199	0xbe39f7b4	-0.18160897
200	0x3e141c87	0.14464007
201	0xbe26f6c9	-0.16305079
202	0x3bb63cb3	0.005561435
203	0xbd347a56	-0.04406198
204	0xbded5d1a	-0.11590023
205	0x3cf54db5	0.02994428
206	0x3e21e40a	0.15809646
207	0xbd4835c1	-0.04887939
208	0xbdf76a74	-0.12080851
209	0xbd91c478	-0.071175516
210	0xbe4b5fcb	-0.19860761
211	0x3db1e953	0.08687081
212	0xbdb9e106	-0.09076123
213	0xbdfeca63	-0.12440946
214	0xbde31037	-0.11087077
215	0x3dfbc396	0.122931644
216	0x3dd0b999	0.1019165
217	0x3e160762	0.14651254
218	0x3d8ef29f	0.0697987
219	0xbd9603c6	-0.073249385
220	0xbd6d9274	-0.058000997
221	0x3d8b3941	0.0679803
222	0x3e28bacf	0.16477512
223	0x3d45c5f2	0.04828448
224	0xbdc6a2e3	-0.09699037
225	0xbdb0c130	-0.086305976
226	0xbe47755d	-0.19478364
227	0x3d34060c	0.04395108
228	0xbddf58e0	-0.109056234
229	0xbe2d21ab	-0.16907375
230	0x3e2add12	0.16685894
231	0xbdf1162b	-0.11771806
232	0xbd0e3826	-0.034721516
233	0x3d26f222	0.04075826
234	0x3bc59c7d	0.0060306177
235	0xbdfd0d35	-0.12356035
236	0xbe1f4b89	-0.15556158
237	0x3e19e3a6	0.15028247
238	0x3d005c9d	0.031338323
239	0x3e26d6b4	0.1629284
240	0xbd86c9ca	-0.06581457
241	0x3d6830db	0.056687217
242	0xbd3323dd	-0.043735374
243	0xbc0c38d9	-0.008558475
244	0xbdf4096c	-0.119158596
245	0x3d720bfe	0.059093468
246	0x3d841749	0.06449754
247	0x3b7621f2	0.0037556854
248	0xbd17a861	-0.037025813
249	0xbdcd4344	-0.100225955
250	0x3e0c63bc	0.1370992
251	0xbe049f0b	-0.12951295
252	0x3d99db88	0.075125754
253	0xbd8326f8	-0.06403917
254	0xbdb0021a	-0.08594151
255	0x3d2474df	0.04015052

lin1.bias f4 [128]
0	0xbd2ac92a	-0.04169575
1	0xbe0921ed	-0.13391848
2	0xbe25a9ee	-0.16178104
3	0x3db9fcd0	0.09081423
4	0xbd331402	-0.043720253
5	0x3dfda3dd	0.1238477
6	0x3c330de4	0.010928605
7	0x3a866697	0.0010253963
8	0xbe3143cf	-0.17311023
9	0xba204499	-0.00061137375
10	0xbd39fca2	-0.045406945
11	0xbde19e53	-0.11016526
12	0xbd4ae43c	-0.049534068
13	0x3be481b3	0.006973469
14	0xbe20bbe8	-0.1569668
15	0x3cfafb20	0.030637324
16	0x3dfa48a8	0.12220889
17	0x3d2e0313	0.0424834
18	0x3e3fa740	0.18716145
19	0x3db94595	0.09046475
20	0xbe1bc49a	-0.15211716
21	0xbda657aa	-0.08122189
22	0xbd4939f9	-0.049127553
23	0x3d768b72	0.06019158
24	0xbc13ba48	-0.009016581
25	0x3e1e47a9	0.15457024
26	0x3ccaaa25	0.024739334
27	0xbdf54984	-0.119769126
28	0xbd87c7f9	-0.06629939
29	0xbe215595	-0.15755303
30	0xbd5ca9c7	-0.05387285
31	0x3dc2b672	0.09507455
32	0x3bce81cf	0.0063020955
33	0xbe44a40d	-0.19203205
34	0xbe2f88bb	-0.17142002
35	0x3d8d7f72	0.06909074
36	0xbe2a5700	-0.1663475
37	0xbe1be9dc	-0.15225929
38	0xbdf0de97	-0.11761206
39	0x3e3d8c9e	0.18510672
40	0xbd6394e2	-0.055561908
41	0xbda65a81	-0.08122731
42	0xbe03babd	-0.12864204
43	0x3dfe178c	0.12406835
44	0xbcf79222	-0.030221049
45	0x3d2972a9	0.041369114
46	0x3d54bde9	0.051938925
47	0x3d53a208	0.051668197
48	0x3e061e6a	0.1309754
49	0x3c0c94ad	0.008580369
50	0x3ca2133c	0.019784562
51	0xbc182c9e	-0.009287981
52	0xbe202396	-0.15638575
53	0xbd21adad	-0.03947227
54	0x3e3acec3	0.18242936
55	0xbe0c4f53	-0.13702135
56	0xbdf7c30f	-0.12097751
57	0xbe445e84	-0.1917668
58	0x3c32d44c	0.010914873
59	0xbe3732e7	-0.17890511
60	0xbdc126e8	-0.09431249
61	0x3e366fbd	0.17816062
62	0x3d89e5ec	0.06733307
63	0x3dd4d867	0.10392838
64	0x3d17103a	0.03688071
65	0xbe23fd63	-0.16014628
66	0xbdb3e0b2	-0.087830916
67	0xbe225f94	-0.15856773
68	0xbde2527d	-0.1105089
69	0x3d764aca	0.06012992
70	0xbd56d248	-0.052446634
71	0x3e433da0	0.19066477
72	0xbe101c61	-0.14073326
73	0xbe281416	-0.16413912
74	0x3e3dbeec	0.18529862
75	0xbe2bce30	-0.16777873
76	0x3e23ffee	0.16015598
77	0x3d4a3a1c	0.049371824
78	0xbe39e0cd	-0.18152161
79	0x3e2e56b0	0.17025256
80	0xbd83e863	-0.064408086
81	0xbda02c78	-0.07820982
82	0xbe17e1df	-0.14832257
83	0xbe2ce389	-0.16883673
84	0x3d539b26	0.051661633
85	0xbe3d54c1	-0.18489362
86	0x3da27d41	0.079340465
87	0xbd3cfd9e	-0.046140306
88	0x3d93a75d	0.072096564
89	0xbd49a8fc	-0.04923342
90	0x3d89f9da	0.067371085
91	0xbb811241	-0.0039389436
92	0x3d6ff7cb	0.058585923
93	0xbd8dde59	-0.06927175
94	0xbe023850	-0.12716794
95	0x3cb56357	0.022142095
96	0xbded9f2f	-0.116026275
97	0xbdf0d75e	-0.11759828
98	0xbe490828	-0.19632018
99	0xbd78de5b	-0.06075893
100	0xbe0a8b99	-0.13529815
101	0x3e1d0fbb	0.15338032
102	0x3e12e34f	0.14344524
103	0x3d3bc0b5	0.045838077
104	0x3e1eedd6	0.15520415
105	0x3db1b821	0.08677698
106	0xbe3b8dd6	-0.18315825
107	0xbc957a77	-0.018246872
108	0xbd08b007	-0.033370998
109	0xbde9c201	-0.114139564
110	0x3d48bb0d	0.04900651
111	0xbd7da81b	-0.061927896
112	0xbdbec4c2	-0.09314872
113	0xbac6c334	-0.0015164376
114	0xbdf635ad	-0.120219566
115	0x3e22780c	0.15866107
116	0x3deba239	0.11505551
117	0x3e389f9c	0.18029636
118	0xbd113f93	-0.03546102
119	0x3d8c2f2c	0.06844935
120	0xbba1e363	-0.0049404367
121	0xbe21f4b3	-0.15816002
122	0x3db4240d	0.08795939
123	0xbe09fda5	-0.13475664
124	0xbd8ba1cb	-0.06817969
125	0xbdaf941a	-0.0857317
126	0xbe406609	-0.18788923
127	0xba35c4c9	-0.00069339253

norm1.weight f4 [128]
0	0x3f817208	1.0112925
1	0x3f7facb0	0.99872875
2	0x3f7d8c70	0.99042416
3	0x3f8021e7	1.0010346
4	0x3f7f4097	0.9970793
5	0x3f7f04d3	0.99616736
6	0x3f809b13	1.0047325
7	0x3f7eb595	0.9949582
8	0x3f7e8d82	0.99434674
9	0x3f809123	1.0044292
10	0x3f7fbf19	0.99900967
11	0x3f808012	1.0039084
12	0x3f7e649b	0.9937226
13	0x3f801119	1.0005218
14	0x3f7fbfbf	0.99901956
15	0x3f7d9355	0.99052936
16	0x3f803e7e	1.0019071
17	0x3f7d786a	0.9901186
18	0x3f7ebda1	0.995081
19	0x3f8023e0	1.0010948
20	0x3f7f1799	0.9964538
21	0x3f7efdaa	0.9960581
22	0x3f807fb5	1.0038973
23	0x3f7ee3a9	0.9956613
24	0x3f80e4cc	1.0069823
25	0x3f80387f	1.0017241
26	0x3f7c16d4	0.9847233
27	0x3f8023e2	1.001095
28	0x3f806f25	1.0033919
29	0x3f805744	1.0026631
30	0x3f7ee8f1	0.9957419
31	0x3f7fc11f	0.99904054
32	0x3f7efa4b	0.99600667
33	0x3f81d60b	1.0143446
34	0x3f80517c	1.0024867
35	0x3f803d8a	1.001878
36	0x3f7f5a33	0.9974701
37	0x3f810e5f	1.0082511
38	0x3f803253	1.0015358
39	0x3f80f958	1.0076094
40	0x3f7fb82d	0.99890405
41	0x3f80086d	1.0002571
42	0x3f80f816	1.007571
43	0x3f7f207e	0.99658954
44	0x3f8024b4	1.0011201
45	0x3f8122e9	1.0088779
46	0x3f80a0ac	1.0049033
47	0x3f7efa0f	0.9960031
48	0x3f801539	1.0006477
49	0x3f807dba	1.0038369
50	0x3f7ed9d7	0.9955115
51	0x3f7e9635	0.9944795
52	0x3f80a933	1.0051636
53	0x3f7de5db	0.99178857
54	0x3f7fc6da	0.999128
55	0x3f80fa78	1.0076437
56	0x3f7dcf5b	0.99144524
57	0x3f7e488d	0.99329454
58	0x3f7dd798	0.99157095
59	0x3f80ff9a	1.0078003
60	0x3f7fbc9d	0.99897176
61	0x3f800791	1.0002309
62	0x3f7cec86	0.98798406
63	0x3f7da3d5	0.9907811
64	0x3f8013d9	1.0006057
65	0x3f7dc860	0.99133873
66	0x3f7ee742	0.9957162
67	0x3f7f37c2	0.99694455
68	0x3f7e0188	0.99221087
69	0x3f80255d	1.0011402
70	0x3f8029e5	1.0012785
71	0x3f7efa5b	0.9960076
72	0x3f7e7dbc	0.99410605
73	0x3f80ac00	1.005249
74	0x3f7eceef	0.99534506
75	0x3f80566f	1.0026377
76	0x3f7c58bf	0.98572916
77	0x3f7db039	0.9909702
78	0x3f803b8f	1.0018176
79	0x3f803cb1	1.0018522
80	0x3f801526	1.0006454
81	0x3f80d8bf	1.0066146
82	0x3f7e1dbd	0.99264127
83	0x3f7d1ed9	0.98875195
84	0x3f802bf6	1.0013416
85	0x3f7e558d	0.9934929
86	0x3f7e981c	0.9945085
87	0x3f7eb9d6	0.99502313
88	0x3f805a66	1.0027587
89	0x3f802245	1.0010458
90	0x3f7e1914	0.99257016
91	0x3f803c45	1.0018393
92	0x3f81686f	1.0109996
93	0x3f80eb39	1.0071784
94	0x3f7dc499	0.9912811
95	0x3f803718	1.0016813
96	0x3f7ea298	0.9946685
97	0x3f80c3a3	1.0059704
98	0x3f7f0b65	0.9962676
99	0x3f7fa609	0.99862725
100	0x3f8011bc	1.0005412
101	0x3f7ee002	0.9956056
102	0x3f7fdde3	0.9994795
103	0x3f7feca1	0.9997044
104	0x3f806de7	1.003354
105	0x3f817de9	1.011655
106	0x3f7eef35	0.9958375
107	0x3f800f10	1.0004597
108	0x3f7f35a6	0.99691236
109	0x3f8037fb	1.0017084
110	0x3f807469	1.0035526
111	0x3f80c8ec	1.0061316
112	0x3f7f7197	0.997827
113	0x3f8095af	1.004568
114	0x3f805bf4	1.0028062
115	0x3f7ed1cd	0.9953888
116	0x3f80213e	1.0010145
117	0x3f807dea	1.0038426
118	0x3f7f3ed7	0.9970526
119	0x3f8053e1	1.0025598
120	0x3f814394	1.0098748
121	0x3f7de3ee	0.9917592
122	0x3f7f5da7	0.9975228
123	0x3f7f233d	0.99663144
124	0x3f7eefed	0.9958485
125	0x3f7f1d84	0.9965441
126	0x3f8083f9	1.0040275
127	0x3f7fe2a7	0.9995522

norm1.bias f4 [128]
0	0x3c218f3f	0.009860813
1	0xbb06c686	-0.0020565107
2	0xbc68171d	-0.014165667
3	0x3a9dec96	0.0012048658
4	0x3c222f30	0.009898946
5	0xbbc16e21	-0.005903021
6	0xbb4d9043	-0.0031366504
7	0xbb70f083	-0.003676445
8	0xbba00681	-0.004883588
9	0xbba46234	-0.0050165895
10	0xbaa3791a	-0.0012472004
11	0x3baeea00	0.0053379536
12	0xbc0a2458	-0.008431517
13	0x3aa099d0	0.0012252871
14	0x3b0bbdf4	0.0021322938
15	0xbc50a4e7	-0.012734628
16	0xbb7f9332	-0.0038997647
17	0xbbd1eac4	-0.00640616
18	0xbb842d4e	-0.004033721
19	0x3bda674b	0.0066651455
20	0xbc3cbe97	-0.01152005
21	0xbbc1a180	-0.005909145
22	0x3bd8602b	0.006603261
23	0xbba82cf4	-0.005132312
24	0x3c08134d	0.008305383
25	0x3bfc68af	0.007702909
26	0xbc3dc195	-0.011581798
27	0x3bff3c1a	0.007789147
28	0x3c35b593	0.011090654
29	0x3a49fab9	0.0007704902
30	0xbb15fc2f	-0.002288591
31	0xb9de6206	-0.00042416173
32	0xbb8ac9f2	-0.0042354995
33	0x3ba30d02	0.004975916
34	0xbb2f2df4	-0.002673027
35	0x3b23c461	0.0024988877
36	0x3b7eeb2a	0.0038897493
37	0x3c00d68e	0.007863654
38	0xbb2e18d3	-0.002656509
39	0x3c2406e1	0.010011406
40	0xbc0772aa	-0.008267084
41	0xb9bf5cde	-0.0003649955
42	0x3be85570	0.007090263
43	0xbb41f1d1	-0.0029593597
44	0x3ba456cc	0.00501523
45	0x3bea0820	0.007142082
46	0x3b986e1e	0.004651799
47	0xbadf7b8f	-0.0017050373
48	0xbb467a33	-0.0030285239
49	0x3ab18d0d	0.0013546065
50	0xba1de088	-0.00060225325
51	0x3b470678	0.0030368846
52	0x3c150e37	0.009097627
53	0xbba35c50	-0.0049853697
54	0xbb3858b2	-0.0028129038
55	0x3b4351c1	0.0029803368
56	0xbbe9d573	-0.007136041
57	0xbc0d48e7	-0.008623338
58	0xbbbfa56d	-0.0058485777
59	0x3b1e8a19	0.00241912
60	0xbab9b2c0	-0.0014167652
61	0xba01e26f	-0.00049547007
62	0xbbd430f4	-0.006475562
63	0xbc464d2d	-0.012103361
64	0x3c14cf1a	0.00908258
65	0x39a4d62f	0.00031440097
66	0x39f99e00	0.000476107
67	0xbb9eb3b4	-0.0048431996
68	0xbc3c174c	-0.011480164
69	0xbb18c77a	-0.0023312257
70	0x3bf72546	0.007542285
71	0x3a51bdf8	0.0008001025
72	0xbb8e1740	-0.0043362677
73	0x3ae41992	0.001740264
74	0x3a200489	0.00061041914
75	0x3b0ba2b9	0.0021306707
76	0xbbda7754	-0.006667057
77	0xbb5212f2	-0.003205475
78	0xbc0653d2	-0.008198695
79	0x39f5ba18	0.00046868692
80	0x3b06af2c	0.0020551188
81	0x3bbab25f	0.005697533
82	0xbc1e960f	-0.009679331
83	0xbc18943f	-0.009312688
84	0xbb7eab57	-0.003885945
85	0xbaf0ecf9	-0.001838117
86	0xbc46aacf	-0.012125685
87	0x3b51155e	0.0031903605
88	0x3bd01944	0.006350668
89	0x3c0079a2	0.0078414995
90	0xbb0d0626	-0.0021518557
91	0x3b1a8774	0.0023579272
92	0x3ba41335	0.0050071725
93	0x3c340ac3	0.010988894
94	0xbbda84ef	-0.006668679
95	0x3ae0b59e	0.001714397
96	0xbbe8393a	-0.0070869
97	0x3bb7d188	0.005609695
98	0x3b5a145f	0.0033276302
99	0xba55e583	-0.0008159505
100	0xbb38dedb	-0.0028209004
101	0x38d72fbe	0.000102608916
102	0xbb4cf57d	-0.0031274252
103	0x3ba44fb2	0.0050143832
104	0xbb3c6768	-0.0028748158
105	0x3baa7266	0.0052016256
106	0xbbbb379a	-0.0057134153
107	0xbb4f27c9	-0.0031609407
108	0x3a86bd2d	0.0010279767
109	0xba8df825	-0.0010831399
110	0x39534fc8	0.00020152249
111	0x3bc044a8	0.0058675595
112	0xb8eedbc8	-0.00011389662
113	0x3b6892dc	0.0035487926
114	0xbb2c7978	-0.0026317518
115	0xbbc6aead	-0.0060633034
116	0xbb5c7af8	-0.003364263
117	0xbac2b91e	-0.0014856195
118	0xbbc0932c	-0.0058769193
119	0x3c3d3e23	0.011550459
120	0x3a9b258b	0.001183675
121	0xbc374cec	-0.011187773
122	0xba97973d	-0.0011565458
123	0xbba7441b	-0.0051045544
124	0xbad85c5e	-0.001650702
125	0xb9c17639	-0.0003689991
126	0x3b3814b2	0.0028088507
127	0xbb517e5b	-0.0031966183

norm1.running_mean f4 [128]
0	0x3cca5b90	0.024701864
1	0x3e16f36c	0.14741296
2	0xbcfdf93e	-0.031002637
3	0x3a4da347	0.00078444596
4	0xbd8a3421	-0.06748224
5	0x3e3ba231	0.1832359
6	0xbbf6d162	-0.0075322846
7	0xbdb73890	-0.08946335
8	0xbdc4d77e	-0.096114144
9	0xbc27b9d0	-0.010237172
10	0x3ba47375	0.0050186464
11	0xbe9cc386	-0.30617923
12	0xbcb3610a	-0.021896858
13	0xbe0f94c8	-0.140216
14	0xbe780e1c	-0.24224132
15	0x3de7ba9a	0.11314888
16	0x3e00d372	0.1258066
17	0xbd83b1bb	-0.06430384
18	0xbe0b42d7	-0.13599716
19	0xbe0dbc09	-0.13841261
20	0x3ccf1edd	0.025283271
21	0xbdab1e21	-0.08355356
22	0xbe0bec94	-0.13664466
23	0x3e1ae15f	0.15125035
24	0xbe51c99e	-0.20487067
25	0x3cc2d3a0	0.023782551
26	0xbd6c2682	-0.05765391
27	0xbd97e7a7	-0.07417231
28	0xbdca9473	-0.09891596
29	0xbd6e8935	-0.05823632
30	0xbe5e19de	-0.21689555
31	0x3e716f0a	0.23577514
32	0x3e4a8f5f	0.19781254
33	0xbe007aa1	-0.12546779
34	0xbe16e0ce	-0.14734194
35	0x3d98e4b4	0.07465497
36	0xbd5e99dd	-0.054345954
37	0x3e4da96a	0.20084158
38	0xbe40fc94	-0.18846351
39	0xbe03054e	-0.12794992
40	0xbe717d5a	-0.23582974
41	0x3d3abe97	0.045591917
42	0xbe5a27ca	-0.21304241
43	0x3e5561fb	0.20838158
44	0xbeab1d8b	-0.33420977
45	0x3de384fd	0.1110935
46	0xbe550685	-0.20803268
47	0xbd7db67f	-0.06194162
48	0x3f079105	0.5295566
49	0xbd2a3a6d	-0.041559625
50	0x3d65987f	0.056053635
51	0xbeb4b4ee	-0.35294288
52	0xbc9bddec	-0.019026719
53	0x3e8c92a0	0.27455616
54	0x3c0909c8	0.008364148
55	0x3d9abefc	0.07555959
56	0xbe8ecdea	-0.27891475
57	0xbec90618	-0.39262462
58	0x3e219562	0.15779641
59	0xbd52c4df	-0.051457282
60	0xbcb8db06	-0.022565376
61	0x3e9d0323	0.30666456
62	0x3e85df4a	0.2614692
63	0xbe2e2b92	-0.17008808
64	0x3e6cc6d6	0.23122725
65	0xbebee9a1	-0.3728762
66	0x3d1f2fec	0.03886406
67	0xbb2b4733	-0.0026134967
68	0xbeb86e9f	-0.36021897
69	0x3db5dcb1	0.08879984
70	0x3dae74b9	0.08518357
71	0x3dc4407a	0.095826104
72	0xbd83630f	-0.06415378
73	0xbe3e442b	-0.18580692
74	0x3e4ce2e2	0.20008424
75	0xbeca637f	-0.39529034
76	0x3e363eda	0.17797413
77	0x3d67f6a4	0.0566317
78	0xbe8b1029	-0.27160767
79	0x3e740898	0.23831403
80	0xbe9271d0	-0.28602457
81	0x3d5b1251	0.053484265
82	0xbdcfc08a	-0.10144146
83	0xbe5eb881	-0.2175007
84	0xbd984784	-0.074355155
85	0xbe57b410	-0.21064782
86	0xbbce2fa1	-0.006292299
87	0xbdf07025	-0.1174014
88	0x3ebd7c4c	0.37008893
89	0xbe228019	-0.15869178
90	0xbdeba983	-0.11506941
91	0xbe2573ce	-0.16157457
92	0xbe31ca3a	-0.173623
93	0xbe273284	-0.16327864
94	0xbd891c58	-0.06694859
95	0xbd2d002f	-0.042236503
96	0xbd867239	-0.06564755
97	0xbc35969d	-0.011083272
98	0xbf036885	-0.5133136
99	0xbe9c7ca7	-0.30563852
100	0xbe47834a	-0.19483677
101	0xbbe348f5	-0.0069361874
102	0x3e08d982	0.13364223
103	0xbdfe8210	-0.12427151
104	0x3d9bfa65	0.07616118
105	0x3e8ceea8	0.2752583
106	0xbe807a88	-0.25093484
107	0x3e0f7164	0.14008099
108	0x3c31bcd4	0.010848243
109	0x3db259a7	0.08708506
110	0xbdbf49ba	-0.09340234
111	0x3b87c96f	0.004143886
112	0x3bf07ade	0.0073388657
113	0xbda58a17	-0.08082979
114	0x3d19f003	0.03758241
115	0x3c2b4697	0.010453842
116	0xbdde7f7a	-0.10864158
117	0x3e932fe6	0.2874748
118	0x3cb4b545	0.022059092
119	0x3c58d488	0.013234265
120	0x3d018f5f	0.03163087
121	0xbd8bd1e2	-0.06827141
122	0xbd0195f3	-0.031637143
123	0xbde3a361	-0.111151464
124	0xbdb72aa4	-0.0894368
125	0xbc99a565	-0.018755624
126	0xbea7d0f9	-0.3277662
127	0xbe82a2d9	-0.25514868

norm1.running_var f4 [128]
0	0x3c1e66eb	0.009668092
1	0x3c9ef3db	0.019403389
2	0x3cfaa812	0.03059772
3	0x3d95f685	0.073224105
4	0x3ca6de55	0.020369688
5	0x3c50153c	0.012700375
6	0x3ca94857	0.020664377
7	0x3ceab048	0.02864851
8	0x3ce13a0f	0.027493505
9	0x3c8c0fc0	0.017097354
10	0x3c458b02	0.012057068
11	0x3c594f92	0.0132636
12	0x3d4fdc7a	0.050747372
13	0x3ce66fea	0.028129537
14	0x3c580707	0.013185269
15	0x3d1c7d96	0.038205706
16	0x3c8526e7	0.016253902
17	0x3c31b157	0.010845504
18	0x3c9a97cd	0.018871212
19	0x3cdf3b73	0.027250027
20	0x3cb58397	0.022157473
21	0x3d258a98	0.040415376
22	0x3c9d2106	0.019180786
23	0x3ce337c1	0.027736546
24	0x3c81de09	0.015852945
25	0x3d037e7c	0.032103047
26	0x3d0699cb	0.032861512
27	0x3c789111	0.015171305
28	0x3cebb16d	0.028771127
29	0x3c43c630	0.011949107
30	0x3ca68640	0.020327687
31	0x3c512069	0.012764075
32	0x3cca60a7	0.02470429
33	0x3c80bb09	0.015714185
34	0x3c798964	0.01523051
35	0x3c10dcdd	0.00884172
36	0x3c57acac	0.013163727
37	0x3d865380	0.06558895
38	0x3cf13f46	0.029449116
39	0x3c99b3d9	0.018762516
40	0x3d446814	0.04795082
41	0x3d31d645	0.043417234
42	0x3cb80527	0.022463394
43	0x3d866046	0.065613315
44	0x3ca49aae	0.020093288
45	0x3c88cebc	0.016700141
46	0x3c977089	0.018486278
47	0x3d13fd34	0.036130145
48	0x3d1b66ea	0.037939943
49	0x3d51594d	0.051110554
50	0x3c967eeb	0.018371066
51	0x3c4bd028	0.012439765
52	0x3d340db6	0.04395839
53	0x3c4efda0	0.012633711
54	0x3c80c6d1	0.015719803
55	0x3d02b674	0.031912282
56	0x3d543902	0.05181218
57	0x3cbd1bff	0.023084639
58	0x3c384bc6	0.011248535
59	0x3c93ca63	0.018040841
60	0x3cdb5493	0.026773727
61	0x3d165495	0.036701757
62	0x3bd660e6	0.006542313
63	0x3cd1444e	0.025545266
64	0x3cca8e75	0.024726132
65	0x3d039895	0.032127935
66	0x3c8ed1da	0.01743405
67	0x3c858932	0.016300771
68	0x3c7c3e02	0.015395643
69	0x3c0b8bb6	0.008517196
70	0x3d9f3cb9	0.07775254
71	0x3cf44aea	0.029820878
72	0x3c724069	0.014785864
73	0x3c3bd8fe	0.011465309
74	0x3cb73c83	0.022367721
75	0x3d0451f2	0.03230471
76	0x3c8a62d1	0.016892822
77	0x3d45ff87	0.048339393
78	0x3cb966d9	0.02263205
79	0x3c809907	0.01569797
80	0x3c3b8398	0.011444949
81	0x3d3da6bb	0.046301585
82	0x3c14db85	0.009085541
83	0x3d0e4aa2	0.034739144
84	0x3c10de40	0.008842051
85	0x3cf78a27	0.030217243
86	0x3c45f998	0.012083434
87	0x3d1b25bb	0.03787778
88	0x3ca4e2b2	0.020127628
89	0x3c4b842d	0.01242165
90	0x3c05b21d	0.008160141
91	0x3c66a358	0.01407703
92	0x3bc9018b	0.006134217
93	0x3ca5814f	0.02020326
94	0x3bd2ffc9	0.0064391834
95	0x3d0ebf10	0.03485018
96	0x3c08571b	0.008321549
97	0x3d0bbdc8	0.034116536
98	0x3cb9162e	0.022593584
99	0x3ddce7f9	0.10786433
100	0x3ca434ab	0.020044645
101	0x3ca4881b	0.020084431
102	0x3c6881f0	0.014191136
103	0x3bca5999	0.0061752317
104	0x3ce0025b	0.027344873
105	0x3c8a7dfd	0.016905779
106	0x3d205723	0.0391456
107	0x3ccf6d3b	0.02532064
108	0x3cd8912f	0.026436416
109	0x3c358242	0.011078419
110	0x3d1b1eab	0.037871044
111	0x3c5c86e7	0.013459898
112	0x3d25e7b4	0.040504172
113	0x3cdfd87a	0.027324904
114	0x3caa3c96	0.020780843
115	0x3c97c03c	0.018524282
116	0x3cc8d141	0.024513843
117	0x3d06550d	0.032795954
118	0x3d4f35b4	0.050588325
119	0x3d0f9b85	0.035060424
120	0x3cabce24	0.020972319
121	0x3c2a7147	0.010402984
122	0x3cf34083	0.029693848
123	0x3cb20675	0.021731595
124	0x3d6c4110	0.057679236
125	0x3d0dc4b3	0.034611415
126	0x3cd4b4ae	0.025965061
127	0x3c140130	0.009033486

convs.0.bases_weight f4 [128, 448]
0	0xbd79e2eb	-0.06100742
1	0x3ca8b552	0.020594273
2	0xbd3ac437	-0.04559728
3	0xbd80f516	-0.062967464
4	0x3d1202ab	0.035647076
5	0x3d8fd473	0.07022943
6	0x3bc47e7e	0.0059965244
7	0x3d8405ec	0.06446442
8	0x3da6d99f	0.08146977
9	0xb9b01004	-0.00033581269
10	0x3dcb3b5d	0.09923432
11	0x3d02f2db	0.031969886
12	0x3d38e2ab	0.045138042
13	0x3d105b3e	0.035243265
14	0xbdc2145f	-0.09476542
15	0x3d276327	0.040866043
16	0x3dbe8396	0.09302442
17	0x3c98a748	0.018634453
18	0x3c397698	0.011319779
19	0xbc7587ef	-0.014986022
20	0xbdae9de1	-0.08526207
21	0x3c0ddbbb	0.008658345
22	0x3d79feb4	0.06103392
23	0x3d235ca2	0.039883263
24	0x3dc6a955	0.09700266
25	0xbd77704b	-0.060409825
26	0x3dcd4b3b	0.10024115
27	0xbc448286	-0.01199401
28	0xbce34511	-0.027742894
29	0xbd6cbf70	-0.057799757
30	0xbd871b91	-0.06597055
31	0x3cc46930	0.023975939
32	0xbce45732	-0.02787361
33	0x3ca3ec26	0.020010065
34	0xbdcd0ede	-0.10012601
35	0xbd013b41	-0.03155065
36	0x3d67996a	0.05654279
37	0xbd64bad6	-0.055842243
38	0x3dc1431d	0.09436629
39	0xbd997ef3	-0.07494917
40	0xbd7043d9	-0.058658455
41	0x3d8f9bf0	0.070121646
42	0x3db3cce7	0.087793164
43	0x3d177085	0.03697254
44	0x3d7bd17b	0.061479073
45	0xbd803b24	-0.0626128
46	0x3ca110d7	0.01966135
47	0xbb95c713	-0.0045708506
48	0xbd626a75	-0.055277307
49	0x3c9d1511	0.019175084
50	0x3d1893fe	0.03725051
51	0xbd8ec9d1	-0.06972087
52	0xbbb17aa4	-0.005416231
53	0x3cde8570	0.027163237
54	0x3dd3da8f	0.10344421
55	0xbdb4581c	-0.08805868
56	0x3dbd26a4	0.09235886
57	0xbc2c536a	-0.010517934
58	0x3c90b3a1	0.017663779
59	0xbdbec4ce	-0.09314881
60	0xbdbac856	-0.09120242
61	0xbd3c09e7	-0.04590788
62	0xbc17ea90	-0.009272233
63	0x3ca84d82	0.020544771
64	0x3dc90239	0.09814877
65	0xbcba2589	-0.022722976
66	0x3d9e18b3	0.07719555
67	0xbda3fffb	-0.08007809
68	0x3d535fa1	0.05160487
69	0xbdbd9db4	-0.09258595
70	0xbdc7e3b3	-0.09760227
71	0x3d8a0a53	0.067402504
72	0xbd94a71e	-0.072584376
73	0xbd81e1c4	-0.063418895
74	0xbd6adeb6	-0.0573413
75	0xbd0bf73f	-0.03417134
76	0x3d1ebeb2	0.03875608
77	0x3d703008	0.058639556
78	0xbd90784f	-0.07054197
79	0x3c370961	0.01117167
80	0xbd9d2004	-0.07672122
81	0xbda9c57b	-0.082896195
82	0xbce09e54	-0.027419247
83	0xbbb7df1c	-0.0056113135
84	0x3d4fab5c	0.05070053
85	0x3d3ac88e	0.04560142
86	0x3d087ba9	0.033321057
87	0x3db70d10	0.08938038
88	0xbca8716a	-0.020561893
89	0xbb4475b1	-0.0029977376
90	0x3dd5974a	0.10429247
91	0x3bb1ac29	0.0054221344
92	0x3da150fd	0.078767754
93	0xbd2d81c3	-0.04236008
94	0x3d93bd0f	0.072137944
95	0x3d752c83	0.059856903
96	0x3da3e52c	0.080026954
97	0xbd932bb4	-0.0718607
98	0xbdacc378	-0.0843572
99	0x3c8d81c8	0.017273799
100	0xbc8fdc52	-0.017561112
101	0x3dc13432	0.094337836
102	0xbcf5e00b	-0.030014059
103	0xbcc03dc7	-0.023466958
104	0x3cbd38f2	0.023098443
105	0xbda577b4	-0.08079472
106	0xbdbc1458	-0.09183568
107	0x3da0de77	0.07854932
108	0x3ceaad86	0.028647196
109	0x3c40491a	0.011736179
110	0xbc6b9962	-0.014379831
111	0x3d4adcb2	0.049526878
112	0xbd0e1d00	-0.034695625
113	0x3ceab0ac	0.028648697
114	0x3d06ae57	0.032881107
115	0x3cb11624	0.021617003
116	0xbd95dbab	-0.07317289
117	0xbdc5f10b	-0.09665116
118	0xbd3eee2c	-0.046613857
119	0xbdb52dac	-0.08846602
120	0xbdbc5ec8	-0.091977656
121	0xbd08bbeb	-0.033382338
122	0xbc208545	-0.009797399
123	0x3c57eaa1	0.0131784985
124	0xbd73116b	-0.059342783
125	0xbd85855c	-0.06519577
126	0xbc9b913f	-0.018990157
127	0x3d7d6eb3	0.06187315
128	0x3d74faaa	0.059809364
129	0x3db63afc	0.08897969
130	0x3d47247f	0.04861879
131	0x3d8b307b	0.06796356
132	0xbab1ca02	-0.0013564231
133	0xbd85d2b0	-0.06534326
134	0x3cfc21fd	0.030777926
135	0x3dca1d12	0.09868826
136	0xbd162133	-0.036652755
137	0xbc1da484	-0.009621743
138	0xbdaa0007	-0.083007865
139	0x3d9d4fb9	0.076812215
140	0xbdaca96a	-0.08430751
141	0xbd11e467	-0.035618212
142	0xbb62ed8d	-0.0034626455
143	0xbd49b38b	-0.04924349
144	0x3b4f6a28	0.0031648967
145	0xbd5e0686	-0.05420544
146	0x3dbfb0d1	0.09359897
147	0xbd7a2017	-0.06106576
148	0x3c98f20b	0.018670103
149	0xbdc32e38	-0.095303
150	0x3b98948a	0.004656379
151	0x3daf6aa8	0.08565265
152	0xbd7caa0b	-0.061685603
153	0xbc3c600e	-0.011497511
154	0x3b04d84a	0.002027052
155	0xbb89e4fc	-0.0042082053
156	0x3cedc441	0.029024245
157	0x3db670fb	0.08908268
158	0xbcd5c523	-0.026094979
159	0x3d18c32f	0.037295517
160	0xbda61f32	-0.08111419
161	0xbd9f5a05	-0.07780842
162	0xbd866924	-0.06563023
163	0x3cea76f5	0.028621176
164	0x3c6ba50f	0.014382615
165	0x3dd217e7	0.10258465
166	0x3d15f5fd	0.036611546
167	0x3bd22d28	0.0064140745
168	0xbd2d06db	-0.042242866
169	0x3b914bfb	0.0044341064
170	0xbd4ecec4	-0.050490156
171	0x3cd19251	0.025582464
172	0xbd0993ce	-0.033588223
173	0xbd8fbb2d	-0.07018123
174	0x3bf89571	0.007586174
175	0x3d01cb13	0.031687807
176	0xbca85d85	-0.020552406
177	0x3b855fc9	0.0040702564
178	0xbdd9cc97	-0.106347255
179	0xbd05615b	-0.03256355
180	0xbdd95093	-0.106110714
181	0x3dc0027b	0.09375473
182	0x3dbd0736	0.09229891
183	0xbdb0c29a	-0.08630867
184	0xbda11ffc	-0.07867429
185	0xbdbeebff	-0.093223564
186	0x3d74d9bf	0.05977797
187	0x3cd473ba	0.025934089
188	0xbdc113db	-0.09427615
189	0xbd238629	-0.039922867
190	0x3d90fa4e	0.07078992
191	0x3b90a551	0.0044142385
192	0xbdc81121	-0.09768892
193	0x3d0c59ad	0.03426521
194	0x3dda9ca1	0.10674406
195	0x3db55fd4	0.088561684
196	0x3c443caa	0.011977354
197	0xbc9bd5fe	-0.019022938
198	0x3ba29820	0.0049619824
199	0x3d86410b	0.06555375
200	0x3d71a970	0.05899948
201	0xbda75c5c	-0.08171913
202	0x3d4b516f	0.049638208
203	0x3d9f9742	0.07792522
204	0xbda3a6e1	-0.07990814
205	0xbd97ac97	-0.07405966
206	0x3d88cbee	0.066795215
207	0x3d4681c6	0.048463605
208	0xbdbd5d46	-0.09246306
209	0x3cdd68d1	0.02702752
210	0x3d857cd1	0.065179475
211	0x3ca29760	0.019847572
212	0x3d63572c	0.055503055
213	0x3d08c8b8	0.033394545
214	0x3d04ecc2	0.032452352
215	0x3d68e7db	0.05686174
216	0xbd1881f0	-0.037233293
217	0x3863d28b	5.43171e-05
218	0xbccd01dc	-0.0250253
219	0xbced4d08	-0.028967395
220	0x3cef32c9	0.029199021
221	0xbd4bf7ed	-0.049796987
222	0xbbff7937	-0.0077964324
223	0x3db4d179	0.08829016
224	0x3cb65c26	0.022260737
225	0x3ddd141f	0.107948534
226	0xbbb4b170	-0.0055143163
227	0xbd135762	-0.035972007
228	0x3daf1e15	0.085506596
229	0xbd92aa22	-0.071613565
230	0x3d3d7564	0.04625453
231	0x3da72d26	0.08162908
232	0xbd81fae5	-0.063466825
233	0xbccae4d6	-0.02476732
234	0x3db39180	0.08767986
235	0xbc43996c	-0.011938434
236	0xbdc74f09	-0.09731872
237	0xbd70e746	-0.05881431
238	0xbdb7dff7	-0.08978265
239	0xbc651ac5	-0.013983433
240	0x3d5dd8ec	0.05416195
241	0xbc3b45a6	-0.01143018
242	0xbcafc5d3	-0.021456635
243	0x3c6f49b4	0.014604975
244	0xba174d6a	-0.00057717285
245	0xbc21dbda	-0.009879077
246	0xbd137daa	-0.036008514
247	0x3c6a85e1	0.014314146
248	0xba137db9	-0.0005626339
249	0xbc244c38	-0.010027938
250	0xbccc8a68	-0.024968341
251	0x3d1add22	0.037808545
252	0xbd1b3a58	-0.037897438
253	0x3a5d4d27	0.00084419776
254	0xbcb7cdb4	-0.022436954
255	0x3d9bc1d6	0.07605331

convs.0.bias f4 [128]
0	0x390d7252	0.00013489395
1	0x3a81ae83	0.0009893927
2	0xb8ddcd49	-0.000105763385
3	0x3a1dd71d	0.0006021129
4	0x36246cb8	2.4501187e-06
5	0x3984e353	0.00025346372
6	0x38526ed1	5.0171107e-05
7	0xb895441c	-7.11756e-05
8	0x39de6434	0.00042417797
9	0x39c2eb07	0.00037177672
10	0xb931d5e2	-0.00016959713
11	0xb82fc457	-4.1906107e-05
12	0xb9d28b78	-0.00040158234
13	0xbaac065f	-0.0013124457
14	0xb94185c9	-0.00018455753
15	0x3aa2a23d	0.001240797
16	0x3984b0eb	0.00025308816
17	0x3990627c	0.00027539197
18	0xb9cbd1d6	-0.00038875517
19	0xb9e8fd5f	-0.00044439264
20	0x3907b6db	0.00012942722
21	0xb92afeef	-0.00016307434
22	0x390c0db3	0.00013356544
23	0x391adbc5	0.00014768455
24	0x3881b0cc	6.18413e-05
25	0xba643527	-0.000870543
26	0x39c01edc	0.00036644086
27	0x3a83f6e1	0.0010068082
28	0x3963c514	0.00021721824
29	0x396beeaa	0.00022500256
30	0x39ba85af	0.00035576287
31	0x37a44256	1.9581214e-05
32	0x3a142484	0.0005651193
33	0xb8c27e9d	-9.2742244e-05
34	0xba1b84bc	-0.000593256
35	0x3954146c	0.00020225503
36	0xb8834685	-6.259702e-05
37	0xbad1f71e	-0.0016019081
38	0xb9f6697c	-0.00046999368
39	0xb9b095f6	-0.00033681066
40	0xb96b5ca5	-0.00022445859
41	0x3a94b303	0.0011344854
42	0x3a205f1c	0.0006117688
43	0xb7385677	-1.0987386e-05
44	0xb968f07e	-0.00022214834
45	0x3a5cae4b	0.00084183057
46	0xba416d5b	-0.0007378661
47	0x39a04906	0.00030571985
48	0xb9d59d88	-0.00040743896
49	0xba6e83e5	-0.00090986333
50	0x39f6de32	0.00047086325
51	0x39ae259d	0.0003321589
52	0x398434aa	0.0002521624
53	0x39eaf9fd	0.00044818214
54	0xb92fb8a0	-0.00016758079
55	0x3a558df4	0.0008146458
56	0x39de3ab8	0.00042386889
57	0xb9ffdaf0	-0.0004880051
58	0xba544809	-0.0008097892
59	0x3a18276f	0.0005804216
60	0xbaac8142	-0.001316108
61	0x39e124fe	0.00042942906
62	0x36bf8dd6	5.7087555e-06
63	0xba0e6431	-0.00054318
64	0xba111f89	-0.000553601
65	0x39c19f37	0.00036930453
66	0xba2ff546	-0.0006712269
67	0xb882b713	-6.232983e-05
68	0x39fe5404	0.00048509252
69	0x39c19468	0.000369224
70	0x39639723	0.0002170471
71	0x3a974085	0.0011539614
72	0xb9746480	-0.00023307092
73	0xb9915803	-0.0002772213
74	0x3aabea63	0.0013116117
75	0xb5ba9c6e	-1.3903607e-06
76	0xba13a44a	-0.0005632086
77	0xb8b73048	-8.735113e-05
78	0xb655ae28	-3.1840846e-06
79	0xb93aed07	-0.00017826642
80	0x390894c3	0.00013025389
81	0x3a1cabbf	0.000597652
82	0x3a1c3d19	0.0005960032
83	0xba7e0440	-0.00096899644
84	0xb8c71fa5	-9.494954e-05
85	0xb93d2246	-0.00018037212
86	0x398fa5ec	0.00027398707
87	0xb844aa66	-4.6888737e-05
88	0xb90d4151	-0.0001347114
89	0x3948a119	0.000191335
90	0xba76a558	-0.00094087934
91	0x39390816	0.00017645987
92	0xb9be0bc3	-0.00036248387
93	0xb91c4e41	-0.00014906471
94	0xb9feffdf	-0.00048637294
95	0x3a0231a6	0.00049665046
96	0xb990c61a	-0.00027613417
97	0x397b1b90	0.00023947493
98	0xb930b908	-0.00016853597
99	0xb9512fed	-0.00019949647
100	0xba57cfae	-0.0008232546
101	0x3990929d	0.00027575056
102	0x38596c9c	5.1837982e-05
103	0xb90e07b9	-0.00013545052
104	0x39e4be19	0.00043629183
105	0x3a052260	0.00050786696
106	0x39b82d23	0.00035128844
107	0xb98990b0	-0.00026238477
108	0x387e4cfa	6.063001e-05
109	0x39df7304	0.00042619568
110	0xba059c9a	-0.0005096883
111	0xba9c6236	-0.0011931125
112	0xba3a77e2	-0.0007113201
113	0x3a1f7488	0.0006082733
114	0x37bee066	2.2754259e-05
115	0xb91c4153	-0.00014901655
116	0x392923d5	0.00016130444
117	0xb9d18483	-0.00039962315
118	0xb9808de7	-0.00024519788
119	0x384d326d	4.892277e-05
120	0x39ffbeb9	0.0004877949
121	0x3916118d	0.00014311653
122	0xb7ca89f0	-2.4144509e-05
123	0x39a880f0	0.00032139523
124	0xb66df67c	-3.5459225e-06
125	0xb8091e38	-3.269149e-05
126	0x39b67d92	0.00034807302
127	0x39acf55f	0.00032989212

convs.0.comb_weight.weight f4 [42, 128]
0	0xbb6dec35	-0.003630412
1	0x3db0be39	0.08630032
2	0x3d8cc6d1	0.06873859
3	0x3dade024	0.08490017
4	0xbd83740a	-0.06418617
5	0x3d9cad20	0.076502085
6	0xbd1217e3	-0.03566731
7	0x3cad9e59	0.02119367
8	0xbdaf9b91	-0.08574594
9	0xbd869237	-0.06570857
10	0x3d48be0f	0.04900938
11	0xbc2e60a5	-0.010643159
12	0x3cf18a8d	0.029485011
13	0x3d83e909	0.06440932
14	0x3b1a6f3d	0.0023564838
15	0x3ccd3ab9	0.025052415
16	0xbc4d2223	-0.012520346
17	0x3d9a50f9	0.075349756
18	0x3cec1635	0.028819183
19	0xbd6eab53	-0.058268856
20	0xbc0ef0a3	-0.008724364
21	0x3c9e6ec7	0.019339932
22	0x3d8f301a	0.069915965
23	0x3c98d161	0.018654527
24	0xbcd161e2	-0.02555937
25	0x3cb68823	0.022281712
26	0xbccba366	-0.024858188
27	0xbd6dfb24	-0.058100834
28	0xbd25e6b2	-0.04050321
29	0x3db6a6c0	0.08918524
30	0x3d63000e	0.055419974
31	0xbd7be95f	-0.061501857
32	0x3db5af10	0.08871281
33	0x3d82bf87	0.06384187
34	0x3c90f52d	0.017695034
35	0x3d896316	0.06708352
36	0x3d479f0b	0.04873566
37	0x3cc472f5	0.023980597
38	0x3da67a42	0.081287876
39	0x3dbefde8	0.093257725
40	0x3d92f289	0.07175166
41	0x3cfab3b3	0.030603265
42	0x3c637045	0.013881748
43	0x3d3d9fde	0.04629504
44	0xbd3d0243	-0.046144735
45	0xbcb0ff47	-0.0216061
46	0xbdb4c0d4	-0.088258415
47	0xbd82e6e6	-0.06391697
48	0xbd474456	-0.048649155
49	0xbc9055b0	-0.017618984
50	0x3cf3d393	0.029763972
51	0x3d141568	0.036153227
52	0x3c8ce98d	0.01720121
53	0xbc585063	-0.013202759
54	0xbb5f9335	-0.0034114842
55	0xbcba3861	-0.022731962
56	0x3ca4bed6	0.020110529
57	0x3d251e19	0.040311906
58	0xbd5aba95	-0.053400595
59	0xbd1d8b2e	-0.03846281
60	0xbdaede7c	-0.08538529
61	0x3d5e9fed	0.054351736
62	0x3d66abae	0.05631607
63	0xbd30ace1	-0.04313362
64	0x3d5bf5a4	0.053701058
65	0xbdafb898	-0.0858013
66	0xbcf66936	-0.030079465
67	0x3db31c4b	0.08745631
68	0xbd9421ef	-0.07233035
69	0x3ba1cebe	0.0049379757
70	0x3d5dbb01	0.05413342
71	0x3d428569	0.04749051
72	0xbd8bea7c	-0.06831834
73	0xbd025af3	-0.031825017
74	0x3da58b7d	0.08083246
75	0x3cabfa5e	0.020993408
76	0xbd0421c9	-0.032258783
77	0xbd3da13d	-0.046296347
78	0x3d9f4b11	0.0777799
79	0x3c4a8b14	0.01236226
80	0x3ce956c7	0.028483761
81	0x3d594ecd	0.053053666
82	0xbd9e1d00	-0.07720375
83	0xbd9219f2	-0.07133855
84	0x3d17ff8d	0.037108947
85	0xbd94cd5c	-0.07265732
86	0xbc4ddd3f	-0.012564956
87	0xbd52b11a	-0.05143843
88	0x3d878824	0.06617764
89	0xbd5c692b	-0.053811233
90	0x3d86ea70	0.06587684
91	0x3d9ad560	0.07560229
92	0x3d5f0e51	0.054457013
93	0xbd22a61b	-0.03970919
94	0xbccab075	-0.024742344
95	0x3daad114	0.0834066
96	0xbd5561b4	-0.05209513
97	0x3d52d338	0.051470965
98	0xbdabb0be	-0.0838332
99	0xbcf6329d	-0.030053431
100	0x3bc472ed	0.0059951455
101	0xbcfea46c	-0.031084262
102	0x3d2b0fe4	0.0417632
103	0x3d170f2e	0.03687971
104	0xbd5696a9	-0.052389774
105	0x3dbbad45	0.09163908
106	0x3d361288	0.044451267
107	0x3d4a09b4	0.04932566
108	0xbd97e7de	-0.07417272
109	0xbd74296e	-0.059609823
110	0x3d3dbd42	0.04632307
111	0xbd181947	-0.03713348
112	0xbccc84c2	-0.024965648
113	0x3db63f02	0.088987365
114	0x3d7740fd	0.060364712
115	0x3d0bcada	0.034129
116	0xbd91908a	-0.07107647
117	0x3d86063b	0.06544157
118	0xbd52a444	-0.051426187
119	0xbd24b478	-0.04021117
120	0x3d8bd274	0.0682725
121	0x3d65a401	0.05606461
122	0x3d2a605e	0.04159581
123	0xbd9b0275	-0.07568828
124	0xbb90a019	-0.0044136164
125	0x3da04506	0.07825665
126	0xbda797ee	-0.08183275
127	0xbc156bd0	-0.009119943
128	0xbd91e440	-0.07123613
129	0xbd7bdbc5	-0.061488885
130	0x3da5ed5f	0.081019156
131	0x3d3c0296	0.045900904
132	0x3d46d19d	0.048539747
133	0x3d04c7a0	0.03241694
134	0xbd6922f2	-0.056918092
135	0xbc56746d	-0.0130892815
136	0xbd2853ac	-0.04109542
137	0x3d4da792	0.050208636
138	0x3d937e42	0.07201816
139	0x3d363580	0.044484615
140	0x3cc1058f	0.02356222
141	0x3d359585	0.044332046
142	0xbdab736e	-0.08371626
143	0xbd9b220c	-0.07574853
144	0x3cc0aeba	0.023520816
145	0xbda95364	-0.082678586
146	0xbd320a50	-0.043466866
147	0x3ceb3dc4	0.028715976
148	0xbc1b408a	-0.0094758365
149	0x3ce74cde	0.028234895
150	0xbdb502a2	-0.08838393
151	0x3d4f43e4	0.050601855
152	0x3d9201fc	0.07129285
153	0xbc9b9f2b	-0.018996796
154	0xbd027251	-0.031847302
155	0x3d9dfb53	0.07713952
156	0x3d08d982	0.033410557
157	0xbce93b31	-0.028470607
158	0xbcf51d34	-0.029921152
159	0xbdad0748	-0.084486544
160	0xbd8d8092	-0.069092885
161	0xbd1b6ad2	-0.03794367
162	0xbd4971e9	-0.0491809
163	0xba144215	-0.0005655599
164	0x3d15aa1a	0.036539175
165	0xbb724659	-0.00369682
166	0xbccf9590	-0.025339872
167	0xbd9abd4a	-0.07555635
168	0x3d2efda9	0.042722378
169	0x3c55e16e	0.013054235
170	0x3ba8db6d	0.0051531107
171	0x3d9cb237	0.07651179
172	0xbbab92b2	-0.0052359933
173	0x3c9ebb34	0.019376375
174	0xbb056f47	-0.0020360516
175	0x3dacb7f9	0.084335275
176	0xbdad5cae	-0.08464943
177	0x3d0da20d	0.03457837
178	0xbd1f7d6f	-0.038937982
179	0x3c3618ee	0.011114342
180	0x3d850e42	0.0649686
181	0x3d63735f	0.05552995
182	0x3d41bfa7	0.047301915
183	0x3d1edabe	0.038782828
184	0x3d692d03	0.056927692
185	0x3db9894a	0.09059389
186	0x3da46fd6	0.080291435
187	0xbc8b409e	-0.016998585
188	0xbd8567b1	-0.06513918
189	0xbbe02d45	-0.006841334
190	0x3d96b52c	0.073587745
191	0x3d63460a	0.055486716
192	0xbd631cf0	-0.05544752
193	0x3d01121f	0.031511422
194	0xbd000b5b	-0.03126083
195	0x3d918e07	0.07107168
196	0x3db18404	0.08667758
197	0xbd374582	-0.044744022
198	0xbcd9c54a	-0.026583333
199	0xbcfc95db	-0.030833175
200	0x3d1d1839	0.03835318
201	0x3d89a982	0.06721784
202	0xbcc63209	-0.02419378
203	0xbc26cd91	-0.010180847
204	0x3c2ef66e	0.010678871
205	0x3d11fd21	0.035641793
206	0x3cef180b	0.02918627
207	0x3d64db17	0.055873003
208	0x3d833d98	0.064082325
209	0x3cd8cf1c	0.026465945
210	0xbd44b6fe	-0.048026077
211	0x3c62cb0c	0.013842355
212	0xbd4370e8	-0.047715098
213	0x3d37adc8	0.044843465
214	0x3db1f6b4	0.08689633
215	0x3d097c5c	0.033565864
216	0x3d1feca6	0.039044045
217	0xbd93d5b1	-0.07218493
218	0x3d5608c9	0.052254472
219	0xbd3df84e	-0.04637938
220	0x3ce163f7	0.027513487
221	0x3d4199d5	0.047265846
222	0x3d6e56df	0.058188315
223	0xbb16c721	-0.0023006874
224	0xbd0ce156	-0.034394585
225	0x3d8f9852	0.07011475
226	0xbd46cfd4	-0.048538044
227	0x3d63deb8	0.055632323
228	0x3dac12af	0.08402001
229	0xbb916c82	-0.004437984
230	0x3d06ec98	0.032940477
231	0x3d9a9944	0.07548764
232	0xbd3d7449	-0.046253476
233	0x3c39d461	0.011342139
234	0xbdb9bbf9	-0.09069056
235	0xbd0e5799	-0.03475151
236	0x3d315db0	0.043302238
237	0x3d244c17	0.040111627
238	0x3d3dabe0	0.04630649
239	0x3d82d536	0.06388323
240	0x3d12198b	0.03566889
241	0x3d5ee3de	0.05441653
242	0xbd3179eb	-0.04332916
243	0xbbebf78d	-0.007201141
244	0x3d731af4	0.059351876
245	0xbc3c16dd	-0.01148006
246	0x3d513c71	0.051083032
247	0x3d220cd1	0.039563004
248	0x3da6d816	0.08146684
249	0x3da67e42	0.081295505
250	0x3d9ceeda	0.07662745
251	0x3d88a72f	0.06672513
252	0x3d669016	0.056289755
253	0x3d156d5f	0.036481258
254	0xbd0b832e	-0.03406065
255	0x3d02fad2	0.031977482

convs.0.comb_weight.bias f4 [42]
0	0x3c526afa	0.012842888
1	0xbd953930	-0.07286298
2	0x3cac2c44	0.021017201
3	0xbc8b0396	-0.016969483
4	0xbbb33081	-0.0054684286
5	0xbcbfc49f	-0.023409186
6	0x3c3a7059	0.011379325
7	0xbd858740	-0.065199375
8	0x3c8b7530	0.017023653
9	0x3d9392de	0.07205747
10	0x3d7cbe4f	0.06170493
11	0x3d032dfa	0.03202627
12	0x3d721983	0.05910636
13	0x3d37cbf0	0.044872224
14	0x3d2ae5b7	0.04172298
15	0xbd569166	-0.052384757
16	0x3d16eeb5	0.036848743
17	0x3c359efa	0.011085266
18	0x3d752754	0.05985196
19	0xbce14a3d	-0.02750122
20	0x3d2f3377	0.04277369
21	0xbd8da931	-0.06917036
22	0x3ccff378	0.02538465
23	0xbd09573a	-0.03353045
24	0x3c966bf3	0.018362021
25	0xbd88800b	-0.06665047
26	0xbd9463e3	-0.072456144
27	0x3da37eda	0.079831794
28	0x3d89402a	0.067016914
29	0x3d3d24fe	0.046177857
30	0xbd12e6fd	-0.03586482
31	0xbda8e6b9	-0.08247132
32	0x3d5184a8	0.0511519
33	0x3c768643	0.015046659
34	0x3d9cdea7	0.07659655
35	0xbcbf966d	-0.023387158
36	0xbd8fa0b4	-0.070130736
37	0x3d05df01	0.032683376
38	0x3ba0a6c2	0.0049026916
39	0xbd185e8e	-0.03719955
40	0xbdb21d37	-0.086969785
41	0xbb7731d2	-0.0037718904

convs.1.bases_weight f4 [128, 448]
0	0xbdb13efe	-0.08654593
1	0xbd8ccaf4	-0.06874648
2	0x3dd28661	0.10279537
3	0x3d73e828	0.059547573
4	0xb9a9f5d0	-0.00032417336
5	0xbd644b9f	-0.05573618
6	0x3d8a71db	0.067599975
7	0x3d95a1dc	0.07306263
8	0xbd322928	-0.04349628
9	0xbd4140fa	-0.047181107
10	0xbdb63e84	-0.08898643
11	0x3dc42724	0.09577778
12	0xbae8e437	-0.0017768209
13	0xbd5faf38	-0.05461046
14	0xbd738f5c	-0.05946289
15	0xbafebac3	-0.0019434321
16	0x3d8e7d22	0.06957461
17	0xbd779a4e	-0.06044989
18	0xbc3166da	-0.010827744
19	0xbd9af807	-0.07566839
20	0xbc02b007	-0.0079765385
21	0xbd6adf4d	-0.057341862
22	0x3c862a76	0.016377669
23	0xbd261abc	-0.04055284
24	0xbd9d1e27	-0.07671767
25	0xbcbdcbb9	-0.023168432
26	0x3cd5b79e	0.026088532
27	0xbdaf34c6	-0.085549876
28	0x3d27d699	0.04097614
29	0x3cae6cf2	0.021292184
30	0xbca8a2df	-0.020585475
31	0x3d4146f3	0.047186803
32	0x3d85d45d	0.06534646
33	0x3da9a165	0.08282737
34	0x3ca6dd6b	0.020369252
35	0x3d7622d8	0.060091823
36	0x3db229d3	0.086993836
37	0x3d925437	0.07144969
38	0xbd0ad636	-0.033895694
39	0xbd89b84c	-0.06724605
40	0x3c0d001a	0.008605981
41	0xbdca82de	-0.09888242
42	0xbda928fd	-0.08259771
43	0x3d7983f1	0.060916845
44	0x3d355dbe	0.044278853
45	0x3d029dc3	0.031888735
46	0xbb570c73	-0.0032813817
47	0x3d02314a	0.031785287
48	0xbce23e0c	-0.027617477
49	0x3d9401fa	0.072269395
50	0x3d648fab	0.055801075
51	0x3cb34e55	0.021887938
52	0x3d3cacb0	0.046063125
53	0x3dc775fb	0.097393
54	0x3d4f5813	0.050621103
55	0xbdaf896a	-0.085711315
56	0xbd77cc40	-0.060497522
57	0xbd5c64de	-0.053807132
58	0x3d49324c	0.049120232
59	0xbd86d44a	-0.0658346
60	0xbdbe52b9	-0.09293122
61	0x3d1f8b92	0.038951464
62	0xbd5f5703	-0.05452634
63	0x3da91cad	0.082574226
64	0xbda3a37f	-0.07990169
65	0xbc4360af	-0.011924907
66	0x3d6daea3	0.058027875
67	0xbd491240	-0.04908967
68	0xbce3c763	-0.027805036
69	0xbd147c21	-0.03625119
70	0xbcee855e	-0.029116329
71	0xbdcaac5e	-0.09896158
72	0xba3055ca	-0.0006726651
73	0x3c8b89c0	0.017033458
74	0xbd86c641	-0.06580783
75	0x3d5a77ae	0.05333679
76	0x3d96d3ef	0.07364642
77	0x3d94ac55	0.07259432
78	0x3c808b29	0.015691357
79	0x3ddbea67	0.10738068
80	0xbd177d15	-0.036984522
81	0x3dbf3a48	0.09337288
82	0xbd92eee7	-0.07174473
83	0x3ce63eee	0.02810618
84	0x3d91b381	0.07114316
85	0x3dca4fcf	0.098785035
86	0x3b8f04be	0.004364579
87	0xbccb8ada	-0.024846483
88	0xbd2d27e6	-0.04227438
89	0xbd76286f	-0.060097154
90	0xbd0b40b9	-0.03399727
91	0x3c49d14e	0.0123179685
92	0x3dd2ac8b	0.10286816
93	0x3d090720	0.03345406
94	0xbda1bcab	-0.07897314
95	0x3d57cad7	0.052683678
96	0xbc6eb20f	-0.01456882
97	0x3d01746d	0.031605173
98	0x3daefc96	0.08544271
99	0x3d8d524d	0.06900463
100	0x3d8a5107	0.06753736
101	0xbdc73b93	-0.0972816
102	0x3db18ca0	0.086694
103	0x3d372985	0.04471733
104	0xbcd6444a	-0.02615561
105	0x3d215997	0.03939208
106	0x3dc24bc6	0.09487109
107	0xbd6537a9	-0.055961285
108	0xbd9e427b	-0.07727524
109	0xbc3a0a49	-0.011354991
110	0xbd280c5a	-0.041027404
111	0x3d83baa2	0.06432082
112	0x3a3250f2	0.0006802223
113	0x3d6ab573	0.05730195
114	0x3cbb17b2	0.022838447
115	0xbbbc15b3	-0.0057398914
116	0xbd823d49	-0.063593455
117	0x3d853324	0.06503895
118	0xbda0c9ec	-0.078510135
119	0xbd40b3db	-0.047046524
120	0xbd5b2078	-0.05349776
121	0xbd279c97	-0.04092082
122	0x3d3ef610	0.046621382
123	0x3d87c2b8	0.066289365
124	0x3da7abce	0.08187066
125	0xbd7e3840	-0.062065363
126	0x3dc67831	0.096908934
127	0xbdb0225c	-0.086003035
128	0x3ccb8006	0.02484132
129	0xbd660212	-0.05615432
130	0x3dc6c960	0.09706378
131	0x3d0ea94e	0.03482943
132	0xbd87580c	-0.066085905
133	0x3d4ec385	0.05047943
134	0xbc91d78e	-0.01780298
135	0xbc574fe3	-0.013141605
136	0xbda20c1a	-0.079124644
137	0x3c77d891	0.015127317
138	0xbc38c654	-0.011277754
139	0xbcc96433	-0.024583912
140	0xbd2feebd	-0.042952288
141	0x3d8addc7	0.06780582
142	0x3da687e6	0.08131389
143	0xbda7b8cf	-0.08189546
144	0x3d12fb16	0.035883985
145	0x3c73f27a	0.014889354
146	0x3cf1dc04	0.029523857
147	0xbcb0ba24	-0.021573134
148	0xbc87eb9a	-0.016591836
149	0xbd7cb568	-0.06169644
150	0x3db2f766	0.08738594
151	0xbc8cfbf4	-0.017209984
152	0xbcfa99c8	-0.030590907
153	0xbd31abbd	-0.043376673
154	0x3dbfad0c	0.09359178
155	0x3d9595fe	0.07303999
156	0x3c83e80d	0.016101861
157	0xbdb3fe3d	-0.087887265
158	0xbc8c2c91	-0.017111095
159	0xbd6519d1	-0.055932824
160	0x3d287ecc	0.041136548
161	0xbd067a52	-0.032831497
162	0x3d8006cf	0.06251299
163	0x3db6be2b	0.089229904
164	0xbc48cd8f	-0.01225604
165	0xbba6a470	-0.0050855204
166	0x3db32cf7	0.08748811
167	0x3db7e350	0.08978903
168	0xbda3e7e8	-0.08003217
169	0x3da4252c	0.080149025
170	0x3ce78acc	0.028264426
171	0xbd375947	-0.044762876
172	0xbda49aca	-0.08037336
173	0xbd557ea9	-0.052122746
174	0x3db22020	0.086975336
175	0xbd6adcff	-0.057339665
176	0xbd5f225c	-0.054476127
177	0x3d9ab03f	0.075531475
178	0xbd565fdf	-0.052337524
179	0x3da31ece	0.0796486
180	0x3d8baa3a	0.068195775
181	0x3d7ad868	0.061241537
182	0xbbb87b70	-0.0056299493
183	0xbc7c8598	-0.015412711
184	0x3d6de391	0.058078352
185	0x3d5aeed0	0.053450406
186	0x3d95e28b	0.073186
187	0x3d7ae3e8	0.061252505
188	0x3d288ba6	0.041148804
189	0xbd6485e8	-0.055791765
190	0x3d855e22	0.06512095
191	0xbdc9fa5f	-0.098622076
192	0x3d286949	0.041116033
193	0x3ddb3c7e	0.10704897
194	0x3d076027	0.033050682
195	0xbd04eb25	-0.032450814
196	0x3c0513a4	0.0081223585
197	0x3d825757	0.06364315
198	0x3d8bc3e5	0.06824473
199	0x3d66e28b	0.056368392
200	0x3db6e4cd	0.08930359
201	0xbd6cb897	-0.057793226
202	0xbdc53905	-0.09630016
203	0xbd8b7233	-0.06808891
204	0x3daae47e	0.08344363
205	0xbd0b9078	-0.034073323
206	0xbd9bd41f	-0.07608818
207	0x3d1e7399	0.03868446
208	0x3d64293b	0.055703383
209	0xbd863370	-0.0655278
210	0xbd7325bc	-0.05936216
211	0xbd11b066	-0.035568617
212	0xbc46cb19	-0.012133383
213	0xbc46a889	-0.012125143
214	0xba9acf3b	-0.0011811027
215	0x3c82e3da	0.015977789
216	0xbc3284fe	-0.010895966
217	0x3cea6b23	0.02861554
218	0x3c3bc2b2	0.011459993
219	0x3d44c5e4	0.048040286
220	0xbd9ac9c9	-0.07558019
221	0xbd9bd7e2	-0.07609536
222	0x3dbdf79b	0.092757426
223	0x3c945383	0.018106228
224	0xbca7de2a	-0.020491678
225	0x3d2ada72	0.041712232
226	0xbcf7a78a	-0.030231256
227	0x3d976823	0.073929094
228	0xbd3c4434	-0.04596348
229	0x3da12f82	0.078703895
230	0xbca867c4	-0.020557292
231	0xbd271dce	-0.04079991
232	0xbdbbd629	-0.09171707
233	0xbd3f8cf9	-0.0467653
234	0x3d9bf004	0.07614139
235	0x3d8e2b12	0.06941809
236	0x3d85a224	0.065250665
237	0xbda80194	-0.08203426
238	0xbcf0bea2	-0.029387776
239	0xbda1f55a	-0.07908125
240	0x3bab0f40	0.005220324
241	0x3dd1dfdf	0.10247778
242	0xbd568551	-0.052373234
243	0x3d95b02a	0.07308991
244	0xbd14d30e	-0.03633409
245	0x3d60cb7f	0.05488157
246	0xbdc18ae5	-0.0945032
247	0x3d85ec0f	0.06539165
248	0xbcd4bf58	-0.025970146
249	0xbd56a348	-0.05240181
250	0x3c0db542	0.008649172
251	0xbbb7a07c	-0.005603848
252	0xbd5619aa	-0.05227057
253	0xbdb0b539	-0.086283155
254	0xbdbb9d5c	-0.09160873
255	0xbd8e761e	-0.06956123
