production/TDC/Bioavailability_Ma/checkpoint/state_dict.pt (torch, 105931 bytes, 25 tensors)

lin1.weight f4 [128, 27]
000000 64 d6 88 3d 56 e3 2b be 17 78 d3 3d de 40 5a 3c
       0.06681517 -0.1678594 0.1032564 0.01332113
000010 d6 d0 e2 bc a5 9e 22 3e ab cb d3 3d e0 c3 c3 b8
       -0.027687471 0.1588083 0.10341581 -9.334809e-05
000020 52 84 0b be ef 9b 0d 3e 9d 4c e0 bd bd ae 43 3e
       -0.13624695 0.13829015 -0.10952113 0.19109626
000030 7c 0c 85 bd e6 89 2c bd 07 93 38 3d d7 0d 4d 3d
       -0.06496522 -0.042123698 0.04506209 0.050062027
000040 93 a3 02 be 37 32 18 3e ea 99 ac 3d 24 d8 01 3e
       -0.12757711 0.14862905 0.08427794 0.12680107
000050 bb 3a c6 bc fe bf 84 3b 67 10 2b be a8 e2 0b be
       -0.024197927 0.0040512076 -0.16705476 -0.13660681
000060 d9 3c 3b bd 1a b9 f5 3c be 7c 55 3e 01 16 d9 3b
       -0.045712326 0.02999549 0.20848367 0.0066249375
000070 3d 2b 35 3e 06 28 3a be 9b 0e 16 3c 83 4b be 3c
       0.17692275 -0.1817933 0.009158756 0.023229366
000080 ee 4b b6 bd 54 ff a8 3d a8 6b 42 3c 76 9d 1b bd
       -0.08901201 0.08251825 0.011866488 -0.037991963
000090 da ce 00 bd ec d3 e1 3d a4 31 14 be e6 2a bd 3d
       -0.03144727 0.11026749 -0.14472061 0.09236698
0000a0 76 f9 ec 3d b3 47 1c bd 24 6c c0 3d a8 37 b5 bd
       0.115710184 -0.038154315 0.09395626 -0.08848506
0000b0 4d ab 6b be 1f d1 e1 3d e0 7c 0c be 4f b7 14 3e
       -0.23014565 0.11026215 -0.13719511 0.14523052
0000c0 1f 64 df 3d c4 26 8d bc 57 38 47 bd 65 0b 78 bd
       0.109077685 -0.017230399 -0.048637714 -0.06055774
0000d0 15 c8 29 bc f9 60 23 3d 97 13 02 be 12 8c 80 bd
       -0.010362645 0.039887402 -0.12702785 -0.06276716
0000e0 50 db 92 3d fb 60 40 ba a0 4c 60 3e 1e 05 70 bd
       0.07170737 -0.000733867 0.2190423 -0.05859863
0000f0 70 b0 9c 3c af 6e e2 bd 40 30 ee bd ac eb 3d be
       0.0191271 -0.110562675 -0.11630297 -0.18546933
000100 a0 73 9d bd e0 b9 e1 3d 03 4d c3 3d 11 24 9e 3a
       -0.07688069 0.11021781 0.09536173 0.0012065192
000110 9c 3c 85 3d b6 76 72 3d 68 ab 3e bc 8f 98 72 bd
       0.06505701 0.059195243 -0.011637546 -0.059227522
000120 da 0d b8 bd 28 fd 0b bd ab 94 4f bd 54 7c 45 3d
       -0.08987017 -0.034176975 -0.05067889 0.04821427
000130 a3 91 53 bd 05 cb 1a be ee 18 20 3e 4e 51 36 3e
       -0.051652562 -0.15116508 0.1563451 0.17804453
000140 8b bf 33 3e a2 a7 89 3c 2f 2a a7 3d 38 98 23 be
       0.17553537 0.016803566 0.08162343 -0.15976036
000150 f7 f9 28 3e e1 c0 52 be 31 1b f8 bd ac d5 0e be
       0.16501604 -0.2058139 -0.12114561 -0.13948697
000160 e3 68 f9 3d 27 f8 82 3d f0 7b d0 3d 2a 6c d4 3d
       0.12178209 0.063949876 0.10179889 0.10372193
000170 7d ea 07 3e e2 f9 9d bd 28 65 3d be ca 3c 3b 3e
       0.13273044 -0.07713677 -0.1849562 0.18284908
000180 56 f4 39 be 5b 44 f8 3c 51 c4 61 be 7d a3 12 be
       -0.18159613 0.030306032 -0.22047545 -0.14320178
000190 81 c7 14 be 69 c5 26 3e ea e0 2e be 89 97 1f 3e
       -0.1452923 0.16286243 -0.17077985 0.1558515
0001a0 bc e5 e9 bd e2 17 d0 bd 3d 3d 35 3e 23 93 5b bd
       -0.114207715 -0.10160805 0.17699142 -0.053607117
0001b0 53 83 91 bd 98 e4 34 bd 8d 3f 39 be a9 7f 45 3d
       -0.07105126 -0.044163316 -0.18090649 0.04821745
0001c0 36 c7 a3 bd ca 12 97 3d 03 8e 2f 3e 22 b6 7c bd
       -0.07996981 0.073766306 0.17144017 -0.061697133
0001d0 b7 a8 e7 3d a3 4d 03 bd 58 d8 29 bc e9 9c 24 be
       0.11311477 -0.032056462 -0.010366522 -0.16075481
0001e0 60 dd 35 3c 53 54 f5 ba db 4c fe bd ab e4 11 bd
       0.011100143 -0.0018717147 -0.12417003 -0.035618465
0001f0 ae b9 aa bd 96 8d cf bd 52 95 74 bd e0 1c aa bc
       -0.08336197 -0.10134427 -0.059712715 -0.020765722
000200 8a 67 28 be 21 91 fd bd 08 b0 ca bd 12 f1 33 be
       -0.16445747 -0.12381197 -0.098968565 -0.1757243
000210 b2 a3 89 3d 0e 16 b2 bd cc 54 91 3c ac 2a 87 bd
       0.067206755 -0.08695613 0.01774063 -0.06599936
000220 1b f1 15 bc 88 6a c1 3d d4 c3 a8 bc aa be 29 3e
       -0.009151722 0.09444147 -0.02060119 0.16576639
000230 13 ae 3a be c5 7e 46 be bc 25 92 3a 04 60 07 bd
       -0.18230467 -0.19384296 0.0011150162 -0.033050552
000240 b1 69 26 be 64 f7 35 be 7d f2 8d bc 38 14 39 3e
       -0.16251256 -0.17770153 -0.017327541 0.18074119
000250 20 2e ed 3b 93 14 14 be e2 1f 21 3e b1 c1 b1 bd
       0.0072381645 -0.14460973 0.15734819 -0.08679522
000260 0a 59 ab bc 99 15 59 bd ae 75 26 bd 72 71 12 bd
       -0.02091648 -0.052999113 -0.04063957 -0.03575272
000270 7d 5d 0e be 13 3f 12 bd c4 02 cd 3d e5 c5 96 bd
       -0.1390285 -0.035704684 0.10010293 -0.07361964
000280 b6 9b 7d 3c d6 66 4d 3e f9 4e fd bd 43 25 77 bd
       0.015479019 0.2005876 -0.123685785 -0.06033827
000290 bf c9 1f be 46 b6 62 3b 6c b6 34 3d 2a 30 5f 3d
       -0.15604304 0.0034593507 0.044119284 0.054489292
0002a0 cb eb 1b be 54 58 db 3d e1 aa 02 be 65 12 45 3d
       -0.15226667 0.10710207 -0.12760498 0.048113246
0002b0 a5 4f 59 bc bc 59 0a be a4 5c 0a 3e 22 be 5d 3d
       -0.013263618 -0.13510793 0.13511902 0.054136403
0002c0 50 f5 49 3e 25 d3 39 be 2b 40 0b 3e 04 67 e8 3c
       0.19722486 -0.18146951 0.13598697 0.028369434
0002d0 87 48 bd bd b2 b5 2a 3e 82 cb 2f 3e aa a3 d6 bd
       -0.09242349 0.16670874 0.17167476 -0.10480435
0002e0 85 04 a4 bd f6 7e 01 3d 9b 0c e3 3d 2b 64 2c 3e
       -0.080086745 0.03161522 0.11086389 0.16835086
0002f0 01 af b1 3c 6d a0 39 3e 37 ba 59 3c 43 f4 1e 3e
       0.021689894 0.18127604 0.013289026 0.15522866
000300 03 10 00 be 55 45 18 bd a8 b9 07 3e f3 ae c4 3b
       -0.12506108 -0.037175495 0.13254416 0.006002301
000310 b5 df 17 be af 30 d3 bc 46 25 06 3e d9 b8 f3 3d
       -0.14831431 -0.02578005 0.13100156 0.11900491
000320 bc d0 2a be 27 07 68 bd d7 85 cf bd 4e 50 f5 bd
       -0.16681188 -0.056647446 -0.1013295 -0.119782075
000330 51 33 62 bd 59 32 3f be 6c 3a 99 3c 62 95 3f 3e
       -0.05522472 -0.1867155 0.018704616 0.18709329
000340 ea 4b f7 bc 24 59 f1 bb dd 7b 68 3d 46 74 9b bc
       -0.030187566 -0.0073653627 0.05675875 -0.018976342
000350 c1 df 78 3d a6 12 e6 3d 96 3c 11 3e 8e 94 ee 3d
       0.060760263 0.11234026 0.14183268 0.11649428
000360 95 a2 78 bd 7f ca 91 3d f9 79 5a 3e 28 f4 fa 3d
       -0.060701925 0.07118701 0.21335591 0.122536
000370 b8 18 28 bc 1a 75 62 3d ab b0 4e 3c cd 8a 97 bd
       -0.0102598 0.055287458 0.012615363 -0.07399521
000380 aa 87 b4 bd 9e 14 01 3e 29 b6 07 3e 8d f2 2f be
       -0.08814938 0.12605521 0.13253082 -0.1718237
000390 c2 ca 2d 3e 5f 35 f4 bd f9 38 2c be 77 af 2d 3e
       0.16971877 -0.11924242 -0.16818608 0.16961466
0003a0 7e 97 d4 bc 67 11 cb 3d 06 5a 8b bd 0a 51 1c be
       -0.025951143 0.099154286 -0.0680428 -0.15265289
0003b0 0d d1 8f bd ec e0 a9 bd e4 86 5b 3c 57 f7 90 bd
       -0.07022295 -0.082948536 0.01339886 -0.07078426
0003c0 7e 1b 2d 3e e9 7e 2f be 6b 2c 5c 3d 22 7a 13 be
       0.16905019 -0.17138256 0.053753298 -0.14402059
0003d0 82 b6 35 ba 2a 16 6a be 22 04 95 bd 93 96 7d bd
       -0.0006931798 -0.22860017 -0.07276179 -0.061911177
0003e0 65 8a 08 3e 36 80 37 3d a2 0b ff 3c e4 3d dc 3d
       0.13334043 0.044800006 0.031133477 0.10753992
0003f0 14 c1 44 3d b9 ea 7b 3d 3d 0a a9 3b 65 f0 ef bd
       0.048035696 0.061503146 0.005158691 -0.117157735

lin1.bias f4 [128]
000000 7c 10 dc 3d a6 73 ce 3d 2e 52 5a b8 13 89 2a be
       0.10745332 0.10080652 -5.2051786e-05 -0.16653852
000010 53 01 54 3d 3c 23 97 3d 5b db 38 3e 26 a0 19 be
       0.051759075 0.07379767 0.18052427 -0.15002498
000020 b8 a5 85 bc 21 55 38 be f1 82 17 3e 23 d9 11 3c
       -0.016314372 -0.18001224 0.14796044 0.008901867
000030 0e 58 5a bd 37 ff 2c be 62 9c 87 3d 97 eb f3 3d
       -0.05330663 -0.16894232 0.066216245 0.119101696
000040 8a c6 d5 bd 45 eb 3c 3e eb b7 bb 3c 73 ce f6 bd
       -0.10438259 0.18449123 0.022914847 -0.12051096
000050 d1 af 3f 3e 25 85 c9 bc ba 9d 24 be a5 df d2 3d
       0.18719412 -0.024599621 -0.16075793 0.10296563
000060 ae 10 ae bd cf ec 9b bc 74 c3 e9 3d 37 9d e8 bd
       -0.08499275 -0.019033818 0.11414233 -0.11358111
000070 ef ae 1e 3e d1 44 f2 ba 26 35 f3 bd 0d 12 33 be
       0.1549642 -0.0018483644 -0.11875372 -0.17487355
000080 11 53 01 be b6 91 96 3d 74 df 0f 3e 39 fa 86 bc
       -0.12629344 0.07352011 0.14050084 -0.016476737
000090 ce 73 c6 3d 67 35 ae bc 6a 8b 00 bc 65 e7 22 3d
       0.09690057 -0.021265699 -0.007845739 0.039771456
0000a0 80 96 05 be df c8 b1 3d af 78 06 be 2d 80 b8 3d
       -0.13045692 0.08680891 -0.13131975 0.090088226
0000b0 f0 db dd bd 29 d5 8a 3d 4a 5b eb 3d 27 70 fc 3d
       -0.108329654 0.06778938 0.114920214 0.12326079
0000c0 ae 41 f5 3c 51 57 9d bd b3 98 14 3e f7 cd 30 be
       0.029938545 -0.0768267 0.14511375 -0.1726607
0000d0 4d c1 ec 3d 0c 07 ae 3b e2 d4 0f bd 22 85 6c 3d
       0.11560307 0.0053108986 -0.03511513 0.057744153
0000e0 3f 13 31 be 6c bc e3 3d 97 8c 18 be b8 3c 9a bd
       -0.17292498 0.11119923 -0.14897381 -0.075311124
0000f0 0e c9 75 3d 92 b0 27 be 1f da b0 bd 37 94 08 3e
       0.060006194 -0.1637595 -0.08635353 0.1333779
000100 33 be 11 3e 04 b4 d1 3d b3 63 53 bd bb 10 93 3c
       0.14232711 0.102394134 -0.051608752 0.017952314
000110 e8 9f 35 3e e1 48 02 3e 29 bc 18 be ab c1 9f 3d
       0.1773678 0.12723114 -0.14915527 0.07800611
000120 a7 2c 33 be 9e 90 1b be 12 22 b0 3d 3e 02 29 be
       -0.17497502 -0.15191886 0.086002484 -0.16504762
000130 e2 df 8f bc 46 bb 41 3e 97 a3 3c 3e 5b 49 32 3e
       -0.01756281 0.18919095 0.1842178 0.17410795
000140 ea 0f 95 3c 34 87 81 bd fd 37 da bd b0 93 6f bd
       0.018196065 -0.06324616 -0.1065521 -0.058490455
000150 6d 83 83 bd 3f b8 ac bd c3 f1 68 bc 34 37 4d bd
       -0.06421552 -0.0843358 -0.014217797 -0.050101474
000160 a7 79 97 3d 8d 10 b0 3d 4f 39 bf bd 24 1b 45 bd
       0.0739625 0.08596907 -0.093371026 -0.048121586
000170 3d fd a4 bd 93 30 b7 3d 09 d8 0f be 8e 0f c3 bd
       -0.08056114 0.08944812 -0.14047255 -0.09524451
000180 ae 69 aa 3d 5e 82 0c be 18 91 35 be e9 7c fe bd
       0.08320938 -0.13721606 -0.1773113 -0.124261685
000190 db f7 ca bd f3 9f 12 3d 32 3a bf bd d6 51 c7 3d
       -0.09910556 0.03579707 -0.09337272 0.09732406
0001a0 b5 dc 12 3d 74 51 b7 bc 00 fd 03 3e 92 34 00 3e
       0.035855014 -0.022377707 0.1288948 0.12520054
0001b0 89 4c 2d 3e 76 31 d1 bc 8b df 4b bd 0b f2 bf 3d
       0.16923727 -0.02553628 -0.049773734 0.09372338
0001c0 9c 23 01 be ff f0 d3 bc 24 bc 70 3d c3 c7 2e bd
       -0.1261124 -0.025871752 0.058773175 -0.042670976
0001d0 ad a1 96 bc 89 5c fe 3c 49 70 0a 3e 9b 33 39 3d
       -0.01838764 0.031049984 0.13519396 0.04521523
0001e0 37 07 3f be 87 13 07 be dd fb 48 bb 63 8b 5b bd
       -0.18655096 -0.13191043 -0.00306677 -0.053599726
0001f0 92 e5 14 be a5 37 c7 3c 2c 47 f8 3c 85 e9 3f bd
       -0.14540699 0.024318526 0.030307375 -0.04685356

norm1.weight f4 [128]
000000 43 30 7f 3f 89 26 7b 3f 9c f0 80 3f 2d 67 80 3f
       0.99683017 0.98105675 1.0073428 1.0031487
000010 da 16 83 3f 32 f4 79 3f fb f0 81 3f 82 ed 7e 3f
       1.0241349 0.9763824 1.0151666 0.9958116
000020 d4 fc 7c 3f 7f 44 7f 3f fc d3 81 3f e7 7a 80 3f
       0.98823285 0.9971389 1.0142817 1.0037507
000030 64 b7 79 3f 49 9d 81 3f 64 88 7f 3f aa e8 82 3f
       0.97545457 1.0126125 0.9981749 1.0227253
000040 fd b2 80 3f c1 26 7c 3f 48 52 81 3f 71 68 7d 3f
       1.0054623 0.98496634 1.0103235 0.9898749
000050 9a cb 80 3f f2 30 7f 3f 1a a5 78 3f 15 c6 77 3f
       1.0062134 0.9968406 0.97126925 0.96786624
000060 17 75 7d 3f 0a 12 82 3f 30 4c 7b 3f 03 86 80 3f
       0.9900679 1.0161755 0.9816313 1.0040897
000070 18 41 7b 3f a9 3c 82 3f f2 7b 7c 3f 51 8f 82 3f
       0.981462 1.0174762 0.98626626 1.0199987
000080 47 6d 7e 3f b5 66 83 3f 2d bf 7d 3f f9 81 7f 3f
       0.99385494 1.0265719 0.99119836 0.998077
000090 f7 6d 7c 3f 3f 9b 81 3f eb c5 7c 3f aa 1e 7b 3f
       0.98605293 1.0125502 0.987395 0.98093665
0000a0 b1 2e 82 3f ff 36 7f 3f 5c a8 7f 3f 68 a3 81 3f
       1.0170499 0.9969329 0.9986627 1.0127993
0000b0 22 4c 81 3f 94 1d 83 3f 7a 56 82 3f 53 32 83 3f
       1.0101359 1.0243402 1.018264 1.0249733
0000c0 12 4d 77 3f a6 18 7e 3f e7 fc 78 3f bf 99 77 3f
       0.96601975 0.9925636 0.972609 0.9671897
0000d0 75 8e 80 3f 09 96 76 3f 94 60 7e 3f 5c 2c 78 3f
       1.0043474 0.96322685 0.99366117 0.9694269
0000e0 15 42 81 3f 75 3d 83 3f d9 39 7e 3f 33 94 78 3f
       1.0098292 1.025313 0.9930702 0.97101134
0000f0 78 87 7e 3f f7 fb 81 3f 3d 39 7c 3f 20 fe 7a 3f
       0.9942546 1.0155019 0.9852484 0.98044014
000100 23 95 80 3f a2 50 7d 3f e6 92 80 3f 1d 57 7c 3f
       1.0045513 0.9895116 1.004483 0.98570424
000110 4c fe 7b 3f 4a 1e 7e 3f 7e 52 75 3f 0f 5c 7f 3f
       0.984349 0.9926497 0.95829 0.99749845
000120 f0 ef 80 3f 75 52 7e 3f 93 86 75 3f 79 b0 7d 3f
       1.0073223 0.9934457 0.9590847 0.990974
000130 35 8c 7b 3f cb ca 80 3f 00 a3 81 3f 42 c6 80 3f
       0.98260814 1.0061888 1.0127869 1.0060503
000140 5d 27 7e 3f 97 54 79 3f bd 15 81 3f 7c ff 7e 3f
       0.99278814 0.973947 1.0084759 0.9960859
000150 eb 02 81 3f 96 56 82 3f c2 cc 7f 3f 4a 29 78 3f
       1.0079015 1.0182674 0.9992181 0.96938
000160 02 10 81 3f d5 70 80 3f 33 bd 7c 3f 77 d6 78 3f
       1.008301 1.0034434 0.98726195 0.9720225
000170 ac 7a 81 3f 38 98 7e 3f 26 56 7e 3f 98 cd 7f 3f
       1.0115561 0.9945102 0.993502 0.99923086
000180 82 bd 77 3f 26 52 81 3f 65 0c 81 3f 76 6d 82 3f
       0.9677354 1.0103195 1.0081908 1.0189655
000190 09 fa 83 3f 45 3f 7f 3f 85 4e 82 3f 48 a4 80 3f
       1.031068 0.99705917 1.0180212 1.0050135
0001a0 d6 b4 82 3f 95 36 80 3f f1 5d 7b 3f a9 b4 81 3f
       1.0211437 1.0016657 0.9819022 1.0133258
0001b0 e3 d2 7d 3f f0 97 7e 3f 0b b4 7b 3f 81 7a 82 3f
       0.9914991 0.9945059 0.983216 1.0193635
0001c0 83 45 80 3f 04 53 76 3f 6b 49 82 3f 5d 7b 7b 3f
       1.0021213 0.9622042 1.0178655 0.9823511
0001d0 58 13 7d 3f ce a9 81 3f 7a d0 7d 3f 7f 55 82 3f
       0.9885764 1.0129945 0.99146235 1.0182341
0001e0 25 62 7e 3f 57 6d 81 3f c6 51 7f 3f c5 b4 7c 3f
       0.99368507 1.0111493 0.9973415 0.9871333
0001f0 25 38 74 3f 46 d8 7e 3f 2a 8d 7c 3f 62 0c 7f 3f
       0.9539817 0.9954876 0.986529 0.9962827

norm1.bias f4 [128]
000000 e7 9d 01 bc 93 20 6c bc 4f a7 09 bd 32 c2 54 bb
       -0.007911182 -0.014412063 -0.033606824 -0.0032464382
000010 91 f9 fa bc 17 2a 4b bc d0 c0 00 3d 83 e8 0c bb
       -0.03063658 -0.012400172 0.03143388 -0.0021500892
000020 6f 52 b9 bc 99 5b ca ba 05 fe 89 bc cb fc d7 3b
       -0.022622315 -0.0015438675 -0.016844759 0.0065914146
000030 8e 50 8b bc ee 0d 06 bc 52 37 fc 3c c9 b9 42 bc
       -0.017006185 -0.008182032 0.030788098 -0.011885115
000040 c7 36 b0 3c 1c 0e 80 bc 8d c8 43 3b a3 f1 e1 bc
       0.021510495 -0.015631728 0.0029874176 -0.027581042
000050 3a b9 2c 3b 4c e0 7e bc 7b 64 63 bc b5 9e 26 bd
       0.002635552 -0.015556406 -0.013878937 -0.0406787
000060 3b 55 fa 39 74 b5 96 3b c7 89 3d bc 76 5c 47 3c
       0.00047747217 0.0045992676 -0.011568493 0.0121680405
000070 a2 e5 4d bd 47 5b d5 3b e4 53 a6 bc 1c cf 14 3c
       -0.050267823 0.0065111252 -0.020303674 0.009082582
000080 ff d7 6d bc a4 f0 40 3b db da 07 bc ce ca 70 3a
       -0.0145168295 0.0029440308 -0.008291925 0.00091854937
000090 33 ac 8a 3b 53 5a 5a 3b 42 af 1e 3a 92 46 8f bc
       0.0042319535 0.0033317998 0.0006053337 -0.017489705
0000a0 3e 05 9b bc 4b 06 e4 bb 63 c2 bf bb 88 7b 8e bb
       -0.018923398 -0.006958758 -0.00585203 -0.004348222
0000b0 e8 21 f0 bb 67 a9 d3 3c 6a 8b 1c 3c e6 73 02 3c
       -0.0073282607 0.025837613 0.009554723 0.007962203
0000c0 9b 7f b3 bc 40 e0 f7 bc 4e 80 54 bc 20 25 cd bc
       -0.021911433 -0.030258298 -0.012970043 -0.025042117
0000d0 8c 8f ea 3b 28 57 0c bd 38 c2 e0 bc 89 19 fe bc
       0.0071582254 -0.034262806 -0.02743636 -0.031018035
0000e0 73 c4 a7 b7 2d c7 05 3d d1 8a 06 bd 45 73 f9 bc
       -1.999943e-05 0.032660652 -0.03284723 -0.030450473
0000f0 c5 6a fc bc de 33 10 3c 26 bd c0 bc 70 f3 8e 3b
       -0.03081263 0.008801429 -0.023527693 0.004362516
000100 e9 13 82 bc d1 49 0a bd 0f 27 1d bc 32 af 4c bc
       -0.015878635 -0.033761803 -0.009591832 -0.012492942
000110 e5 74 eb bc 54 49 5c bc 81 ef 03 bd db 05 7c bb
       -0.028742263 -0.013445217 -0.03221083 -0.0038455639
000120 22 b9 46 bc ae e1 ae bc d2 7c 0e bd e1 f1 87 bc
       -0.0121291 -0.021347847 -0.034787007 -0.016594829
000130 34 4f 19 bc 73 50 7f bc 5e 5a 62 3c c3 4e b0 3b
       -0.009357262 -0.015583145 0.0138154905 0.005380483
000140 78 6e 3d bc bb 38 b5 3b 58 2f 9a bc bd b7 60 bc
       -0.011561982 0.0055304444 -0.018821403 -0.013715682
000150 f0 0b 8b b9 f2 eb 5c 3c 31 bc 8e bc 1c 12 c8 bb
       -0.0002652104 0.013483988 -0.017423721 -0.0061056744
000160 d0 d5 cb 3b d2 c2 a1 bc 95 14 11 bc fc 6c 0e bd
       0.006220557 -0.019746218 -0.008855005 -0.034771904
000170 e2 7e e4 bc 7b db 80 bc cd 68 43 3a b6 3f 18 b8
       -0.027892534 -0.015729656 0.0007454276 -3.629896e-05
000180 da b7 b0 bc f5 d6 5c bb 76 2e 67 3c 21 12 d2 bb
       -0.021572042 -0.003369746 0.014110198 -0.0064108525
000190 db 65 22 3c d0 d0 e1 ba de 25 34 bc b3 c4 a4 bc
       0.00991198 -0.0017228369 -0.010995356 -0.020113325
0001a0 29 21 b5 3b 22 e4 c9 b9 d5 ec e8 bc 12 20 5e bc
       0.0055276346 -0.0003850768 -0.028433243 -0.013557451
0001b0 84 b5 6c bc 72 36 8d bc ad a9 5f bc ce f3 5c 3c
       -0.014447574 -0.017237876 -0.013651294 0.013485862
0001c0 6f bb 29 b9 2b 17 31 bd 61 ec dc bb 1d e5 28 bb
       -0.0001618692 -0.043234985 -0.0067420457 -0.0025771328
0001d0 b5 db 82 bc db b5 87 3c fc a6 e7 bc ae fd 7b 3c
       -0.015973905 0.016566208 -0.028277867 0.015380306
0001e0 5f 24 5c ba e4 8f bb 3b c4 95 26 3c 9b 7c 90 bc
       -0.00083977537 0.00572394 0.010167543 -0.017637542
0001f0 2d 84 53 bd 85 94 b2 bc 71 0b d0 bc 60 a7 ba ba
       -0.051639725 -0.021799335 -0.02539608 -0.0014240555

norm1.running_mean f4 [128]
000000 fd c8 b6 3d bc 5e 26 3e dc 92 05 bd 1c aa b1 be
       0.08925054 0.16247076 -0.03261076 -0.34700096
000010 41 3f 37 be 32 e2 0d 3e 45 2f 68 3e 7e 2b a5 bd
       -0.17895223 0.13855818 0.22674282 -0.08064936
000020 56 e1 68 bd 25 71 7a be b9 08 ea bd d0 42 f8 3c
       -0.056855522 -0.24457224 -0.11427445 0.030305296
000030 7b 68 8b 3d 3b 59 60 be 4e 1a 5d 3e f3 e5 29 bd
       0.068070374 -0.21909039 0.21592066 -0.041479062
000040 76 36 a4 bd c5 43 b9 3e d1 a0 56 3e 81 ff 83 3d
       -0.080182 0.36184517 0.20959784 0.06445218
000050 a0 78 19 3f 21 54 42 3e d4 f0 c0 be e7 f1 9b 3d
       0.59949684 0.18977405 -0.37683737 0.076144986
000060 f0 9d 6a be 2c 76 ef bd d9 aa 10 3e 8a b7 19 3e
       -0.22911811 -0.11692461 0.14127673 0.15011421
000070 57 f1 4b 3e 1e 35 c9 be 74 6a 97 3d a4 71 3f be
       0.19916283 -0.39298338 0.07393351 -0.18695694
000080 e2 74 32 be 8d 0a 4f 3e 5b ff 8d 3d 2f 28 90 bd
       -0.174274 0.20218869 0.06933471 -0.070389144
000090 dc 92 68 3e d6 90 22 be c9 c7 66 be 44 1f 3a be
       0.22712272 -0.15875563 -0.2253715 -0.1817599
0000a0 11 94 55 be 35 6e 03 3b 42 04 40 3d 56 3d 8c 3d
       -0.20857264 0.0020054702 0.04687906 0.068476364
0000b0 53 8d 6c be f0 0c c1 3e 36 8f 5e 3d 6f bb 17 3e
       -0.23100786 0.37705183 0.054335795 0.14817594
0000c0 d6 89 aa 3d bc 6f 72 bd 2b 99 3e 3e 39 15 c8 be
       0.08327071 -0.05918859 0.18613116 -0.39078692
0000d0 af 4d 92 ba 4d cd a6 3d 30 db c0 bd 4c b4 0a 3e
       -0.0011162068 0.08144627 -0.09416807 0.1354534
0000e0 38 b0 8a be 05 23 16 be d9 32 b4 bd 7e 0a 08 3e
       -0.2708757 -0.14661796 -0.08798761 0.13285252
0000f0 d0 a4 c2 bd 25 c3 46 be 5b 77 42 be 43 fa ba bd
       -0.09504092 -0.19410379 -0.18990843 -0.09129765
000100 e6 9f 83 3e 22 96 f0 3e 53 c7 82 be 4f 2f 3c 3e
       0.2570793 0.46989542 -0.25542697 0.18377422
000110 36 48 af 3d 7d 69 cc 3e 87 ea a9 be 83 12 a3 3e
       0.08558695 0.3992423 -0.33186743 0.3185006
000120 22 9a 72 be e4 e6 ae bd 4d f0 73 3e fe 06 da bd
       -0.2369161 -0.08540133 0.23822136 -0.10645865
000130 e3 75 55 bd 42 b1 d1 3e 46 11 1f 3b 27 2b 8f 3e
       -0.05211438 0.4095555 0.002427177 0.2796261
000140 77 8f d3 3d 86 5c b8 bd a8 1f 19 3e 17 2b 4e 3e
       0.10330098 -0.090020224 0.14953482 0.20133625
000150 0f 2c 2c be a8 b6 a1 bd 00 de e2 bd 12 f8 e2 3c
       -0.16813682 -0.07896167 -0.110774994 0.02770618
000160 cd d5 8d 3d ef 1b 2d 3d d8 44 b5 be 45 d6 80 bd
       0.06925545 0.042262968 -0.35404086 -0.06290869
000170 07 6c 62 be c1 46 78 3e b8 b8 f0 be a1 ca 4a bd
       -0.22111522 0.2424574 -0.4701593 -0.04950965
000180 3b bd b5 bd 54 74 f5 bd 92 9c 89 be 33 59 e4 bd
       -0.088739835 -0.119850785 -0.26877266 -0.11149826
000190 d9 2f 9a bd d2 07 0a bd 74 e0 a1 be 27 1b b5 3e
       -0.075286575 -0.033698864 -0.31616557 0.35372278
0001a0 b0 bd 32 3d 54 bd 91 3e b0 56 80 3e 60 b9 20 3e
       0.04363793 0.28464758 0.25066137 0.15695715
0001b0 f4 38 23 3e dc d0 10 be 91 27 db 3d 51 9c b0 3d
       0.15939695 -0.14142174 0.10700906 0.08623565
0001c0 27 fd f3 bd 3f 65 04 3e 86 4d e5 3c a3 80 24 be
       -0.11913519 0.12929247 0.027991068 -0.16064696
0001d0 44 f7 bc 3d 4a c1 5e bd 21 ff 42 3e b3 c1 e9 bd
       0.0922685 -0.054383554 0.19042636 -0.11413898
0001e0 37 86 cd be 52 40 99 be 93 3a 7e 3e 9b f7 68 be
       -0.4014146 -0.29931885 0.24827032 -0.22750704
0001f0 cb bc 85 be 29 67 ec 3c 36 62 5f bd cc c3 80 be
       -0.261206 0.028857784 -0.05453702 -0.2514938

norm1.running_var f4 [128]
000000 33 f5 87 3d 9e 7d dd 3c f0 7c 92 3c 50 ca 05 3d
       0.06638565 0.027037438 0.01788184 0.032663643
000010 a4 90 84 3c e0 59 9d 3c eb 16 1f 3d cb 65 fb 3c
       0.016182251 0.019207895 0.038840216 0.030688187
000020 a8 e9 23 3d 00 58 57 3c 50 9d 95 3c b7 01 fc 3c
       0.040017754 0.013143539 0.018263489 0.030762536
000030 d3 1a 03 3d 5b 54 db 3c f1 c3 8c 3d 6d 2d 63 3c
       0.032008003 0.026773622 0.0687331 0.013865811
000040 37 87 46 3c b1 1b bf 3c 6d 02 63 3d eb 50 73 3d
       0.012117199 0.023328634 0.055422235 0.05940334
000050 e6 1c ee 3b 59 70 eb 3b 38 de 55 3d 50 d6 34 3d
       0.0072666286 0.0071850237 0.052213877 0.044149697
000060 bd f5 4f 3d cf 3a 38 3c fc d8 39 3d 76 ee 11 3c
       0.050771464 0.01124449 0.045372948 0.008906951
000070 37 c6 14 3d 8b b8 19 3d 08 c6 c4 3c 03 66 09 3d
       0.036321845 0.03752951 0.02402021 0.03354455
000080 72 37 cf 3c ed 87 62 3c 16 29 b2 3c 48 0a 42 3c
       0.025294993 0.013826353 0.021748107 0.011843272
000090 c3 0a c7 3c 07 d0 0f 3d 14 a9 6a 3c 82 d0 6b 3c
       0.024297124 0.0351105 0.014322538 0.014392974
0000a0 9b 92 9b 3c 44 10 66 3c e7 0d 8d 3c 7d a9 67 3c
       0.018990805 0.014041964 0.017218543 0.01413953
0000b0 64 66 51 3c c1 5b 36 3c 43 e1 66 3d 93 05 21 3c
       0.0127807595 0.011130274 0.05636717 0.009827989
0000c0 bc 9d 82 3c 73 de 8a 3c 77 34 a3 3c fe 00 f6 3c
       0.015944354 0.016951775 0.019922478 0.03002977
0000d0 15 e4 6c 3c 93 ab 41 3c 2f ff 86 3d cc f6 10 3d
       0.014458676 0.011820692 0.06591641 0.035391614
0000e0 83 e1 dd 3c 2e 9d 69 3c cd 49 80 3c 86 46 a0 3d
       0.027085071 0.014258666 0.015660191 0.07825951
0000f0 1d 57 6b 3c 62 f0 b4 3c 1c 94 7e 3d 7a 9e 92 3c
       0.014364031 0.02208728 0.062152967 0.017897833
000100 3d 44 ca 3c 4d 49 a9 3d 73 2f 7c 3c 04 a0 f2 3c
       0.024690742 0.08265934 0.015392172 0.029617317
000110 f7 10 e5 3c a4 91 20 3d 29 34 08 3d 79 a0 08 3c
       0.027962191 0.039201394 0.03325287 0.008339041
000120 8e 07 4b 3d ce 81 b8 3c a2 9e 13 3d 56 9d 4f 3c
       0.04956775 0.022522833 0.036039956 0.012671789
000130 e4 ca 09 3d 3b a5 8f 3c b8 34 26 3d 08 72 fb 3c
       0.033640757 0.017534843 0.04057762 0.030694023
000140 c4 5a 8a 3c 11 a2 c6 3c 60 d3 80 3c 6f bc e0 3b
       0.016888984 0.024247201 0.015725791 0.0068584005
000150 ea 50 15 3d 4e 0e 41 3d db 4b 4c 3c 51 71 24 3d
       0.03645412 0.047132783 0.012469257 0.04014713
000160 01 bb 05 3d 67 d1 be 3c 28 a1 a0 3c 47 ff b3 3c
       0.032649044 0.02329321 0.019608095 0.021972312
000170 f7 28 e6 3c f5 8b 57 3d d8 ed be 3c a8 6e ed 3c
       0.028095705 0.052623708 0.023306772 0.02898343
000180 42 9e 28 3c fa f4 20 3c cc e3 a4 3c f8 79 8a 3c
       0.010291638 0.009824032 0.020128153 0.016903862
000190 31 e2 aa 3c 6a 79 b3 3c 60 48 a5 3c 64 86 ab 3c
       0.02085981 0.02190848 0.020176113 0.020938106
0001a0 4c f5 46 3c f0 c8 62 3d 73 fe 17 3d e2 88 13 3c
       0.012143444 0.05536741 0.037107896 0.009004803
0001b0 01 09 ca 3b c1 6d f7 3c f9 62 2b 3c 69 fd a0 3c
       0.006165624 0.030203702 0.010460609 0.019652085
0001c0 19 69 d5 3c 09 da ac 3c e2 4b a8 3c ab 35 2b 3d
       0.026051091 0.021100061 0.020543996 0.04179923
0001d0 6c 7c 27 3c 01 bb 8c 3c 95 20 4b 3c 64 5a c1 3c
       0.010222536 0.017179014 0.012397905 0.023602672
0001e0 f1 d9 13 3d 48 c2 47 3c 1f fe db 3c 55 d5 0b 3c
       0.036096517 0.012192316 0.026854573 0.008534749
0001f0 86 7b 50 3d ef ba 2c 3d 27 8a 43 3c 3b 63 a8 3c
       0.05089905 0.04217046 0.011934794 0.02055513

convs.0.bases_weight f4 [128, 64]
000000 74 c5 ca 3d d2 99 28 3e d4 d4 2a be 92 b8 2f 3e
       0.099009424 0.16464928 -0.1668275 0.17160252
000010 50 7b df bd 89 a5 be bc cb 91 6c bc 83 15 b4 bc
       -0.10912192 -0.023272293 -0.014439057 -0.021982914
000020 0b 29 2c bb 94 6c 63 bd 69 ca 64 3c 2f a2 06 be
       -0.002626958 -0.05552347 0.013964274 -0.13147806
000030 8c 21 23 3e 61 c7 77 3b 4d 4c a9 bd 15 60 2f 3e
       0.15930766 0.0037808048 -0.08266506 0.17126496
000040 4b 3f b5 bd 3a db 28 3e b8 c8 64 bc 9d 12 38 3e
       -0.08849963 0.16489878 -0.013963871 0.1797585
000050 ba 91 88 bd e7 e9 d9 bc 3b 69 06 be b9 74 b6 3d
       -0.0666842 -0.026600791 -0.1312608 0.08908982
000060 fa 30 39 bd 1d e9 00 3e a4 f7 e5 bd 73 d5 ba bd
       -0.045212723 0.12588926 -0.11228874 -0.091227435
000070 ae 21 cb 3c af ae 73 3d 39 07 af bd 4d 1d 2d 3e
       0.024796333 0.059492763 -0.085462995 0.16905709
000080 0b aa ab 3d b9 2b 16 be 45 8f c3 bd 94 bb 0d be
       0.083820425 -0.14665116 -0.09548811 -0.13841087
000090 87 b8 a5 3d 8d 91 e5 3d d8 d9 ed 3d 72 9b 0b be
       0.080918364 0.11209402 0.11613816 -0.13633516
0000a0 c9 2c e2 3d 9b 62 12 be 3a 8f 3a 3e c7 9c 35 3e
       0.11043698 -0.14295428 0.18218699 0.17735587
0000b0 20 9d 0e be 60 98 ca bc f7 5e 23 bb e7 7c 8d 3d
       -0.13927126 -0.024730861 -0.002492843 0.06908589
0000c0 c7 50 38 bd 7e cd c7 bd 79 af c4 ba 06 59 63 3d
       -0.04499891 -0.097559914 -0.0015005908 0.05550482
0000d0 44 91 86 bd 44 34 96 3d a0 b6 23 3c 0e 4f b9 bd
       -0.06570676 0.073341876 0.009992272 -0.090482816
0000e0 eb 7f 28 3e ab 76 15 be d6 1b fc 3d e5 15 a7 bc
       0.16455047 -0.1459605 0.12309997 -0.020396182
0000f0 46 d6 33 3e a2 2b dd bd 8f 40 47 bd b4 11 e7 3d
       0.17562208 -0.10799338 -0.048645552 0.112826735
000100 ba 38 16 3e 78 c2 c3 bd d1 c7 22 3e 81 cd e0 bd
       0.14670077 -0.09558576 0.15896536 -0.10976697
000110 36 3d ea bb a1 e4 f5 3d 49 c7 de 3d 7c 13 03 3e
       -0.00714841 0.12006498 0.108778544 0.12800401
000120 f9 0a bc bd 24 fa aa 3c ce 97 ca bc 7f 52 a0 bd
       -0.0918178 0.02087123 -0.02473059 -0.07828235
000130 cb 17 4d 3d 63 b5 0c 3e 8b a1 ad 3d 62 ec 06 bd
       0.05007152 0.13741069 0.084780775 -0.032940276
000140 8a 63 86 3c 16 8a 08 be 1f 5c 06 be 9a bc 2a 3e
       0.016404886 -0.13333926 -0.13121079 0.16673508
000150 a3 0a dd bc b9 9c 1b be 76 06 b8 bd df 0b bd bd
       -0.026982611 -0.15196504 -0.08985607 -0.0923078
000160 04 9a a0 bd b0 fc 69 bd 0f ff 12 3e c7 e7 48 be
       -0.07841876 -0.057125747 0.1435511 -0.19619666
000170 47 08 cd 3d f5 c5 f1 bc 12 f4 13 be 5a 28 e4 3d
       0.100113444 -0.029513339 -0.14448574 0.11140509
000180 3a 5c 21 3d e6 51 29 be e6 b7 00 3d 18 3d 35 be
       0.039394595 -0.16535148 0.03142538 -0.17699087
000190 e2 fe cf 3d de d3 84 3d 1c 3d a5 bc 00 8c c1 3d
       0.10156037 0.06485723 -0.02017074 0.09450531
0001a0 02 45 ec 3d 0e 27 9e bc 75 40 d3 bd b5 55 00 3e
       0.115366 -0.019305732 -0.103150286 0.12532695
0001b0 aa 4e 40 be 78 4f 02 be e8 7c 85 bd 9e 6c 8f bd
       -0.18780008 -0.12725627 -0.065179646 -0.07003139
0001c0 f5 ae 09 3e 63 70 30 be 0b 8e e5 bd 58 52 06 be
       0.13445647 -0.17230372 -0.11208733 -0.13117349
0001d0 1b f7 99 3d c7 dd fa 3c 0d ea c6 bd dc 76 36 bd
       0.07517835 0.03062333 -0.097126104 -0.044546947
0001e0 98 97 06 be cf 33 1f be d8 08 db bd fb 41 cb bd
       -0.13143766 -0.15547107 -0.10695046 -0.09924694
0001f0 0b 9a 17 be 14 32 f4 3d d6 a2 d3 bd 0b 46 8a bd
       -0.14804856 0.11923614 -0.10333793 -0.06751641
000200 fe 81 0f be a7 e0 9f 3d 0c b9 26 be 42 c4 08 bc
       -0.14014432 0.07806521 -0.16281527 -0.008347573
000210 07 ad 81 3d 4f 2a 9f bc 0e d4 84 bc cf 2d d6 bd
       0.063318305 -0.019429354 -0.016214397 -0.10457956
000220 56 2e a1 bd be 6a fb 3d 22 3a 45 bd 36 49 a5 3d
       -0.07870166 0.12276219 -0.048151143 0.080706045
000230 36 5a 1e be 19 9c 1c 3e 7d 23 29 3e 1c a5 7c 3d
       -0.154641 0.15293922 0.16517444 0.061680898
000240 a4 36 0a 3d cb 00 84 3d 87 81 19 bd 4d c5 63 3e
       0.033743516 0.06445464 -0.037477043 0.22243233
000250 05 db 3b be e4 3e 13 3e 15 e4 5b be 18 9a 3b 3c
       -0.18345268 0.1437946 -0.21473725 0.011450313
000260 4a 59 d3 bd 94 5f 9a bc fe cd eb bd 82 b2 b4 bd
       -0.10319765 -0.018844403 -0.11513899 -0.0882311
000270 57 aa d9 bd 6e 93 21 be d2 6e 31 be 1e b2 d2 bd
       -0.10628193 -0.15778896 -0.17327431 -0.102878794
000280 f7 ea a3 bc 6d 75 80 3d ed 7a b6 3d a6 0a 30 3d
       -0.0200095 0.06272397 0.08910165 0.042978905
000290 f8 e4 59 be f2 bc 35 be 1b e2 20 bd a0 e9 3c be
       -0.21278751 -0.17747858 -0.03927813 -0.18448496
0002a0 2d fc e7 bc 3b 1f 1f be 71 58 f6 bd c4 1b 9e bc
       -0.028318489 -0.15539257 -0.120285876 -0.019300349
0002b0 59 94 0f be c1 2d ec 3d 12 9b 06 3e 21 38 03 3d
       -0.14021434 0.11532164 0.13145092 0.03203595
0002c0 76 16 f6 bc 8d 55 83 bd 6a a0 06 3c 4a 88 47 bd
       -0.030040007 -0.06412802 0.008216957 -0.04871396
0002d0 d3 83 85 bd d5 5e a0 ba 2d 35 ce bd 6b be 2c 3e
       -0.06519284 -0.0012235293 -0.10068736 0.16869514
0002e0 63 bc 2a 3e b7 f5 3c 3e 45 8a 8f bd 31 40 23 3e
       0.16673426 0.18453108 -0.07008795 0.15942456
0002f0 12 f2 0e 3e 32 05 17 3e e3 47 cb bc ec 13 24 3d
       0.1395953 0.14748076 -0.024814552 0.04005806
000300 47 51 ff bd 14 5e b8 bd 82 4e da 3d 69 1b 5c bb
       -0.12466674 -0.09002319 0.106595054 -0.0033585674
000310 8a 46 e6 bd b7 b3 05 be 37 29 7f 3d 8b 74 ef bd
       -0.11243923 -0.13056837 0.062295165 -0.11692151
000320 ce 2c d9 3d 00 8f e8 3d af 5d 18 3e 92 59 86 bc
       0.10604249 0.113554 0.14879487 -0.016400132
000330 d1 01 ad 3c 84 5e ae bb 9a d2 3b bc b8 e2 bf 3d
       0.02111903 -0.0053213257 -0.011463786 0.09369415
000340 71 71 a9 3c f3 5c ef 3d 1b fd 08 3e 98 b3 e4 3c
       0.020683976 0.116876505 0.13377802 0.027917668
000350 dc ba 29 be b0 05 f8 bc d9 23 c9 3c c0 ba 9f 3d
       -0.16575187 -0.03027615 0.024553226 0.077992916
000360 77 3b a1 3d dd 22 03 be fd f6 b0 3d 80 d8 2c be
       0.0787267 -0.12806268 0.08640859 -0.16879463
000370 72 9c bc 3c 02 6f ca 3d 35 bd 81 bd 1e d7 7e 3c
       0.023023818 0.09884454 -0.063349165 0.015554218
000380 15 3b 58 bd e3 a7 df bd 26 59 2f be e4 71 07 be
       -0.05279072 -0.10920694 -0.17123851 -0.1322704
000390 96 97 8f 3d 92 ba 8d bd 74 d4 29 be cf 5c 2a 3e
       0.070113346 -0.06920351 -0.1658495 0.16636966
0003a0 b9 06 d6 3c 8d bf 92 3d 10 a1 ea bc 87 58 bb 3d
       0.026126252 0.07165442 -0.028641254 0.091477446
0003b0 9b c3 42 3e 71 e5 eb 3d 33 d9 e5 3d d8 88 08 be
       0.1901993 0.11518372 0.11223068 -0.13333452
0003c0 51 a8 21 be 48 3c ce bd 0c 7f 67 bd 5d f6 72 bc
       -0.15786864 -0.100700915 -0.056517646 -0.014829245
0003d0 93 f2 2d 3e d5 41 38 be e3 fe a8 bd 77 85 29 be
       0.16987066 -0.17993863 -0.08251741 -0.16554819
0003e0 6e bd 12 be da 12 e2 3d 00 b8 0a be 3c c5 e2 bd
       -0.14330074 0.11038752 -0.13546753 -0.11072776
0003f0 bb fb 8d bc b9 45 2f be 09 ff 26 bd 02 89 8d 3c
       -0.017331949 -0.17116441 -0.040770564 0.017277244

convs.0.bias f4 [128]
000000 5e b2 da b9 cf b4 fc 39 dc c2 09 3b d6 93 e8 ba
       -0.00041713094 0.00048199898 0.0021020686 -0.0017744254
000010 8f 08 48 3a 56 6c 88 ba 53 32 bb 3a 5b 1c 86 39
       0.000763067 -0.0010408263 0.0014281966 0.00025579598
000020 16 94 0e b9 ef e8 05 ba e4 fb 23 ba 72 b1 80 ba
       -0.00013597342 -0.0005108257 -0.0006255491 -0.0009818508
000030 5f ea 34 3a 4d 73 e7 ba 98 b3 c6 ba 87 2c ee b9
       0.0006901379 -0.0017658264 -0.0015159724 -0.00045428073
000040 a3 b2 ee b9 e6 0b d9 b9 d7 b8 7a b4 74 69 89 39
       -0.00045527992 -0.0004139833 -2.3350309e-07 0.00026209245
000050 b5 34 46 b9 a3 1f ee 39 c2 ff ba 39 a3 48 d4 38
       -0.00018902386 0.0004541847 0.0003566724 0.000101224774
000060 27 26 5d ba 96 27 af 38 ef b4 04 ba 92 d4 c2 ba
       -0.0008436166 8.352024e-05 -0.00050623616 -0.0014864376
000070 1c 94 94 3a 03 ae 00 ba 75 c5 48 b9 cb f9 95 39
       0.0011335644 -0.0004908742 -0.00019147045 0.00028605605
000080 18 5e df 3a a9 d5 03 bb 52 09 29 3a b4 7b 04 bb
       0.0017041592 -0.0020116365 0.0006448227 -0.0020215334
000090 fe f2 53 ba b3 f9 29 bb 21 76 a0 b9 2b e5 85 3b
       -0.000808522 -0.0025936186 -0.0003060559 0.004086157
0000a0 fa 4a 10 b9 49 8c 2a ba 5e 5f 08 ba 8c 87 8e 39
       -0.00013760841 -0.00065058895 -0.0005202199 0.0002718534
0000b0 80 a0 c0 b8 9d 1c 61 bb 1d ff 08 3b 36 b1 97 ba
       -9.185169e-05 -0.003434933 0.0020904012 -0.0011573199
0000c0 00 31 18 3b c7 c0 46 b8 e1 3d 6a 3a fb 27 81 3a
       0.0023222566 -4.7386417e-05 0.0008935612 0.0009853834
0000d0 ac 8f 60 ba 41 ca 7b ba 05 19 0e 3a 7b f0 21 3b
       -0.00085663307 -0.00096050283 0.00054205983 0.0024709988
0000e0 84 90 18 3a 3a e1 e5 b9 e1 07 50 ba cb bd 20 bb
       0.00058198743 -0.0004384609 -0.00079357444 -0.0024527188
0000f0 28 94 2b ba 7e 3d 76 3a 36 31 b0 39 ce a4 d9 3a
       -0.00065452093 0.00093933183 0.00033606 0.0016604902
000100 46 73 1d 3a 5f 1b 1c 3a e0 9c 5e ba d0 8b 4b b9
       0.0006006252 0.00059550063 -0.0008492004 -0.00019411673
000110 46 6c cf 3a 78 60 a3 39 aa 59 35 3a 97 fc 8b b9
       0.0015825115 0.00031161658 0.0006917963 -0.0002670034
000120 8f 2c 5f 3a d7 cf de 3a 0e 7c 00 3b 71 a5 72 b9
       0.00085134147 0.0016999197 0.0019605192 -0.0002314055
000130 61 c9 85 3a e5 28 b8 b8 a8 d8 11 b7 d9 32 b6 39
       0.001020711 -8.781421e-05 -8.693118e-06 0.0003475163
000140 73 ee 96 b9 55 77 9e 3a 52 8f a1 b9 31 d3 5b b8
       -0.00028787888 0.0012090007 -0.00030815095 -5.2410356e-05
000150 c2 76 0c bb e8 e3 0a 3a 3a 25 9a ba c8 01 5c ba
       -0.002143309 0.0005298243 -0.0011760362 -0.00083925994
000160 90 b3 f9 35 b1 0a 2c ba 53 67 e3 3a b6 8b 9c ba
       1.8604205e-06 -0.00065628724 0.0017349519 -0.0011943493
000170 de 95 14 ba 63 eb f9 b9 e0 e5 e8 ba a2 d4 49 ba
       -0.0005668084 -0.00047668358 -0.0017768703 -0.0007699226
000180 8c 2f e1 b9 27 7e 3d 3a 75 c7 29 b8 15 a1 0e bb
       -0.0004295077 0.0007228576 -4.04785e-05 -0.0021763493
000190 60 21 b3 b8 25 69 39 bb bf fd f9 b9 b8 a6 29 3b
       -8.541602e-05 -0.002829143 -0.00047682037 0.0025886726
0001a0 14 f1 a1 3a 73 a9 b7 ba a0 9f 7b 39 ef 17 80 3a
       0.0012355172 -0.0014012292 0.0002399669 0.0009772758
0001b0 11 92 30 3a e0 07 2f bb 1a d5 b2 39 f9 5b 91 3a
       0.0006735633 -0.0026707575 0.0003410958 0.0011090032
0001c0 93 07 05 3b fc db b2 3a 60 ea d7 3a 65 af 07 3a
       0.0020298704 0.0013645883 0.0016473047 0.0005175977
0001d0 c9 73 b6 b9 9c 27 3a 3a 6f 70 0f 3a 5b a6 61 3a
       -0.00034800012 0.0007101239 0.0005471771 0.0008607858
0001e0 6b 81 27 ba 48 c1 08 3b 2c fd 41 3a 2c f9 01 3a
       -0.0006389829 0.0020867158 0.0007400091 0.0004958089
0001f0 af 35 d4 b9 e8 ff fc ba 4f bb 80 b9 73 de 0e 39
       -0.00040475788 -0.001930234 -0.00024553618 0.00013625044

convs.0.comb_weight.weight f4 [6, 128]
000000 26 4b d3 bc e6 64 d2 3c 9d 89 65 3d ee fb 45 3d
       -0.02579267 0.025682878 0.05603944 0.048335962
000010 32 94 26 ba 1f 8b 92 bd 84 34 bb bd 38 80 62 3d
       -0.000635448 -0.071554415 -0.09140876 0.05529806
000020 1c a5 5c 3d 5e 7a b8 3d 22 18 e6 3c f1 e2 9e bd
       0.053868398 0.09007715 0.02808768 -0.077581294
000030 30 f7 a0 bc 6d 16 c4 3d 73 68 02 bc 43 0e 96 3d
       -0.019649118 0.0957459 -0.007959473 0.07326939
000040 d0 74 bd bd 05 fa 03 bd 5d 39 5f 3d da 52 5a bd
       -0.09250796 -0.03222086 0.054498065 -0.05330167
000050 9b 41 a1 3c c4 31 b2 bd 98 fd 80 3d c6 f8 8b 3c
       0.019684603 -0.08700898 0.06298369 0.017086398
000060 7b 97 fc 3c c9 14 5e 3d 10 48 55 bc 14 94 97 bd
       0.03083395 0.05421904 -0.013017669 -0.074012905
000070 33 cc ac 3d df 1b 85 3d 25 ed ef bc 79 ec 87 bc
       0.084373854 0.064994566 -0.029287884 -0.016592251
000080 0e 2a 0a 3d e6 e3 ed bc 27 df db ba 33 3d 97 bd
       0.033731513 -0.029039335 -0.0016774879 -0.0738472
000090 f9 26 4c bc b7 24 99 bb 32 f3 2f 3c d0 47 19 3d
       -0.012460464 -0.004673566 0.010739135 0.037422
0000a0 c4 56 83 3d 38 10 86 3d a5 6c 5d bd 36 3c 43 3d
       0.064130336 0.06546062 -0.05405869 0.047664843
0000b0 e6 53 b8 3d fe 2f bd bd 27 6e 6e 3d 32 5c 11 bd
       0.09000377 -0.092376694 0.05821052 -0.035488315
0000c0 d8 24 13 bd 2f 89 68 3d 72 6f 9f bc 12 25 24 3d
       -0.03592381 0.056771453 -0.019462321 0.040074416
0000d0 1f 88 67 3d ba 82 29 bd a2 39 8f bd b0 91 5c ba
       0.0565263 -0.041384436 -0.069934145 -0.0008414043
0000e0 68 02 1e 3d ca ea af bd c6 00 cc 3b 79 fa 36 3d
       0.038576514 -0.08589704 0.006225678 0.044672463
0000f0 90 58 d3 3c f4 cf 44 3d 05 b1 6f 3d 65 cc d4 3d
       0.025799066 0.048049882 0.05851843 0.10390548
000100 76 b0 61 3d bc dc 47 bd e6 f2 b8 bc 10 81 fc 3c
       0.055099927 -0.048794493 -0.02257676 0.03082326
000110 68 02 21 bc 0e ae 9d bd 2f 22 9c bd 82 84 1b 3b
       -0.009827234 -0.07699214 -0.076237075 0.0023730104
000120 60 af 9b bd de ab b9 bc 01 bb 76 3d bc 20 30 3c
       -0.076018095 -0.02266496 0.060236935 0.010749992
000130 74 bb 81 bd df 54 88 bd ce 14 23 bd 7f 90 94 3d
       -0.06334582 -0.06656813 -0.039814763 0.07254123
000140 f4 57 8c bd e3 2b ec 3c 0e 0d 9e bd 66 cc a1 bd
       -0.06852713 0.02882952 -0.07717334 -0.07900314
000150 cc 18 24 3d 8a d0 29 bd c8 0f a7 3d b5 a9 92 bd
       0.04006271 -0.041458644 0.08157307 -0.07161275
000160 86 4a bc 3d 3a eb 41 38 cf ee 84 bd 2e 26 53 bc
       0.09193902 4.6233858e-05 -0.064908616 -0.012887521
000170 45 e1 3f 3d 7f cf 93 bd 7d f8 7a bc 65 e0 f8 3b
       0.046845693 -0.07217311 -0.015318033 0.0075951093
000180 b6 d2 c3 3b 0a ae ad 3c 4f a5 ab bd 80 28 d1 3c
       0.0059760464 0.021201152 -0.083811395 0.025532007
000190 6b f0 1d bd 80 6c 05 bb 23 1c fa 3c c7 38 87 3c
       -0.03855936 -0.002035886 0.030530995 0.016506566
0001a0 a3 10 86 3d 34 c5 c3 bc 3d c8 02 3d cb 1e 55 3d
       0.06546142 -0.023897745 0.031929243 0.05203132
0001b0 13 e0 9a bd 85 4c aa 3d 36 ad 3a bd 47 74 06 3d
       -0.0756227 0.08315376 -0.045575343 0.032825734
0001c0 10 85 48 3d 8d 6c a1 ba b7 17 e4 bd b0 3d b1 bb
       0.048955023 -0.0012315676 -0.11137336 -0.005408965
0001d0 58 ae 75 3d 4f 60 ac bc 53 0e 28 3d 08 6b 6e bd
       0.05998072 -0.021042017 0.041029286 -0.05820754
0001e0 13 a1 91 3d f0 27 99 3d 97 b6 a4 bc 24 06 11 3c
       0.071108006 0.074783206 -0.020106597 0.008851562
0001f0 0e f7 ac bc 68 b7 69 bd f6 41 9f bd 92 76 7c 3c
       -0.021113899 -0.057059675 -0.07776253 0.015409129
000200 2f b2 ad 3c 92 68 a9 bb 8b 83 30 3d c5 09 b4 bc
       0.021203129 -0.0051699365 0.0430942 -0.021977315
000210 9c 90 97 bd 95 5e 6c 3d 74 2f d4 bb 0f 2d 8e 3d
       -0.07400629 0.057707388 -0.0064753834 0.06942188
000220 ab 95 99 bd cd f4 31 3d 50 34 98 3d 0c fd 1a bd
       -0.0749925 0.04344635 0.07431853 -0.03783898
000230 a2 56 3e bd 05 89 8e bd 6a 87 86 3b 87 2e 29 3d
       -0.04646934 -0.06959728 0.004105498 0.041304138
000240 74 98 77 bd 3d 82 a2 bd b9 e1 18 3d 4a 5d e7 bc
       -0.060448125 -0.07934997 0.03732464 -0.028242726
000250 6c 4d 58 3d 5d 22 72 bd af 98 80 bd d6 d8 47 bd
       0.05280821 -0.059114803 -0.06279122 -0.048790775
000260 ba 38 cf bc 46 e3 a1 bc bb ab 70 3d 8e ae 18 3d
       -0.025295604 -0.019761693 0.058757525 0.037275843
000270 81 5c 41 bb 86 1b 3f bd 8f 38 23 bd 7b ec 46 3c
       -0.00295046 -0.046657108 -0.03984886 0.012141342
000280 9e 28 6d bc 9e 73 27 3c 82 19 a5 bd 41 ab 40 3d
       -0.014475016 0.010220436 -0.08061506 0.04703832
000290 56 3e 32 3c d3 2d 4c bd ea c2 22 bc 01 30 1f 3d
       0.01087912 -0.04984839 -0.009934166 0.03886414
0002a0 97 7a bd 3d 86 ba a3 3d 2c ce 5b bc 8b bd c2 bc
       0.09251898 0.07994561 -0.013415854 -0.023772022
0002b0 52 40 85 bd 04 5c 8d bd 09 f4 8d 3d f4 70 57 bd
       -0.06506409 -0.06902316 0.06931312 -0.052597955
0002c0 e7 36 eb bc 35 8c 9f 3d f9 59 5c 3d 40 81 9b 3a
       -0.028712703 0.07790414 0.053796742 0.0011864081
0002d0 57 9f 0b 3c c1 1e e7 3a 34 69 54 bd 04 a8 8c 3c
       0.008521876 0.0017633067 -0.051858142 0.01716996
0002e0 a7 32 22 3d e2 04 79 bd 77 f8 49 3d a4 7e ab bc
       0.039599087 -0.060795672 0.04930922 -0.02093441
0002f0 57 ca 9a bd b7 29 67 3d 6b 7e 14 3d 96 09 dc bb
       -0.075581245 0.056436267 0.036253374 -0.00671501
000300 47 a8 41 bd 12 e6 5a bd 68 fb 74 3d b0 15 ad bd
       -0.047279622 -0.05344207 0.059810072 -0.08451402
000310 f3 a9 ee 3c 90 ca a2 bd 7a 4e b9 3d 6b de 91 bb
       0.029133772 -0.07948792 0.09048171 -0.004451563
000320 51 1d a8 bb 8d e9 eb 3c 3f a4 d4 3c ad b6 11 bc
       -0.005130448 0.02879789 0.025957225 -0.008893651
000330 7e 12 6c 3c 49 97 62 bb df 39 82 3d 24 81 b3 3d
       0.014408706 -0.0034575036 0.06358694 0.08764866
000340 6b aa 31 bd ee df 84 bd 91 6f 96 3d 00 da 17 3d
       -0.043375414 -0.06488024 0.07345498 0.037073135
000350 5a a4 bc bb aa 37 26 3b f2 9b 36 bd 23 2c 09 bd
       -0.005756897 0.0025362768 -0.044582315 -0.033489358
000360 ee 09 ef 3a 6f c0 52 bc 02 f0 85 3d be 98 94 bc
       0.0018237212 -0.012863263 0.065399185 -0.01813924
000370 5f a9 43 bc 18 dd 2e 3d d1 ba 2d bd 5d 68 a7 bd
       -0.011942237 0.04269132 -0.04241449 -0.081742026
000380 61 a5 fc 3c 85 aa 95 bd da bf a3 bc 0f 96 09 3d
       0.030840578 -0.07307915 -0.019988943 0.033590373
000390 67 e7 4b bd 0f 06 91 3d c2 b9 39 bc fe a2 8b bd
       -0.04978123 0.07081234 -0.011335792 -0.06818198
0003a0 41 b5 cc ba 79 cb 03 3d 8f 84 63 3d cc ea 2e 3d
       -0.0015617983 0.03217647 0.05554634 0.04270439
0003b0 e5 8b 89 bd 91 67 23 3d af fa 90 bc 2e a4 19 bd
       -0.06716136 0.03989369 -0.01769766 -0.03751009
0003c0 30 ec a4 bc fe 80 86 bd f6 df 81 bd 1b d1 3a 3d
       -0.020132154 -0.06567572 -0.06341545 0.045609575
0003d0 7f 7a 51 3c 70 22 d8 3d 76 3a e8 3c d8 d2 21 bd
       0.012785553 0.105534434 0.028348189 -0.039507717
0003e0 50 15 35 bd df 37 0c 3c aa fd 2c bd c7 84 3f bd
       -0.04420978 0.008558243 -0.0422341 -0.046757486
0003f0 e0 3f 75 b9 da 05 80 bd 26 83 6f 3b a8 9d 91 3d
       -0.00023388816 -0.06251116 0.0036546676 0.07110149

convs.0.comb_weight.bias f4 [6]
000000 69 f5 57 bd dd c2 e5 bb e0 c3 8c bd 70 fc e9 bc
       -0.052724276 -0.007011755 -0.06873298 -0.028562754
000010 93 3d fc 3c 68 c8 49 bc
       0.03079108 -0.012315847

norms.0.weight f4 [128]
000000 cd 0a 82 3f ef df 82 3f c6 10 82 3f e8 ce 83 3f
       1.0159546 1.0224589 1.0161369 1.0297518
000010 6e 9a 80 3f bc 81 7e 3f 78 34 7e 3f 4f e9 7d 3f
       1.0047128 0.9941671 0.9929881 0.99184126
000020 c2 ca 81 3f 47 14 7b 3f f2 08 81 3f ea 3b 80 3f
       1.0140002 0.98077816 1.0080855 1.0018284
000030 57 11 83 3f 8f f6 7a 3f d8 93 80 3f 95 f1 7e 3f
       1.0239667 0.9803247 1.0045118 0.99587375
000040 2e 13 81 3f 15 13 81 3f 4c f4 81 3f 59 46 83 3f
       1.0083978 1.0083948 1.0152678 1.0255843
000050 05 53 80 3f 19 04 7e 3f e1 28 80 3f a6 76 82 3f
       1.0025336 0.99225 1.0012475 1.0192459
000060 59 b4 83 3f 57 e0 84 3f e7 b6 81 3f cd 71 7c 3f
       1.0289413 1.0380963 1.0133942 0.98611146
000070 39 99 7f 3f 4a 78 81 3f 53 5e 7c 3f 87 52 85 3f
       0.99843174 1.0114834 0.9858143 1.041581
000080 67 80 82 3f 55 49 7b 3f 1a e2 74 3f 13 91 74 3f
       1.0195435 0.9815877 0.95657504 0.95533866
000090 21 92 78 3f 28 90 80 3f 99 5a 7d 3f eb d3 83 3f
       0.97097975 1.0043993 0.98966366 1.0299047
0000a0 c8 a2 7a 3f 3c 43 87 3f 8d b6 77 3f ef fa 85 3f
       0.97904634 1.0567393 0.96762925 1.0467204
0000b0 83 bb 7b 3f cb 2a 8b 3f 84 d4 81 3f 81 06 84 3f
       0.98332995 1.0872434 1.014298 1.0314485
0000c0 9c 14 82 3f 55 3e 82 3f f9 e4 7b 3f bc a0 81 3f
       1.016254 1.0175272 0.9839626 1.0127177
0000d0 e5 c3 78 3f 12 23 7e 3f 71 dc 80 3f 6f cb 81 3f
       0.9717391 0.99272263 1.0067273 1.0140208
0000e0 a2 25 81 3f 39 ae 82 3f cc a8 77 3f c2 d4 84 3f
       1.008961 1.0209419 0.9674194 1.0377429
0000f0 5d 4a 82 3f 46 ef 7f 3f 48 aa 82 3f a2 b1 82 3f
       1.0178944 0.9997448 1.0208216 1.0210459
000100 d0 fe 80 3f fe db 79 3f e7 74 78 3f fc d9 86 3f
       1.0077763 0.97601306 0.9705338 1.0535274
000110 1b 9f 73 3f 56 68 7e 3f f4 6b 86 3f a1 76 7c 3f
       0.9516465 0.99377954 1.0501695 0.98618513
000120 ac 9d 7f 3f 7b a3 76 3f c5 9b 81 3f 5f 07 81 3f
       0.99849963 0.963432 1.0125662 1.0080374
000130 69 e2 7f 3f 3e 5e 7c 3f 45 53 7e 3f 13 73 83 3f
       0.9995485 0.985813 0.9934581 1.0269493
000140 f7 66 82 3f fa 0d 81 3f e4 e8 84 3f 2c 4c 78 3f
       1.0187672 1.008239 1.0383573 0.9699123
000150 33 4d 77 3f ac 99 79 3f 65 59 81 3f 66 a7 7e 3f
       0.9660217 0.9750011 1.0105406 0.9947418
000160 9d 93 80 3f eb 1d 7c 3f 95 c4 83 3f 45 12 81 3f
       1.0045048 0.9848315 1.0294367 1.00837
000170 eb c7 7f 3f f7 2f 81 3f 7b c7 82 3f a0 50 80 3f
       0.99914426 1.0092763 1.0217127 1.0024605
000180 f8 e3 84 3f 59 49 82 3f de a3 7d 3f 2e 35 82 3f
       1.038207 1.0178634 0.99078166 1.0172479
000190 0b 3b 80 3f 3c de 81 3f d2 63 80 3f 61 31 7e 3f
       1.0018018 1.0145946 1.0030463 0.99294096
0001a0 f5 2c 7f 3f 03 a6 7e 3f cf 8c 81 3f 52 56 7d 3f
       0.99677974 0.99472064 1.0121096 0.9895984
0001b0 9f 3c 7f 3f 67 9c 7a 3f b0 2a 82 3f 2e e2 80 3f
       0.99701875 0.978949 1.0169277 1.0069025
0001c0 e4 53 82 3f 64 08 7b 3f 79 ac 87 3f 3d 02 85 3f
       1.0181851 0.9805968 1.059951 1.0391308
0001d0 7b 35 82 3f 0d f3 80 3f 28 ba 82 3f c8 dc 7f 3f
       1.0172571 1.0074173 1.021306 0.9994626
0001e0 83 ef 7d 3f 72 03 84 3f c9 c1 7f 3f 50 cb 82 3f
       0.9919359 1.0313551 0.9990507 1.0218296
0001f0 82 61 79 3f 3d dc 7e 3f 12 6d 79 3f fb 30 81 3f
       0.9741441 0.99554807 0.97432053 1.0093073

norms.0.bias f4 [128]
000000 ae e7 14 3d 6a 7f 8e 3c d3 2b 50 bc 15 1b 92 3b
       0.03635376 0.01739474 -0.012705761 0.004458795
000010 03 28 37 3b 86 6e e6 bc 40 a0 15 bb 9b fc 4e bd
       0.0027947433 -0.028128874 -0.0022831112 -0.050533872
000020 25 1b 57 3b 4c a6 2f bd af bf da bc 1c 0a ab b9
       0.0032822576 -0.042883202 -0.02670273 -0.00032623194
000030 72 6c 2d bc 4c 10 4e 3a 0e da ae 3c 78 f0 06 3c
       -0.010584937 0.0007860705 0.021344211 0.008236043
000040 0a e4 8e 3c c4 d3 8c b9 e2 34 08 3d 8a 97 ee 3c
       0.017442722 -0.0002686066 0.033253558 0.029124994
000050 47 f0 a3 bc cb 2a e9 bc 23 6c 80 bc d2 47 67 3c
       -0.020012034 -0.028462788 -0.015676564 0.014116244
000060 97 4b 13 3d 1d 94 4f bc 08 4b bc 3a 86 09 30 bc
       0.03596076 -0.01266959 0.0014365623 -0.010744458
000070 e2 2b 02 3c 38 4e f8 3b 2a a0 04 bc 3e 2f a6 3c
       0.007945033 0.007577684 -0.008094827 0.020286199
000080 dc 11 88 bc 13 aa 37 bd bb 34 ca bc a8 2e 61 bc
       -0.016610079 -0.04483993 -0.024683347 -0.013744034
000090 f6 7d 26 bc f9 1b 1f bc 3b 29 2f bb 73 35 cb 3a
       -0.010161867 -0.009711259 -0.0026727456 0.00155036
0000a0 83 44 30 bc 05 fd e7 3c 1c aa 25 bd e6 ce 51 3c
       -0.010758522 0.028318891 -0.040445432 0.012805676
0000b0 66 f1 b0 bc a4 57 84 3d bb 67 60 3c fe f5 9f 3b
       -0.021599483 0.064620286 0.013696606 0.0048816195
0000c0 ae d2 1e 3d e8 bd 83 3c 59 6e 99 bc 90 06 1f 3c
       0.03877514 0.016081765 -0.018729376 0.0097061545
0000d0 2e 98 da bc d0 35 c6 bc 9b 7a 93 bc 7b 52 93 bc
       -0.026683893 -0.024195582 -0.018002799 -0.017983666
0000e0 fd 91 d2 3b 4c 0e 1b 3d 24 b0 0a bd d7 d2 ce 3c
       0.0064260946 0.03785543 -0.033859387 0.02524702
0000f0 60 13 06 bd 25 67 17 3c 4b 85 b0 3b 2f 51 0a 39
       -0.03273332 0.0092409 0.0053869835 0.00013190949
000100 02 95 90 3c 3a ec ff bc bd be 28 bd cd f2 2f 3c
       0.017649177 -0.031240571 -0.041197527 0.010739041
000110 14 8c 0d bd b0 55 d2 3b 28 37 06 3d 4a 8f e7 bc
       -0.034557417 0.006418906 0.032767445 -0.028266568
000120 a9 8a 4b bc 7d ef 85 bc 73 ea 0a 3d 69 8f bb 3b
       -0.012423196 -0.016349548 0.033914994 0.005723883
000130 6b 35 1e 3b f5 60 9c bc 19 a6 e3 bc b5 67 98 3c
       0.0024140726 -0.019089201 -0.027789162 0.018604139
000140 b5 a2 94 bc 6d ee 03 bd 6f 6b db bc de 9c 2d bd
       -0.018143991 -0.032209802 -0.026784627 -0.04238593
000150 d8 ce 1f bd 7d 17 ab bc 8c 22 de bc 2e 72 ac bc
       -0.03901562 -0.020885224 -0.027116083 -0.021050539
000160 6b 48 cf bb 46 0d 63 3b 6e 8c 21 3d 90 eb 64 3a
       -0.0063257716 0.0034645363 0.039440565 0.00087326113
000170 ab 0b 14 3b 99 2e 36 bc e5 2b 13 3d 41 83 2a bc
       0.0022589962 -0.011119508 0.035930533 -0.01040727
000180 11 55 2d 3c fc 80 07 bb 91 6e 38 bb c9 fa a2 3b
       0.010579363 -0.0020676246 -0.0028142075 0.0049737436
000190 2a e9 9f 3a 29 c4 81 3b 2b 14 0f bd 34 2d 65 3b
       0.0012200226 0.0039601517 -0.034931343 0.003496957
0001a0 47 e2 4b bc cd 08 01 3d b9 f4 b4 3c 30 0a 43 bb
       -0.012444085 0.031502534 0.02208935 -0.002976071
0001b0 56 ea 17 ba 83 c3 0f 3b cc 9f c5 3c b2 14 03 3d
       -0.00057951116 0.0021936602 0.024124049 0.03200216
0001c0 c3 a0 41 3b 30 25 61 bc aa bc a4 3b 6b 5a e3 3c
       0.0029545284 -0.013741776 0.0050273733 0.027753076
0001d0 fd cb 9c bc 02 d8 c5 bc dd b0 48 bc 21 5d 0b 3c
       -0.019140238 -0.024150852 -0.012249199 0.00850609
0001e0 a3 ac 0f bd 95 02 11 3d bb 9f d2 bc 0a aa 51 3d
       -0.03507675 0.035402853 -0.025710931 0.051187553
0001f0 88 b2 eb bc c4 42 0f bd 83 8e d0 bc c9 17 8d bb
       -0.028771654 -0.034975782 -0.02545858 -0.004305814
