production/TDC/Carcinogens_Languin/checkpoint/state_dict.pt (torch, 92619 bytes, 25 tensors)

lin1.weight f4 [128, 27]
0	0x3e1e1d69	0.15440907
1	0xbd946763	-0.07246282
2	0xbd80186a	-0.062546566
3	0x3d9ca5be	0.076488
4	0xbde132bb	-0.10996004
5	0xbd834ba1	-0.064109094
6	0x3c1c1eff	0.009528874
7	0x3c9750aa	0.01847108
8	0x3bb2b5ea	0.0054538148
9	0xbca6907c	-0.020332567
10	0x3d7aedde	0.061262004
11	0x3e476fb4	0.19476205
12	0xbd959f7a	-0.07305808
13	0x3dccc279	0.0999803
14	0x3d1627bb	0.036658984
15	0x3df955f5	0.12174598
16	0x3e20bf30	0.15697932
17	0xbccf40ab	-0.02529939
18	0xbd2ad346	-0.041705392
19	0xbd96f284	-0.07370475
20	0xbd5a6e0f	-0.053327616
21	0xbda783a7	-0.081794076
22	0xbd42a636	-0.047521792
23	0x3df25f72	0.11834611
24	0x3d651923	0.055932175
25	0xbdb9f322	-0.09079577
26	0x3dcf58be	0.10124348
27	0x3c8d61cd	0.01725855
28	0x3a9667f5	0.0011475073
29	0x3d95f1d9	0.073215194
30	0xbddf7dfc	-0.109127015
31	0xbc35c7ad	-0.01109497
32	0x3e1107e9	0.14163174
33	0x3e0b564d	0.1360714
34	0x3decbb50	0.115591645
35	0xbcdd3381	-0.027002098
36	0x3c386623	0.01125482
37	0x3dffd8c5	0.124925174
38	0x3d1e6a98	0.038675874
39	0x3dd38afc	0.103292435
40	0x3dce9c7a	0.10088439
41	0x3da15118	0.078767955
42	0x3db96a9a	0.09053536
43	0xbe04067e	-0.12893102
44	0xbe1eee96	-0.15520701
45	0xbe3c9db7	-0.18419538
46	0x3e13c0b1	0.14428975
47	0xbddb3cc0	-0.107049465
48	0xbe1af2ad	-0.15131636
49	0x3cc98f55	0.024604479
50	0xbd2e3493	-0.042530607
51	0x3d861508	0.0654698
52	0xbd4ddc76	-0.050259076
53	0x3e192eef	0.1495931
54	0xbe3ad868	-0.18246615
55	0xbe3f1e88	-0.1866399
56	0x3e2e2cba	0.1700925
57	0xbdb4e58a	-0.088328436
58	0x3d4c4a45	0.049875516
59	0x3d99d8ec	0.07512078
60	0x3cb26e71	0.021781178
61	0xbdfc1fdd	-0.12310765
62	0x3ca54248	0.020173207
63	0xbdfb15ba	-0.122600034
64	0x3e263cbc	0.16234106
65	0x3c95949a	0.018259335
66	0x3e135064	0.14386135
67	0x3e17cf5e	0.14825198
68	0x3da924c1	0.082589634
69	0x3d8b3604	0.06797412
70	0x3dde45bb	0.10853144
71	0xbe034ed6	-0.12823042
72	0x3e0bcee3	0.1365314
73	0xbd05a6d2	-0.032629795
74	0x3e184dce	0.1487343
75	0xbc531a4c	-0.012884688
76	0x3db6a547	0.08918243
77	0x3e10464f	0.1408932
78	0x3d114fbd	0.035476435
79	0xbd18d68c	-0.037313983
80	0x3d9b901b	0.07595845
81	0xbe446004	-0.19177252
82	0xbcbab43f	-0.022791026
83	0xbd240e91	-0.040052954
84	0xbe17e81e	-0.1483464
85	0xbc31e3f7	-0.010857574
86	0x3d2e836d	0.042605806
87	0xbe3ebb2b	-0.18626086
88	0x3e2efe7f	0.1708927
89	0x3de84104	0.11340526
90	0x3e3d2397	0.18470608
91	0xbda9696f	-0.08272063
92	0xbe059756	-0.13046011
93	0x3dfd2310	0.12360203
94	0x3e323281	0.17402078
95	0xbde401a9	-0.11133129
96	0xbde73a6a	-0.112904385
97	0xbc689d5a	-0.014197672
98	0x3e339cf1	0.17540337
99	0xbccc0c01	-0.024908068
100	0xbe42c026	-0.19018611
101	0xbda31022	-0.079620615
102	0xbde18e98	-0.11013526
103	0x3e14941d	0.14509626
104	0xbe0ca0d0	-0.1373322
105	0x3e13abad	0.14420958
106	0x3d933f27	0.0718978
107	0xbc947786	-0.0181234
108	0xbd45def5	-0.04830833
109	0x3dd0f6b6	0.102033064
110	0xbdc634f2	-0.09678067
111	0xbd9e088d	-0.07716475
112	0x3e27af9f	0.16375588
113	0xbd8f1b8c	-0.06987676
114	0x3c3e1f5b	0.011604155
115	0x3e1f7a87	0.15574084
116	0xbe18c5c8	-0.14919198
117	0x3d1436f4	0.03618522
118	0x3baee835	0.00533774
119	0xbdc5ef85	-0.09664825
120	0x3e19ee10	0.1503222
121	0x3e0a6261	0.13514091
122	0xbc3c691a	-0.011499668
123	0xbca9916d	-0.020699227
124	0x3df57edd	0.11987088
125	0xbd644ec6	-0.055739187
126	0x3de770fb	0.11300846
127	0xbe0845a5	-0.13307817
128	0xbe21e191	-0.15808703
129	0x3e0393b9	0.1284932
130	0x3e066e7b	0.13128082
131	0xbe1df615	-0.15425904
132	0xbd4734de	-0.048634402
133	0x3da76dba	0.081752256
134	0x3dc90582	0.09815504
135	0x3dead866	0.11467056
136	0x3dff2fd6	0.12460296
137	0xbda108d1	-0.0786301
138	0x3d524fbb	0.05134557
139	0x3e279296	0.16364512
140	0xbe1db0d7	-0.1539949
141	0x3e05530d	0.13019963
142	0x3d1c5f65	0.038176913
143	0x3b4f2110	0.00316054
144	0x3e4f7ad1	0.20261694
145	0xbda3b58b	-0.07993611
146	0xbd7e75c8	-0.062124044
147	0xbe09a65f	-0.13442372
148	0x3e35dddd	0.17760415
149	0xbe1fc903	-0.15604024
150	0x3e303d93	0.17210989
151	0xbe1103b0	-0.14161563
152	0x3dc54cbf	0.09633779
153	0xbdb5990f	-0.08867084
154	0x3e26d9c9	0.16294016
155	0xbe03f1f8	-0.12885273
156	0xbdff38ac	-0.12461981
157	0xbd637030	-0.055526912
158	0xbe226b06	-0.15861139
159	0x3e3a3625	0.18184717
160	0x3d91b939	0.071154065
161	0xbdc4d114	-0.09610191
162	0xbe14fe2f	-0.14550088
163	0xbd81c2af	-0.06335961
164	0x3cf33285	0.029687176
165	0xbdab7b9b	-0.08373185
166	0x3dee9533	0.11649551
167	0xbdb142b3	-0.086553
168	0x3d6c6483	0.057713043
169	0x3e06aff4	0.13153058
170	0xbe0d6e4c	-0.13811606
171	0xbe167cd8	-0.14696062
172	0xbe3c7b3a	-0.18406382
173	0x3d1a0484	0.037601963
174	0x3e189b40	0.14902973
175	0xbdff0286	-0.12451653
176	0xbcaff234	-0.021477796
177	0x3df6bb49	0.120474406
178	0x3e18e92f	0.14932702
179	0x3dbf993e	0.093554005
180	0x3d804ec8	0.06265026
181	0x3d0c08e9	0.034188185
182	0x3c6782bd	0.0141302915
183	0x3e2c0beb	0.16801421
184	0x3be1185e	0.00686936
185	0x3da9a300	0.08283043
186	0xbc6a3c10	-0.014296547
187	0x3e1c1383	0.15241818
188	0xbe486163	-0.195684
189	0xbd7ab30d	-0.061205912
190	0xbe3afebf	-0.1826124
191	0x3d32fcd3	0.043698143
192	0xbd4c751e	-0.04991638
193	0xbe276ec8	-0.16350853
194	0xbe226b45	-0.15861233
195	0x3d642311	0.055697504
196	0x3e277686	0.16353807
197	0x3e2dd7c7	0.16976844
198	0x3df8b002	0.12142946
199	0xbe1f195d	-0.15537019
200	0x3e252b6c	0.16129845
201	0x3e38a395	0.18031152
202	0x3bd6c300	0.0065540075
203	0xbe31a5e2	-0.17348436
204	0xbe0e7b8c	-0.13914317
205	0xbe2e7f56	-0.17040762
206	0x3cc03656	0.02346341
207	0x3e1f70ff	0.15570448
208	0x3e011539	0.12605752
209	0xbdbfaf1e	-0.09359573
210	0xbdab919c	-0.08377382
211	0x3d3a694c	0.045510575
212	0xbdd36c67	-0.103234105
213	0xbc967f3f	-0.018371223
214	0x3d6414d4	0.055683926
215	0xbd9f8a8d	-0.07790098
216	0x3d8d3717	0.06895273
217	0xbcf9cdee	-0.030493703
218	0x3e37050a	0.17873016
219	0xbe1ba5db	-0.15199988
220	0x3e1e22af	0.15442918
221	0x3df37ab8	0.11888641
222	0xbe2bde5e	-0.16784045
223	0x3d65bbe3	0.056087386
224	0xbcfcaaed	-0.030843223
225	0x3da46ae5	0.08028201
226	0x3e0e7380	0.13911247
227	0xbdcb1458	-0.0991599
228	0xbded4a45	-0.115864314
229	0xbe10b6cf	-0.14132236
230	0x3e10bf02	0.14135364
231	0xbe250ff4	-0.16119367
232	0xbdf561a9	-0.11981518
233	0x3e36b252	0.17841461
234	0x3dc16945	0.09443907
235	0x3e0ba045	0.13635357
236	0x3e29ca11	0.16580988
237	0xbe2bf03f	-0.16790865
238	0xbd441e36	-0.047880374
239	0xbc9e8e63	-0.019355005
240	0x3e344cbf	0.17607401
241	0xbd5ec0d0	-0.0543831
242	0xbc535538	-0.012898736
243	0x3ddf8c58	0.1091544
244	0x3dc98aeb	0.098409496
245	0xbdfaebbb	-0.12251993
246	0xbe2bdd49	-0.16783632
247	0xbd856b3c	-0.06514594
248	0x3d93ac28	0.072105706
249	0x3e3e0965	0.18558271
250	0x3da9de47	0.08294349
251	0x3dde1a05	0.108448066
252	0x3d7aaaa8	0.061197907
253	0xbd485cfa	-0.048916794
254	0xbd0f5aff	-0.03499889
255	0x3e22ab62	0.1588569

lin1.bias f4 [128]
0	0x3df80783	0.12110808
1	0xbdf850c2	-0.12124778
2	0x3cb017dd	0.021495754
3	0xbd6a2a81	-0.05716944
4	0x3dcdb826	0.10044889
5	0x3e1f013f	0.15527819
6	0x3e0ef198	0.13959348
7	0xbe42eb80	-0.19035149
8	0xbda9cb21	-0.08290697
9	0x3e3b0aea	0.18265882
10	0x3e0c9874	0.13730031
11	0xbdde40f8	-0.108522356
12	0xbe2dad5a	-0.1696066
13	0x3e01ac8d	0.12663479
14	0xbd2fd8fe	-0.04293155
15	0x3e064307	0.13111506
16	0xbdc02fd4	-0.093841225
17	0x3e30e9d4	0.17276698
18	0x3dc30194	0.095217854
19	0xbd4b3b5d	-0.04961716
20	0xbd684bff	-0.0567131
21	0x3e454251	0.19263579
22	0x3d9a47e2	0.07533242
23	0xbe03eb70	-0.12882781
24	0x3df7e2ca	0.121038035
25	0xbe0cebd0	-0.1376183
26	0xbab4370b	-0.0013749314
27	0xbd93e9c6	-0.07222323
28	0xbe3bae3a	-0.18328181
29	0x3e21a955	0.15787251
30	0x3e1a6bbc	0.1508016
31	0x3de7c5c2	0.11317016
32	0xbd1c0228	-0.038087994
33	0xbd95cddd	-0.07314656
34	0xbd82d611	-0.06388486
35	0x3df900a3	0.121583246
36	0x3e2712fd	0.16315837
37	0x3e22ff0e	0.15917608
38	0xbd210a9e	-0.039316766
39	0x3d865758	0.06559628
40	0xbcf2224f	-0.029557375
41	0x3d6adaff	0.057337757
42	0x3d047250	0.03233558
43	0xbe25321a	-0.16132393
44	0x3e1d3a5e	0.15354297
45	0xbdda882f	-0.10670506
46	0xbc969aaa	-0.018384296
47	0xbdea2a6e	-0.11433874
48	0xbd890d07	-0.06691938
49	0x3e171c0c	0.14756793
50	0x3e111ba6	0.14170703
51	0x3e27694d	0.16348763
52	0xbe2afed9	-0.16698779
53	0x3e22318a	0.1583921
54	0xbdfff9e6	-0.12498836
55	0xbc82eea5	-0.015982935
56	0x3e1bbf0f	0.15209602
57	0x3cd01178	0.025398955
58	0x3d924a1f	0.07143044
59	0x3d3bc900	0.045845985
60	0xbe21102b	-0.15728824
61	0xbdb357ab	-0.08756956
62	0xbd7327f9	-0.059364293
63	0xbb8a5c90	-0.00422246
64	0xba8d543e	-0.0010782552
65	0xbdf95e4e	-0.1217619
66	0x3e01a87f	0.12661932
67	0x3c6f71fe	0.01461458
68	0x3d9bee92	0.07613863
69	0x3d58580a	0.052818336
70	0xbe3c8cd6	-0.184131
71	0x3cddb0ad	0.027061785
72	0xbe3993cd	-0.18122788
73	0x3d2b2dff	0.041791912
74	0x3e31b671	0.17354752
75	0x3d0ecad6	0.03486141
76	0x3db46357	0.0880801
77	0x3da4ce41	0.08047152
78	0xbd0545f1	-0.032537404
79	0x3bc91cd5	0.0061374702
80	0x3c7527c0	0.01496309
81	0x3e0f6918	0.14004934
82	0x3dbade23	0.091244005
83	0x3e2c29b8	0.1681279
84	0xbddcd47c	-0.10782716
85	0xbde308b8	-0.11085647
86	0xbdfccc90	-0.12343705
87	0x3e18f0e8	0.14935648
88	0xbda95b3f	-0.08269357
89	0x3e048bf1	0.12944008
90	0xbcfdabba	-0.030965675
91	0xbe254d82	-0.16142848
92	0xbd4a2813	-0.049354624
93	0xba4e4856	-0.0007869055
94	0x3d9885fd	0.07447431
95	0xbe3a8cd5	-0.18217786
96	0xbe278578	-0.16359508
97	0x3dd3184b	0.10307368
98	0xbcbc159f	-0.022959528
99	0xbd0d043c	-0.034427866
100	0xbe114efc	-0.14190286
101	0x3de50743	0.11183026
102	0x3e20c29e	0.1569924
103	0xbd636bd1	-0.055522744
104	0x3e35f7b8	0.17770278
105	0xbe37c6fb	-0.17946999
106	0xbe0757d0	-0.13217092
107	0x3de30092	0.11084093
108	0xbddfe4ad	-0.10932288
109	0x3da40228	0.08008224
110	0xbdd091d7	-0.10184067
111	0xbe1e7557	-0.15474449
112	0x3d07169b	0.032980543
113	0x3dd623e9	0.10456068
114	0xbde1049f	-0.109872095
115	0xbca96a6c	-0.020680629
116	0x3d2fbcdd	0.042904723
117	0x3e42ba30	0.19016337
118	0x3d207dbe	0.039182417
119	0x3c45188a	0.012029776
120	0xbdb480d7	-0.08813637
121	0xbcacd8dd	-0.021099502
122	0x3daa5603	0.08317187
123	0x3e2e2028	0.17004454
124	0xbd8dee51	-0.06930221
125	0x3e1c510b	0.1526529
126	0xbe050124	-0.12988716
127	0x3d8d0773	0.068861865

norm1.weight f4 [128]
0	0x3f7ec307	0.9951634
1	0x3f7fa425	0.9985984
2	0x3f7f578a	0.9974295
3	0x3f800051	1.0000097
4	0x3f803026	1.0014694
5	0x3f80099b	1.0002931
6	0x3f7d25e0	0.9888592
7	0x3f8110e7	1.0083283
8	0x3f812091	1.0088063
9	0x3f8012cf	1.000574
10	0x3f80b43d	1.0055004
11	0x3f7f53f2	0.99737465
12	0x3f811369	1.0084049
13	0x3f7f6553	0.99763983
14	0x3f806ba2	1.0032847
15	0x3f800f26	1.0004623
16	0x3f8040cb	1.0019773
17	0x3f80cf16	1.0063198
18	0x3f803358	1.0015669
19	0x3f8019e3	1.00079
20	0x3f7d99ce	0.9906281
21	0x3f7eb394	0.99492764
22	0x3f7ea9ec	0.9947803
23	0x3f80ae7a	1.0053246
24	0x3f7f53b5	0.997371
25	0x3f806291	1.003008
26	0x3f7f9671	0.9983893
27	0x3f80ee2c	1.0072684
28	0x3f80ee05	1.0072638
29	0x3f7ec86d	0.99524575
30	0x3f7f7be5	0.99798423
31	0x3f7e9713	0.9944927
32	0x3f802526	1.0011337
33	0x3f7f5db1	0.99752337
34	0x3f80211f	1.0010108
35	0x3f7f8b0a	0.9982153
36	0x3f80048c	1.0001388
37	0x3f812649	1.0089809
38	0x3f7fb7d3	0.9988987
39	0x3f80bdb6	1.0057895
40	0x3f7e8820	0.9942646
41	0x3f804c86	1.0023353
42	0x3f7eea94	0.9957669
43	0x3f7ec1ec	0.9951465
44	0x3f8156ac	1.0104575
45	0x3f7f7a57	0.9979605
46	0x3f7d5723	0.98961085
47	0x3f7f66fc	0.99766517
48	0x3f805be1	1.0028039
49	0x3f7ed08e	0.9953698
50	0x3f7f78e7	0.9979386
51	0x3f7f8dad	0.99825555
52	0x3f804a6d	1.0022713
53	0x3f80abf6	1.0052478
54	0x3f816230	1.010809
55	0x3f7fee65	0.99973136
56	0x3f8106f2	1.0080245
57	0x3f7e0fad	0.9924267
58	0x3f7f8e2f	0.9982633
59	0x3f7e4f5c	0.9933984
60	0x3f7dc627	0.9913048
61	0x3f7ef77d	0.9959639
62	0x3f7ea13d	0.9946478
63	0x3f7fecd8	0.9997077
64	0x3f7df177	0.9919657
65	0x3f7f2096	0.996591
66	0x3f805fb3	1.0029205
67	0x3f802e6c	1.0014167
68	0x3f7f464d	0.99716645
69	0x3f7e7bb6	0.9940752
70	0x3f7f2deb	0.9967944
71	0x3f7da2bf	0.99076456
72	0x3f80ed20	1.0072365
73	0x3f7e5bab	0.99358624
74	0x3f7f9125	0.9983085
75	0x3f7e3621	0.99301344
76	0x3f807796	1.0036495
77	0x3f80056f	1.0001658
78	0x3f7fa8df	0.9986705
79	0x3f803e5d	1.0019032
80	0x3f7e3c9d	0.9931124
81	0x3f803936	1.0017459
82	0x3f80554d	1.0026032
83	0x3f80bb13	1.005709
84	0x3f7f04e3	0.9961683
85	0x3f7ea6d4	0.9947331
86	0x3f80b2a1	1.0054513
87	0x3f7f03a1	0.9961491
88	0x3f800230	1.0000668
89	0x3f81554e	1.0104158
90	0x3f7edd76	0.9955667
91	0x3f80858f	1.0040759
92	0x3f7fd4b4	0.99933934
93	0x3f802497	1.0011166
94	0x3f7e634d	0.9937027
95	0x3f80c059	1.00587
96	0x3f800e2b	1.0004324
97	0x3f8027c6	1.0012138
98	0x3f803940	1.0017471
99	0x3f7db8eb	0.9911029
100	0x3f7eeb1d	0.99577504
101	0x3f801084	1.000504
102	0x3f801f78	1.0009604
103	0x3f7ecdaf	0.995326
104	0x3f80531a	1.002536
105	0x3f80b2e5	1.0054594
106	0x3f7ed2a4	0.9954016
107	0x3f7e5d53	0.9936115
108	0x3f8077eb	1.0036596
109	0x3f8039fa	1.0017693
110	0x3f80065b	1.000194
111	0x3f7f5b8a	0.9974905
112	0x3f8003e0	1.0001183
113	0x3f7fdaee	0.99943435
114	0x3f800b9d	1.0003544
115	0x3f80843f	1.0040358
116	0x3f7f7952	0.99794495
117	0x3f80c417	1.0059842
118	0x3f7f2223	0.99661463
119	0x3f80ccfd	1.0062557
120	0x3f7dd4ad	0.9915264
121	0x3f7e4c9e	0.9933566
122	0x3f807815	1.0036646
123	0x3f80ff76	1.007796
124	0x3f7d4b03	0.98942584
125	0x3f80156c	1.0006537
126	0x3f80b7c1	1.0056077
127	0x3f80fcfa	1.0077202

norm1.bias f4 [128]
0	0x3ad32fbb	0.0016112247
1	0xbab56b72	-0.0013841225
2	0xbb430733	-0.002975893
3	0xba367df7	-0.0006961519
4	0xb9a13ebf	-0.00030755062
5	0xbbeb4297	-0.007179569
6	0xbc106a64	-0.008814428
7	0x3ab8c338	0.0014096266
8	0x3c1b9757	0.009496531
9	0x39a88bbf	0.00032147576
10	0x3b43836c	0.0029832972
11	0xbb888387	-0.00416607
12	0x3c1155e2	0.008870574
13	0xbac72524	-0.0015193564
14	0x3bbb8cf3	0.0057235896
15	0x3b4d30c9	0.0031309596
16	0xbb6457a4	-0.0034842277
17	0x3b99f507	0.004698399
18	0x3b32e31a	0.0027296008
19	0x3a21ca85	0.00061718404
20	0xbbbf8bd9	-0.0058455286
21	0xbb8b2092	-0.004245826
22	0x386b745e	5.613674e-05
23	0x3b583bd9	0.0032994656
24	0xba422484	-0.0007405954
25	0x3a657de1	0.0008754414
26	0xbba44f9d	-0.0050143735
27	0xbad94907	-0.001657755
28	0x3c07a140	0.008278191
29	0xbbaa34a3	-0.005194263
30	0xb55f3006	-8.3143857e-07
31	0xb9eab32d	-0.00044765454
32	0x3b48b254	0.003062387
33	0xbc053a12	-0.008131521
34	0x3bbb51f5	0.005716557
35	0xbbae6765	-0.005322384
36	0xbad60cba	-0.0016330697
37	0x3c078049	0.008270332
38	0xb8dca93b	-0.00010521939
39	0x3b0ec1ef	0.0021783074
40	0xbba327a2	-0.00497909
41	0x3a56bbf5	0.000819146
42	0x3a067e17	0.0005130483
43	0xbb541866	-0.0032363175
44	0x3bbf9ffd	0.0058479295
45	0xbbb32475	-0.0054669925
46	0xbae2f9fa	-0.001731693
47	0xbb6fb5ca	-0.003657686
48	0x3bf76ebe	0.0075510433
49	0xbbefd389	-0.007318918
50	0xbc055e4c	-0.008140158
51	0xbb208d02	-0.002449811
52	0xb9495850	-0.00019201753
53	0x3b9dbdd3	0.0048138886
54	0x3c31d719	0.010854506
55	0xbbad11e7	-0.005281675
56	0x3c2fb60a	0.010724554
57	0xbba17ce8	-0.00492822
58	0x3ab5a10a	0.0013857197
59	0x3af2958a	0.0018507701
60	0xbbaae7f6	-0.00521564
61	0xbc00174c	-0.007818054
62	0xbab938f0	-0.0014131349
63	0xbbb2af05	-0.005452993
64	0xbb36f9f0	-0.002791997
65	0xbbda4121	-0.006660596
66	0xbaea3554	-0.0017868676
67	0xbbcae6b2	-0.006192052
68	0xbaf290c7	-0.0018506282
69	0x3b809ce4	0.003924953
70	0x3b98d65b	0.004664225
71	0xbc83bcf8	-0.016081318
72	0x3b92a5d5	0.004475335
73	0xbb71d0cd	-0.0036898137
74	0xba25abe1	-0.00063198624
75	0xbb131818	-0.002244478
76	0xbb2410a1	-0.0025034326
77	0xbb249407	-0.0025112645
78	0x3b4bafad	0.0031080053
79	0xbb89f16f	-0.0042096893
80	0xbbfd5909	-0.007731561
81	0x3b565c6a	0.0032708892
82	0xbb583935	-0.0032993082
83	0x3b78f7ff	0.0037989614
84	0xbabaadf8	-0.001424252
85	0xbb4d2755	-0.0031303961
86	0x3b8c0fbb	0.004274336
87	0xbc39eeea	-0.011348465
88	0x3c01fdb7	0.0079340255
89	0x3b59cbba	0.0033233003
90	0xbb8151b7	-0.0039465087
91	0x3aef3ae3	0.0018251803
92	0x3b422644	0.002962486
93	0xbb05239f	-0.0020315421
94	0xbb9e0128	-0.004821915
95	0x3c0b1f66	0.008491373
96	0x3b20b9bb	0.0024524766
97	0x3a8fbf3e	0.0010967029
98	0xba9a03ce	-0.0011750401
99	0xbc176920	-0.009241372
100	0xbc11da82	-0.008902194
101	0x3b8fd3b1	0.0043892493
102	0xbb9437d3	-0.0045232563
103	0xbaaf999d	-0.0013397221
104	0x3aa0050e	0.0012208538
105	0x3c22a4e4	0.009927008
106	0xbb7e0b84	-0.0038764188
107	0xbc3ebfbb	-0.011642392
108	0x3be521bd	0.0069925473
109	0x3ba38659	0.0049903807
110	0xbbb93155	-0.005651633
111	0xbaf1ecc3	-0.0018457401
112	0x3b9842c5	0.0046466314
113	0xbb7d6f76	-0.0038671172
114	0x3aa5e261	0.0012655967
115	0x3b1fce79	0.0024384542
116	0xbb5bf46a	-0.003356243
117	0x3b1f83e8	0.0024340097
118	0xbb615b11	-0.0034386555
119	0x3b6003ce	0.0034181955
120	0xbbc11b4d	-0.005893147
121	0xba7870e1	-0.00094772695
122	0x3b8f0222	0.004364268
123	0x3c3f7cb3	0.011687445
124	0xbbb489b0	-0.0055095777
125	0xbb53d901	-0.003232539
126	0x3b89fc0d	0.004210955
127	0x3b6e250a	0.0036337995

norm1.running_mean f4 [128]
0	0x3e514621	0.20436908
1	0xbdabb00e	-0.08383189
2	0x3e203897	0.15646587
3	0xbe65ee19	-0.22454108
4	0x3dd7e1e4	0.10541132
5	0x3e1b0969	0.15140308
6	0x3e49bbce	0.19700548
7	0xbe09d6ee	-0.13460895
8	0xbd4673f6	-0.048450433
9	0x3e88437b	0.26613984
10	0x3e68f525	0.22749765
11	0xbe772178	-0.24133861
12	0xbe218b0c	-0.15775698
13	0x3e00fad7	0.12595688
14	0x3e321995	0.17392571
15	0x3e288ed7	0.16460739
16	0xbd7bc0bf	-0.061463114
17	0x3dc28506	0.094980285
18	0x3e19829e	0.14991233
19	0x3c854986	0.01627041
20	0xbe2bd256	-0.16779456
21	0x3ec955f0	0.39323378
22	0x3d60f2e7	0.05491915
23	0x3dae32c3	0.08505776
24	0xbdf0e931	-0.11763228
25	0xbda93eb6	-0.08263914
26	0xbe1113cb	-0.14167707
27	0xbdd5c7db	-0.1043851
28	0xbddf2dc1	-0.10897399
29	0xbc62180c	-0.0137996785
30	0x3c551ae8	0.013006903
31	0xbd88e7a8	-0.0668481
32	0x3d5f2536	0.054478846
33	0xbe219c1b	-0.15782206
34	0x3e041cd5	0.12901624
35	0x3da7228f	0.081608884
36	0x3e4f6fd4	0.20257503
37	0x3dfd3025	0.123626985
38	0xbd63521c	-0.055498227
39	0x3e33f940	0.1757555
40	0x3cf2f597	0.029658122
41	0xbc1858bc	-0.0092985
42	0xbe98af5a	-0.29821283
43	0xbd75cde2	-0.0600108
44	0x3e05a127	0.13049756
45	0xbd10e650	-0.035375893
46	0xbd997030	-0.07492101
47	0xbd8fb107	-0.07016187
48	0x3d316e61	0.043318156
49	0x3e5d660d	0.2162096
50	0x3e27a3c8	0.16371071
51	0x3ec34cec	0.38144624
52	0xbeb78d60	-0.35850048
53	0xbe923775	-0.28557935
54	0xbee4cd5b	-0.44687924
55	0xbd88f4d3	-0.066873215
56	0xbd50d64e	-0.050985627
57	0xbd588184	-0.05285789
58	0x3e342946	0.1759387
59	0xbe542945	-0.20718868
60	0xbe8ced70	-0.275249
61	0xbdf48735	-0.11939851
62	0x3ba4ab99	0.005025339
63	0xbca883ef	-0.020570723
64	0xbc508114	-0.012726087
65	0xbd9e0f96	-0.077178165
66	0xbcd39591	-0.025828155
67	0x3ebb36c6	0.36565226
68	0x3e28d6ba	0.16488162
69	0x3e15579b	0.145842
70	0xbea98585	-0.3310968
71	0xbe4168e4	-0.18887669
72	0xbeab8cfe	-0.33506006
73	0x3ea7d684	0.3278085
74	0x3dbc1356	0.091833755
75	0x3d005acf	0.0313366
76	0x3dd202d6	0.10254447
77	0xbdad4aca	-0.084615305
78	0xbde2f889	-0.110825606
79	0x3dcac62c	0.099010795
80	0x3c086bc9	0.008326479
81	0x3e1487a7	0.14504872
82	0xbe5c8b95	-0.21537621
83	0x3eb8edf0	0.36119032
84	0xbdb42b53	-0.08797326
85	0x3e6d0323	0.23145728
86	0xbed67a90	-0.41890383
87	0xbcc3191b	-0.023815682
88	0x3d969da6	0.07354288
89	0x3e5e91a6	0.21735248
90	0x3e371419	0.1787876
91	0xbe63b618	-0.22237432
92	0xbe27d07d	-0.16388126
93	0x3e2eacee	0.17058155
94	0x3e481289	0.1953832
95	0xbd99c43f	-0.07508134
96	0xbdc89a7e	-0.09795092
97	0x3dd7b71b	0.105329715
98	0xbea725bf	-0.32645985
99	0x3ad92ee0	0.0016569756
100	0xbdce3695	-0.100690044
101	0x3ed541a2	0.41651636
102	0x3dc38749	0.09547288
103	0xbe6fa7ff	-0.23403929
104	0x3e59c5b7	0.21266828
105	0xbb6f3c4e	-0.003650445
106	0x3cfb4f4f	0.030677466
107	0x3ddf929a	0.10916634
108	0x3d50b487	0.050953414
109	0x3e81993b	0.25312218
110	0xbee4eb86	-0.4471094
111	0xbeb0eef8	-0.3455732
112	0x3e1a5743	0.1507235
113	0x3dc6a461	0.096993215
114	0xbdb36d5a	-0.087610915
115	0x3d728d69	0.05921689
116	0x3e931115	0.2872397
117	0x3e74c456	0.23903021
118	0x3e818280	0.25294876
119	0xbe60bf96	-0.21948084
120	0xbe8f42d5	-0.27980676
121	0x3b352172	0.0027638343
122	0x3ed8e035	0.42358556
123	0x3e94bbc3	0.290495
124	0x3e3578e5	0.17721899
125	0xbddb2563	-0.1070049
126	0xbccdeb22	-0.025136534
127	0x3dd7d65e	0.10538934

norm1.running_var f4 [128]
0	0x3cca1bfb	0.024671545
1	0x3cdb5c15	0.026777307
2	0x3cbedfb3	0.023300027
3	0x3ce5949d	0.028024966
4	0x3c97b426	0.018518519
5	0x3d0d69ce	0.03452473
6	0x3ca68584	0.020327337
7	0x3cb16131	0.02165279
8	0x3c8f1ffe	0.01747131
9	0x3d135d98	0.03597793
10	0x3d0f3b2c	0.03496854
11	0x3d021cde	0.03176581
12	0x3c99d359	0.018777536
13	0x3d01c3aa	0.03168074
14	0x3c33119e	0.010929493
15	0x3c2e813a	0.010650927
16	0x3bf91e9a	0.007602525
17	0x3d87c5e0	0.066295385
18	0x3c8ee9b4	0.017445423
19	0x3ca643db	0.020296028
20	0x3c249039	0.010044151
21	0x3c55a173	0.013038981
22	0x3c58b560	0.013226837
23	0x3cb3a8f2	0.021931145
24	0x3c9128a9	0.017719584
25	0x3cafa4cf	0.021440892
26	0x3d503911	0.050835673
27	0x3cd376d3	0.025813496
28	0x3c31698a	0.010828385
29	0x3c207cb3	0.009795356
30	0x3cc00739	0.023440944
31	0x3d3912e1	0.04518402
32	0x3c9fc163	0.019501394
33	0x3d3b921f	0.04579365
34	0x3d64159c	0.05568467
35	0x3c341e51	0.010993556
36	0x3d05de2b	0.03268258
37	0x3cee05ed	0.02905556
38	0x3b9a3427	0.004705924
39	0x3cecccf6	0.028906327
40	0x3c804894	0.015659608
41	0x3d401406	0.046894096
42	0x3d236e77	0.03990027
43	0x3d3b80dc	0.045777187
44	0x3c8e0858	0.017337963
45	0x3d12b3a0	0.035815835
46	0x3cbd277c	0.023090117
47	0x3c77492f	0.015093132
48	0x3c4307f0	0.011903748
49	0x3c6cf24b	0.014462064
50	0x3cee7d21	0.0291124
51	0x3c929269	0.01789208
52	0x3c81ed7b	0.01586031
53	0x3da85b4f	0.08220541
54	0x3c5a3888	0.013319142
55	0x3d0eb6f5	0.03484245
56	0x3c820d55	0.015875498
57	0x3c63149a	0.013859892
58	0x3d0439a0	0.032281518
59	0x3d863f13	0.06554999
60	0x3cb1ba58	0.021695301
61	0x3c0f8172	0.0087588895
62	0x3d0e1247	0.0346854
63	0x3d1ac3d1	0.0377844
64	0x3d48c514	0.049016073
65	0x3d3c916e	0.04603713
66	0x3c86292f	0.01637706
67	0x3d2aebbe	0.041728728
68	0x3cc92355	0.02455298
69	0x3d1fb070	0.038986623
70	0x3d3a8b53	0.045543026
71	0x3c497171	0.012295113
72	0x3cb3fc4e	0.021970894
73	0x3cc219c2	0.023693923
74	0x3c7f5f03	0.015586617
75	0x3ca2dc8e	0.01988056
76	0x3cf120bb	0.029434552
77	0x3cb2ec3d	0.021841163
78	0x3c3f6a9b	0.011683132
79	0x3c6194db	0.0137684
80	0x3cd9caea	0.026586015
81	0x3c5df06e	0.013546092
82	0x3c1e54e4	0.009663794
83	0x3d30be0c	0.043149993
84	0x3d1518b3	0.036400508
85	0x3d410a31	0.04712886
86	0x3d137eac	0.036009476
87	0x3c850887	0.016239418
88	0x3bf18edc	0.0073717665
89	0x3cb003a3	0.02148611
90	0x3c334e56	0.01094397
91	0x3d0e4fd4	0.0347441
92	0x3cfde19d	0.03099137
93	0x3d170f9d	0.036880124
94	0x3ccb2b43	0.024800902
95	0x3bf392ec	0.007433286
96	0x3ccc0f40	0.024909616
97	0x3d046228	0.03232017
98	0x3c6067a0	0.013696581
99	0x3d1b98a9	0.037987385
100	0x3c4b156f	0.012395247
101	0x3cfaab52	0.03059927
102	0x3cdf506b	0.027260026
103	0x3cf3ac85	0.02974535
104	0x3c1386e9	0.009004333
105	0x3cd699a9	0.026196318
106	0x3ccb026c	0.024781428
107	0x3c806c58	0.015676662
108	0x3bd5f1fa	0.00652909
109	0x3c335f99	0.010948085
110	0x3d91e4cc	0.07123718
111	0x3c0acd4a	0.008471796
112	0x3c4b042c	0.012391131
113	0x3c8cda9f	0.01719409
114	0x3d1ec564	0.038762465
115	0x3ca9bbb0	0.02071938
116	0x3c658ca1	0.014010579
117	0x3d136545	0.03598525
118	0x3d583469	0.052784357
119	0x3d33627b	0.04379509
120	0x3c135626	0.008992707
121	0x3be96117	0.0071221697
122	0x3c0a599f	0.008444219
123	0x3cf351ca	0.029702086
124	0x3d0d53b5	0.034503657
125	0x3d695db4	0.056974128
126	0x3d3d4137	0.04620477
127	0x3cf534a9	0.029932337

convs.0.bases_weight f4 [128, 32]
0	0xbe02f759	-0.12789668
1	0x3d0f0cf3	0.03492446
2	0x3e09e91d	0.13467832
3	0xbe1574a9	-0.14595284
4	0xbe0b10ad	-0.1358058
5	0xbd0ec21e	-0.034853093
6	0x3bd9e1c8	0.0066492297
7	0x3e3513b8	0.17683303
8	0x3e27a0a8	0.16369879
9	0xbdd54da6	-0.10415201
10	0x3e011f2e	0.1260955
11	0x3dea77a1	0.11448599
12	0xbe101375	-0.14069922
13	0x3dff623c	0.124699086
14	0x3e3d0849	0.18460192
15	0xbd3244ec	-0.04352276
16	0x3e30a4d9	0.17250384
17	0x3e3a811f	0.18213318
18	0x3d6bbb5a	0.05755172
19	0x3bc13f8e	0.005897469
20	0x3e246a15	0.16056092
21	0x3e0c5b4b	0.137067
22	0x3e326e30	0.17424846
23	0xbdfb05d3	-0.1225697
24	0x3d91fcfc	0.07128331
25	0x3dea3a06	0.11436848
26	0xbdf12148	-0.11773926
27	0x3cd9f658	0.026606724
28	0xbdcdce7f	-0.10049152
29	0xbe04beb6	-0.12963375
30	0x3e408eac	0.18804425
31	0xbe1ea597	-0.15492855
32	0xbe2f3bb6	-0.17112622
33	0x3e1bb151	0.1520436
34	0x3df18634	0.11793175
35	0x3d2315a8	0.039815575
36	0x3e0d7e2d	0.13817663
37	0x3acd6edf	0.0015673301
38	0xbd7ec220	-0.06219685
39	0xbcf589d5	-0.02997295
40	0x3d2c044b	0.04199628
41	0xbe3be422	-0.18348745
42	0xbe30bb76	-0.1725901
43	0xbd89999e	-0.06718753
44	0x3c9d7cf8	0.019224629
45	0x3e04cbf8	0.12968433
46	0xbdc15dd5	-0.09441725
47	0xbe24cae1	-0.16093017
48	0xbe3e87c6	-0.18606481
49	0xbbbcbe13	-0.0057599633
50	0xbe026643	-0.12734322
51	0xbd00e33c	-0.031466708
52	0xbdff22b5	-0.12457792
53	0x3da716f4	0.08158675
54	0xbd92a7b6	-0.071608946
55	0xbe0fb24e	-0.14032862
56	0x3d6ba2d1	0.05752832
57	0xbb5b2cf5	-0.0033443545
58	0x3dffc8ad	0.12489448
59	0x3c5dabdb	0.013529743
60	0x3da3706b	0.079804264
61	0x3d7b9a62	0.061426528
62	0xbde7b13a	-0.113131
63	0x3e1e8825	0.15481623
64	0x3d02b4a6	0.03191056
65	0xbd07d8b2	-0.03316564
66	0x3cc257c9	0.0237235
67	0x3e30d9ca	0.1727058
68	0x3e0a93d0	0.13532948
69	0x3e237bf2	0.1596525
70	0xbde3b695	-0.11118809
71	0xbd36cb0a	-0.044627227
72	0x3d277f59	0.040892933
73	0xbd05015b	-0.032471996
74	0xbd26d055	-0.040726025
75	0x3e14cfb7	0.14532362
76	0xbdd8b142	-0.10580684
77	0xbdb76faf	-0.08956849
78	0x3d08e347	0.033419874
79	0xbdbda180	-0.09259319
80	0xbde54aa1	-0.11195875
81	0xbe207dad	-0.15672942
82	0x3e01fd2b	0.12694232
83	0xbdbfffc4	-0.09374955
84	0xbd02699f	-0.03183901
85	0x3dfec82a	0.12440522
86	0xbe454025	-0.1926275
87	0xbb9d5da6	-0.0048024235
88	0xbdb3e3a4	-0.087836534
89	0xbe11b606	-0.14229593
90	0x3c9ec5f3	0.019381499
91	0x3d8104bf	0.06299733
92	0x3dffd66d	0.1249207
93	0x3e493986	0.1965085
94	0x3d7f04cd	0.062260438
95	0xba99f10f	-0.0011744815
96	0xbdccd354	-0.10001245
97	0xbd3ef621	-0.046621446
98	0xbe3a0f00	-0.18169785
99	0xbe3ffbd7	-0.18748413
100	0xbe1c9737	-0.15292059
101	0x3e02d56f	0.12776731
102	0x3d9ef73d	0.07762001
103	0x3e344b57	0.17606865
104	0x3e00e2a3	0.12586455
105	0x3e04b2d8	0.12958848
106	0x3d1aa8bc	0.037758574
107	0x3dc5123e	0.0962262
108	0x3d846d89	0.06466205
109	0xbe1ce6b1	-0.15322377
110	0xbe1554f7	-0.14583193
111	0x3e256495	0.1615165
112	0x3dfaf56c	0.12253842
113	0xbd487bc6	-0.048946165
114	0xbded1ce4	-0.11577776
115	0xbe0ea899	-0.13931502
116	0xbe1d4151	-0.15356947
117	0xbd8688d0	-0.06569064
118	0x3c0f6ae4	0.008753512
119	0x3b86fc62	0.004119442
120	0x3d8a33cb	0.0674816
121	0x3cdc9ae1	0.02692932
122	0x3d4b341d	0.049610246
123	0x3e16f868	0.14743197
124	0x3d2b0fa5	0.041762967
125	0xbb3e7378	-0.0029060524
126	0x3dc65fa0	0.09686208
127	0x3d89b264	0.067234784
128	0x3db4b0f1	0.088228114
129	0xbd37af54	-0.04484494
130	0xbe4972a0	-0.19672632
131	0xbd9feb12	-0.07808508
132	0x3e1e7fd3	0.15478449
133	0xbd86ea3b	-0.06587645
134	0xbdce67d0	-0.100783944
135	0xbdb00dd5	-0.08596388
136	0x3dde519c	0.108554095
137	0x3e34b41a	0.17646828
138	0xbe38ec09	-0.1805879
139	0xbd8ac458	-0.06775731
140	0x3e1471a8	0.14496481
141	0x3d2a045b	0.04150806
142	0x3e05acea	0.13054243
143	0xbe1550ee	-0.14581653
144	0x3df233b4	0.11826268
145	0xbdbffd98	-0.09374541
146	0xbe013d14	-0.12620956
147	0xbda66d7d	-0.08126352
148	0xbe18d59a	-0.14925233
149	0x3d5b39b8	0.05352184
150	0x3dfe1248	0.124058306
151	0xbe04257d	-0.12904926
152	0x3d82c163	0.06384542
153	0xbe0bef0b	-0.13665406
154	0x3ddc8d8b	0.10769185
155	0xbc4f7cfd	-0.012664077
156	0x3c644d23	0.013934406
157	0xbe131d25	-0.14366587
158	0x3d94ae49	0.07259805
159	0x3da4dd3d	0.0805001
160	0xbd8167c7	-0.06318622
161	0xbdb4e135	-0.08832017
162	0x3e23152d	0.15926047
163	0x3e02535f	0.12727116
164	0xbdcd6035	-0.10028116
165	0x3d7c5b78	0.06161067
166	0xbdadad95	-0.08480374
167	0xbe3aa6cb	-0.18227689
168	0xbc7aa435	-0.015297939
169	0xbe2a9a0c	-0.16660327
170	0xbdb7a415	-0.08966843
171	0xbc769c4e	-0.015051914
172	0xbe04a676	-0.12954125
173	0x3ded88ba	0.11598344
174	0xbd822453	-0.063545845
175	0xbe197117	-0.14984547
176	0x3ca62693	0.020282065
177	0x3d1ff235	0.039049346
178	0xbd52d696	-0.051474176
179	0xbe128efd	-0.14312358
180	0x3dba27d1	0.090896256
181	0xbd943cd1	-0.07238162
182	0xbdb0546e	-0.08609854
183	0x3e1c4622	0.15261129
184	0xbdf35349	-0.1188112
185	0x3dec8acf	0.11549913
186	0x3bd1d48f	0.006403513
187	0xbd37f53c	-0.044911608
188	0xbdf85510	-0.121255994
189	0x3e3901ce	0.18067095
190	0x3c904f6e	0.017616
191	0x3cd8ff85	0.026489029
192	0xbe1e91e0	-0.15485334
193	0x3dfe770c	0.1242505
194	0xbc1c7326	-0.009548938
195	0x3d9f8e58	0.07790822
196	0x3dfb403e	0.122681126
197	0x3d3708e8	0.044686228
198	0x3de63ec5	0.11242441
199	0xbdb21e5c	-0.08697197
200	0x3da3f96b	0.08006557
201	0x3d96f788	0.073714316
202	0x3ddb0981	0.10695172
203	0xbd883fcc	-0.06652793
204	0x3ddfe0bf	0.10931539
205	0x3e338c6a	0.17534032
206	0xbdb6dd21	-0.08928896
207	0xbc8678cd	-0.016415024
208	0xbccc4ebd	-0.02493989
209	0x3dcb7472	0.099343196
210	0xbcfd0efd	-0.030890936
211	0x3d557e43	0.052122366
212	0xbd9fe74c	-0.07807788
213	0x3d638e8c	0.055555865
214	0x3df9280b	0.12165841
215	0x3d036796	0.03208121
216	0x3e3d6743	0.18496422
217	0x3e30e81c	0.17276043
218	0xbe0fd2d7	-0.14045273
219	0xbdf1f0c5	-0.11813501
220	0xbe236235	-0.15955432
221	0xbd258eaa	-0.04041926
222	0x3dcf364b	0.101177774
223	0xbd8f6781	-0.07002164
224	0xbd614b37	-0.05500337
225	0xbdb95fb0	-0.09051454
226	0x3d4e659d	0.050389875
227	0x3d090c7c	0.03345917
228	0xbe252f65	-0.16131361
229	0xbdcd67ab	-0.10029539
230	0xbd02ec23	-0.03196348
231	0x3e3ee442	0.18641761
232	0xbe4322df	-0.19056271
233	0xbe3fc0f4	-0.1872595
234	0x3d980f1d	0.07424758
235	0x3d8f65c9	0.07001836
236	0xbcb10610	-0.021609336
237	0xbe1a879e	-0.15090796
238	0xbdbca056	-0.09210269
239	0x3e0aef27	0.13567792
240	0x3e29e343	0.165906
241	0x3d052cf8	0.03251359
242	0x3e3bad16	0.18327746
243	0x3e26dcc8	0.16295159
244	0xbc8ce25b	-0.017197778
245	0xbe007a21	-0.12546588
246	0xbdfaaa46	-0.12239508
247	0xbd4bf223	-0.049791466
248	0xbe27b99d	-0.163794
249	0x3e3f0f7d	0.18658252
250	0x396c853b	0.00022556346
251	0xbe39f865	-0.18161161
252	0xbdc6de48	-0.097103655
253	0xbd839614	-0.064251095
254	0xbe219dc8	-0.15782845
255	0xbd0f250e	-0.034947447

convs.0.bias f4 [128]
0	0xb816b3e4	-3.5930323e-05
1	0xb88ec3f6	-6.807588e-05
2	0x385afe52	5.2212104e-05
3	0x3818fd81	3.6475718e-05
4	0x387f6f29	6.0900264e-05
5	0x383533cc	4.3202002e-05
6	0xb7fd9076	-3.022722e-05
7	0xb96467b3	-0.00021782405
8	0x37f22693	2.886661e-05
9	0xb8c2280c	-9.2581e-05
10	0x384cf4f0	4.8865506e-05
11	0x3996fae2	0.00028797152
12	0x37541180	1.2640259e-05
13	0xb816d688	-3.5962585e-05
14	0x38f0703a	0.000114649956
15	0x38db3c27	0.00010453938
16	0xb8f5aed0	-0.00011715072
17	0x392831c8	0.00016040273
18	0xb8d195f0	-9.993825e-05
19	0xb8dea6a2	-0.00010616823
20	0x38eada89	0.00011198695
21	0x3781995f	1.5449417e-05
22	0xb9d36fd4	-0.00040328375
23	0xb98f28cc	-0.00027305481
24	0x37f6e693	2.9432855e-05
25	0x38501fcf	4.962069e-05
26	0x37c76297	2.3768558e-05
27	0x37f0208b	2.8625383e-05
28	0x37cbf2ee	2.4312609e-05
29	0xb6f331c7	-7.247759e-06
30	0x3930008b	0.0001678487
31	0xb88207a7	-6.2003084e-05
32	0xb7b77b7b	-2.18728e-05
33	0x3701f329	7.745614e-06
34	0x38aca20a	8.231781e-05
35	0xb93f8243	-0.00018263706
36	0xb6831087	-3.9060283e-06
37	0x37e90c65	2.7781536e-05
38	0xb928f71a	-0.00016113781
39	0xb8301292	-4.1978965e-05
40	0xb804ef06	-3.169386e-05
41	0x398e642b	0.00027158982
42	0xb88ff9fa	-6.865333e-05
43	0xb8a37516	-7.7942546e-05
44	0x389e6215	7.552296e-05
45	0xb7e09b6f	-2.677526e-05
46	0x398da0fd	0.0002701356
47	0xb95394fd	-0.0002017803
48	0xb6963c3b	-4.47736e-06
49	0xb98d0a63	-0.00026901354
50	0x379b7d19	1.8535693e-05
51	0xb81d8eae	-3.7564598e-05
52	0xb906272f	-0.00012793833
53	0xb97cb1d4	-0.00024098839
54	0x3960d220	0.00021440582
55	0xb8f19e2d	-0.00011521238
56	0x381fd269	3.8104514e-05
57	0x37578e0d	1.2848072e-05
58	0x3812c221	3.498991e-05
59	0xb81de60f	-3.7645976e-05
60	0xb89810f4	-7.2510826e-05
61	0x38e0eb22	0.00010724949
62	0x37a8d7e2	2.0127689e-05
63	0xb9a22b39	-0.0003093125
64	0x38ad0c96	8.251627e-05
65	0xb61c8db4	-2.3328294e-06
66	0xb70d9661	-8.439268e-06
67	0x38d407cd	0.00010110401
68	0xb8b14e4d	-8.454602e-05
69	0xb815dc8a	-3.572976e-05
70	0x39ae972b	0.00033300495
71	0xb831bc4a	-4.2375446e-05
72	0xb84db932	-4.9048285e-05
73	0x39a76253	0.0003192598
74	0xb8280bd0	-4.0065323e-05
75	0x38cb64c9	9.698567e-05
76	0x38de4775	0.00010599095
77	0xb8752973	-5.8451154e-05
78	0xb9c6bdc3	-0.00037906886
79	0xb847c7c7	-4.7631354e-05
80	0xb90ee7e3	-0.0001362856
81	0xb91a56bc	-0.00014718896
82	0xb8b99ed8	-8.8510744e-05
83	0xb81f66d5	-3.8004324e-05
84	0x384f6c6e	4.945363e-05
85	0xb9aecd12	-0.00033340656
86	0xb93d4b5a	-0.00018052515
87	0xb6b9d2e2	-5.5379796e-06
88	0xb9171bee	-0.00014410887
89	0xb59768fd	-1.1280932e-06
90	0xb84596ed	-4.710902e-05
91	0x3868ec71	5.5533314e-05
92	0xb9786bc7	-0.00023691273
93	0x38c2b735	9.284766e-05
94	0xb99e4159	-0.00030184796
95	0xb8765d57	-5.87379e-05
96	0x39416400	0.00018443167
97	0x392087aa	0.00015309328
98	0xb9324702	-0.00017001855
99	0x38ae0c9f	8.2993174e-05
100	0x38161881	3.5785608e-05
101	0xb88aface	-6.627069e-05
102	0x391cb70e	0.00014945513
103	0xb7c91110	-2.3969013e-05
104	0x39474e24	0.00019007229
105	0xb8748de3	-5.8306276e-05
106	0x39473a03	0.0001899973
107	0xb8a78dfa	-7.989626e-05
108	0xba092156	-0.00052311027
109	0x38efbf85	0.000114320814
110	0x38e797eb	0.00011043235
111	0x3a09a9ef	0.00052514573
112	0xb9059fb4	-0.00012743362
113	0xb9c5f944	-0.00037760485
114	0xb84de49f	-4.908873e-05
115	0xb94385a1	-0.0001864643
116	0x37c5f138	2.3596556e-05
117	0xb98fa627	-0.0002739888
118	0xb91723ed	-0.00014413866
119	0x375eaa7d	1.3271926e-05
120	0xb81c3dc7	-3.7250833e-05
121	0xb8a6dec0	-7.956987e-05
122	0xb850fe55	-4.982793e-05
123	0x38a961f5	8.076794e-05
124	0xb95c49a8	-0.00021008274
125	0x37dc861c	2.6288493e-05
126	0xb99e79b2	-0.00030226778
127	0xb8e7cbb4	-0.00011052881

convs.0.comb_weight.weight f4 [12, 128]
0	0x3d91c5f1	0.071178325
1	0x3d902827	0.070389085
2	0x3d5da711	0.054114405
3	0xbd4e0551	-0.05029804
4	0xbbf2f533	-0.007414484
5	0xbd23ca50	-0.039987862
6	0x3da650c9	0.08120877
7	0x3bf8e889	0.0075960797
8	0xbd527677	-0.051382508
9	0xbc4db7df	-0.012556045
10	0x3b24685c	0.0025086617
11	0x3d03694c	0.03208284
12	0xbc5083b5	-0.012726714
13	0x3c8f1f12	0.01747087
14	0xbda99651	-0.08280624
15	0xbcea9c3f	-0.028638957
16	0x3d502a99	0.050821874
17	0x3d27efa6	0.04100003
18	0x3daefe7d	0.085446335
19	0x3d925629	0.0714534
20	0x3d44e72d	0.04807203
21	0xbd410626	-0.047125004
22	0x3d9f3250	0.07773268
23	0x3d7b559f	0.06136095
24	0xbce93e29	-0.028472023
25	0xbd1f7bcc	-0.03893642
26	0xbd256f27	-0.040389206
27	0xbd80d02e	-0.06289707
28	0x3d19da10	0.037561476
29	0xbd23e7b9	-0.04001591
30	0x3da66c3f	0.08126115
31	0x3cbf0ebf	0.023322461
32	0x3be952f9	0.007120487
33	0x3cf58043	0.029968387
34	0x3d3e81f2	0.046510644
35	0xbc910f65	-0.017707536
36	0xbd8d536d	-0.06900678
37	0xbda81e6c	-0.082089275
38	0x3db1ecbd	0.08687732
39	0x3da45bb8	0.080253065
40	0xbcd16a7a	-0.025563467
41	0x3da39965	0.07988242
42	0x3d1c3ce3	0.038144004
43	0xbd9d97a3	-0.07694938
44	0xbc1b834a	-0.009491751
45	0xbda225c3	-0.07917359
46	0x3d212cad	0.039349247
47	0x3d1a74b4	0.037708953
48	0x3d1993d1	0.037494484
49	0xbc1c3c37	-0.009535841
50	0x3c4d2d70	0.01252304
51	0xbd5c1e57	-0.05373987
52	0xbd8f27d8	-0.069900215
53	0xbceaf59b	-0.028681567
54	0x3d09867a	0.033575512
55	0xbc829f8c	-0.015945219
56	0xbc3597ff	-0.011083602
57	0xbd31dd57	-0.043423977
58	0xbd37342c	-0.04472749
59	0xbd324c2d	-0.043529678
60	0xbc77c7ad	-0.01512329
61	0x3dabda5d	0.08391259
62	0xbcac49ba	-0.02103125
63	0xbc419247	-0.01181466
64	0xbd40c604	-0.047063842
65	0xbd673cbc	-0.056454405
66	0xbdb3faca	-0.087880686
67	0xbd5d892e	-0.054085903
68	0xbcd9144c	-0.026498936
69	0xbce3ec80	-0.027822733
70	0xbd685c89	-0.056728873
71	0xbbc42d2b	-0.0059868298
72	0x3d9fd8af	0.07805001
73	0xbd84d58e	-0.06486045
74	0x3d5d7171	0.054063264
75	0xbd8c9fb6	-0.068664
76	0x3c72ef48	0.014827557
77	0x3c19a6e9	0.009378173
78	0xbd8bf176	-0.068331644
79	0xbd4b01a9	-0.04956213
80	0xbd45fef3	-0.04833884
81	0xbd8abdfc	-0.06774518
82	0x3c3002e9	0.010742881
83	0xbd90d15f	-0.07071184
84	0x3d9f8c8d	0.0779048
85	0x3b6535d4	0.003497471
86	0xbd88276c	-0.06648144
87	0xbd09a266	-0.03360214
88	0x3da0015c	0.07812759
89	0xbbecd80e	-0.007227904
90	0x3d15451d	0.036442865
91	0x3d75ce92	0.060011454
92	0xbd342eef	-0.043990072
93	0x3d93aca2	0.072106615
94	0xbd696e90	-0.056990206
95	0xbd965c21	-0.07341791
96	0x3d4e5260	0.050371528
97	0xbd84f8c4	-0.06492761
98	0xbd6b63d2	-0.057468243
99	0xbd87984a	-0.06620844
100	0x3d05e072	0.03268475
101	0xbbfd2642	-0.007725508
102	0x3d95577a	0.072920755
103	0xbd2a314a	-0.041550912
104	0x3c49180b	0.012273799
105	0x3d30affd	0.043136586
106	0xbc77955c	-0.015111294
107	0xbc21f6ed	-0.009885532
108	0xbd638b92	-0.055553026
109	0x3d4e8d16	0.05042752
110	0x3d153bb5	0.036433894
111	0xbc76b274	-0.015057195
112	0xbcd9981f	-0.026561795
113	0x3d75451b	0.059880357
114	0xbd9633dd	-0.07334111
115	0x3d2a1528	0.041524082
116	0x3d8def15	0.06930367
117	0xbcf3c01a	-0.029754687
118	0x3d139636	0.036031924
119	0x3cdc1662	0.026866142
120	0x3c1a732d	0.009426874
121	0xbd121841	-0.03566766
122	0xbc2eac1d	-0.010661152
123	0xbc3574de	-0.011075227
124	0x3d0185e4	0.03162183
125	0xbdb021aa	-0.08600171
126	0xbb937db9	-0.0045010713
127	0x3ce7072d	0.028201664
128	0x3cebf556	0.028803509
129	0xbd330d02	-0.043713577
130	0xbd12f2c4	-0.03587605
131	0x3d4c2b76	0.049846135
132	0x3c6fe2a7	0.0146414405
133	0x3dba411e	0.09094451
134	0xbcf05d0e	-0.029341247
135	0x3d5ae7d2	0.053443737
136	0xbc24d2b0	-0.010059997
137	0x3c59bd24	0.013289724
138	0xbb187f9d	-0.0023269423
139	0xbda0d2e9	-0.07852728
140	0x3d15cc7e	0.036571972
141	0x3cdc70af	0.0269092
142	0xbd9ba5f0	-0.076000094
143	0xbbe219f5	-0.006900067
144	0x3c97a6b6	0.018512111
145	0x3da11bed	0.078666545
146	0x3db00d6d	0.08596311
147	0xbc78737a	-0.0151642505
148	0xbc30ea13	-0.010797995
149	0xbcba9c13	-0.0227795
150	0xbd8b3e1f	-0.06798958
151	0x3d341ece	0.04397469
152	0x3db28c86	0.08718209
153	0x3da0fedf	0.07861113
154	0xbd9332ae	-0.07187401
155	0xbdab8e34	-0.083767325
156	0xbd5cb3db	-0.05388246
157	0xbc38063d	-0.011231956
158	0xbca15d17	-0.019697709
159	0xbda09802	-0.07841493
160	0xbd92d7fc	-0.07170102
161	0xbd878615	-0.06617371
162	0xbcea2544	-0.028582223
163	0x3a920a75	0.0011142032
164	0x3dabb10b	0.08383378
165	0xbd9f2229	-0.077701874
166	0x3d772083	0.06033374
167	0xbd1dc41a	-0.038517095
168	0x3dc4093b	0.09572073
169	0xbd906d02	-0.070520416
170	0xbd9b6e05	-0.07589344
171	0xbc38e9cb	-0.011286209
172	0x3d2bd977	0.041955438
173	0xbd911334	-0.07083741
174	0xbcaaa90c	-0.020832561
175	0xbd7d4576	-0.06183382
176	0x3d428dfe	0.047498696
177	0xbd33b7d9	-0.043876503
178	0xbd38e089	-0.04513601
179	0xbd9ee0cd	-0.07757721
180	0x3ce379c1	0.027768018
181	0x3dacb289	0.084324904
182	0x3cc14af1	0.023595305
183	0x3d0aa9a5	0.033853192
184	0x3d9f09e6	0.0776556
185	0xbaadfa94	-0.0013273531
186	0x3acd4e60	0.0015663616
187	0x3d9caeab	0.07650503
188	0xbcdb4537	-0.026766403
189	0xbd9faaa5	-0.0779622
190	0x3c837cb4	0.016050674
191	0x3d22aa80	0.039713383
192	0x3d093379	0.033496354
193	0x3d83982e	0.0642551
194	0x3d97ee7a	0.07418533
195	0x3b0d0155	0.0021515687
196	0x3d4f686f	0.050636705
197	0xbd9e0f6f	-0.077177875
198	0x3c562602	0.013070585
199	0x3d53da74	0.051722005
200	0x3d705e82	0.05868388
201	0xbd9dca56	-0.07704608
202	0x3d9c824f	0.07642042
203	0xb9d12d2c	-0.00039897242
204	0x3c42bf03	0.011886361
205	0x3c664478	0.01405441
206	0x3c112da4	0.008860979
207	0xbd58f3fb	-0.052967053
208	0x3d98b19e	0.07455753
209	0x3cf0b0c6	0.029381167
210	0xbd72832d	-0.05920713
211	0xbd8cbe23	-0.06872203
212	0x3d4a11bc	0.04933332
213	0x3d8a6938	0.0675835
214	0x3c8a988a	0.01691844
215	0x3da1366a	0.07871707
216	0xbba0a86b	-0.0049028895
217	0xbd19acff	-0.037518498
218	0x3d17b9de	0.03704249
219	0x3af13ced	0.0018404998
220	0x3c3a8877	0.011385075
221	0x3b3fe2dc	0.0029279506
222	0x3d79b145	0.060960073
223	0x3d22b6e1	0.03972519
224	0x3d31aa18	0.043375105
225	0x3c492124	0.012275968
226	0xbcceeb76	-0.02525876
227	0xbd71b0d2	-0.05900652
228	0xbc1afdc2	-0.009459915
229	0xbda84172	-0.08215608
230	0xbd5217e3	-0.05129231
231	0xbca92bd7	-0.020650787
232	0x3d955280	0.07291126
233	0xbdb7f6fe	-0.08982657
234	0x3d4e7b6a	0.050410666
235	0xbd565575	-0.052327592
236	0xbda5e106	-0.080995604
237	0xbd80e57a	-0.06293769
238	0xbd66ab07	-0.056315448
239	0x3db3b72a	0.0877517
240	0x3d9e5ae8	0.07732183
241	0x3db4cca4	0.088280946
242	0xbd2a2c7f	-0.04154634
243	0xbda0ae3d	-0.07845733
244	0xbc48d415	-0.012257596
245	0x3d8b04f6	0.067880556
246	0x3d3ba043	0.045807134
247	0xbd863aa5	-0.06554154
248	0xbcc02265	-0.0234539
249	0x3c099234	0.008396674
250	0x3db7747c	0.089577645
251	0xbd6b6d87	-0.0574775
252	0x3d681560	0.05666101
253	0x3d5bac3f	0.053631064
254	0xbd3bd251	-0.04585487
255	0xbd88c752	-0.06678642

convs.0.comb_weight.bias f4 [12]
0	0xbd2ed74a	-0.042685784
1	0x3d5fb1eb	0.054613035
2	0x3d4bcb22	0.04975427
3	0xbc99b60e	-0.018763568
4	0xbda6d90d	-0.08146868
5	0x3d1670af	0.036728557
6	0x3d340a8b	0.043955367
7	0xbd93ef21	-0.072233446
8	0x3d8abca9	0.06774265
9	0xbbe58c30	-0.007005237
10	0xbd8be11d	-0.06830046
11	0x3c1921ac	0.009346407

norms.0.weight f4 [128]
0	0x3f7ed33f	0.99541086
1	0x3f818514	1.0118737
2	0x3f7ea6a5	0.9947303
3	0x3f7fb744	0.99889016
4	0x3f8067e1	1.0031701
5	0x3f7c09db	0.9845254
6	0x3f7e47c7	0.99328274
7	0x3f80fc82	1.0077059
8	0x3f7e8e71	0.994361
9	0x3f7ed656	0.995458
10	0x3f80d55f	1.0065116
11	0x3f813313	1.0093712
12	0x3f7dcc6c	0.9914005
13	0x3f80979e	1.004627
14	0x3f805bd7	1.0028027
15	0x3f804614	1.0021386
16	0x3f7facb3	0.99872893
17	0x3f7d89f8	0.9903865
18	0x3f7ec814	0.99524045
19	0x3f7fa94c	0.998677
20	0x3f8021da	1.0010331
21	0x3f7fe2fc	0.99955726
22	0x3f811c7e	1.008682
23	0x3f7e7120	0.99391365
24	0x3f808d0f	1.0043048
25	0x3f80793b	1.0036997
26	0x3f811ec1	1.008751
27	0x3f80e5b5	1.0070101
28	0x3f7f5278	0.9973521
29	0x3f7e69f9	0.9938045
30	0x3f7fd0e5	0.9992812
31	0x3f7c831b	0.9863755
32	0x3f7ee5dc	0.9956949
33	0x3f7d3650	0.98911
34	0x3f80572f	1.0026606
35	0x3f80355b	1.0016283
36	0x3f7e91b2	0.99441063
37	0x3f80cb9c	1.0062137
38	0x3f7e2d3e	0.99287784
39	0x3f7d95d4	0.99056745
40	0x3f807038	1.0034246
41	0x3f7e386f	0.9930486
42	0x3f81338c	1.0093856
43	0x3f7faad3	0.9987003
44	0x3f805780	1.0026703
45	0x3f808f8c	1.0043807
46	0x3f7ed5a0	0.99544716
47	0x3f801682	1.0006869
48	0x3f81720d	1.011293
49	0x3f80ee65	1.0072752
50	0x3f7f1ee6	0.9965652
51	0x3f80e3a1	1.0069467
52	0x3f7f13de	0.9963969
53	0x3f802bba	1.0013344
54	0x3f81ea86	1.0149696
55	0x3f803aa6	1.0017898
56	0x3f7e099a	0.992334
57	0x3f812a35	1.0091006
58	0x3f7d6e39	0.9899631
59	0x3f807c9e	1.003803
60	0x3f803f53	1.0019325
61	0x3f7efbde	0.9960307
62	0x3f80898c	1.0041976
63	0x3f7ee3a4	0.995661
64	0x3f805560	1.0026054
65	0x3f8081c5	1.0039603
66	0x3f7f36b9	0.99692875
67	0x3f816b8c	1.0110946
68	0x3f811567	1.0084656
69	0x3f81be17	1.0136136
70	0x3f7ecd38	0.9953189
71	0x3f7f6a4b	0.99771565
72	0x3f7ef8f8	0.99598646
73	0x3f815f7b	1.0107263
74	0x3f8024aa	1.0011189
75	0x3f809cc2	1.0047839
76	0x3f817afc	1.0115657
77	0x3f7e7a42	0.994053
78	0x3f7dbf09	0.9911962
79	0x3f80e506	1.0069892
80	0x3f80be58	1.0058088
81	0x3f7fcfbd	0.9992636
82	0x3f7f75f2	0.99789345
83	0x3f7dde98	0.99167776
84	0x3f804be2	1.0023158
85	0x3f80a218	1.0049467
86	0x3f7f8c28	0.99823236
87	0x3f801025	1.0004927
88	0x3f81564d	1.0104462
89	0x3f80af0d	1.0053421
90	0x3f7de326	0.99174726
91	0x3f7ebd65	0.99507743
92	0x3f81e4d4	1.0147958
93	0x3f807f27	1.0038804
94	0x3f7e4dd0	0.9933748
95	0x3f80195b	1.0007738
96	0x3f810001	1.0078126
97	0x3f7dfbe1	0.9921246
98	0x3f7f6e46	0.9977764
99	0x3f7fded9	0.99949414
100	0x3f80c2b5	1.005942
101	0x3f811c8a	1.0086834
102	0x3f7f5331	0.99736315
103	0x3f7e5e04	0.99362206
104	0x3f80668a	1.0031292
105	0x3f80aa8a	1.0052044
106	0x3f7dca49	0.9913679
107	0x3f806c1c	1.0032992
108	0x3f80b95c	1.0056567
109	0x3f80ac6c	1.0052619
110	0x3f804348	1.0020533
111	0x3f80616f	1.0029734
112	0x3f7f1089	0.99634606
113	0x3f7f598b	0.99746007
114	0x3f813ef9	1.0097343
115	0x3f80c62d	1.0060478
116	0x3f80d3ba	1.0064614
117	0x3f8076ea	1.003629
118	0x3f7fa1d3	0.998563
119	0x3f7e1ce6	0.99262846
120	0x3f806e59	1.0033675
121	0x3f7e6038	0.9936557
122	0x3f7ea485	0.99469787
123	0x3f800176	1.0000446
124	0x3f8099ef	1.0046977
125	0x3f8046c3	1.0021595
126	0x3f80527b	1.0025171
127	0x3f7fcae0	0.9991894

norms.0.bias f4 [128]
0	0xbbc66f98	-0.0060557835
1	0xbb874ab1	-0.004128777
2	0x39948d54	0.00028334057
3	0x3ad18891	0.0015986135
4	0xba795f91	-0.00095128367
5	0xbba26038	-0.004955318
6	0xbb85c586	-0.0040823845
7	0xbba3b27f	-0.0049956436
8	0xbb146c85	-0.002264769
9	0xbaf2c3ba	-0.0018521466
10	0x3ba91cb3	0.005160892
11	0x3a63fc8a	0.0008696994
12	0xbc5e1381	-0.013554455
13	0x3bd5a05f	0.006519362
14	0x39835b9a	0.00025054516
15	0xbbbcc650	-0.0057609454
16	0x3aad4c26	0.0013221547
17	0x39545f4b	0.00020253395
18	0xba264eb0	-0.0006344123
19	0x3a3b8598	0.0007153391
20	0x3bfde7b0	0.0077485666
21	0x3bcec7f8	0.006310459
22	0x3b85aaf7	0.0040792185
23	0xbb2b606f	-0.0026150008
24	0x3c62f2fb	0.013851876
25	0x3c3af15b	0.011410083
26	0x3a629846	0.00086439063
27	0x3bbc43ec	0.0057454016
28	0xbb083534	-0.0020783665
29	0x3b84fafc	0.00405824
30	0x3bb11be4	0.005404936
31	0xbc3daff6	-0.011577597
32	0xbbd4fc0d	-0.0064997734
33	0xbc05ea8e	-0.008173598
34	0x3ac5be86	0.0015086688
35	0xbb65949e	-0.003503121
36	0xbaeb5840	-0.0017955378
37	0x3a60932d	0.0008566853
38	0xbaee5973	-0.0018184617
39	0x3a47cb43	0.0007621536
40	0x3b2c52ba	0.0026294426
41	0xbb40edbb	-0.0029438573
42	0xbbed16f0	-0.0072354004
43	0x3b285073	0.0025682717
44	0xbadc7933	-0.0016820788
45	0x3b1162a9	0.002218405
46	0xb8f0ee97	-0.000114885326
47	0xba09b88a	-0.0005253634
48	0x3ae7881c	0.0017664465
49	0x3b8668fb	0.00410187
50	0x3a9729f1	0.0011532885
51	0x3bcc8172	0.006241017
52	0x3b0dd538	0.002164198
53	0xbb71d042	-0.0036897813
54	0x3c58e41d	0.01323798
55	0x3a3e628a	0.0007262608
56	0xbc6f6bb7	-0.014613084
57	0x3b54e6b7	0.003248615
58	0x3a6e45f7	0.0009089405
59	0x3bba8da7	0.005693156
60	0xbae83549	-0.0017716076
61	0x3b4fdaf8	0.003171621
62	0xbac3fe39	-0.0014953084
63	0xbc2dab1c	-0.010599878
64	0x3bbb0685	0.0057075643
65	0x3b250214	0.002517824
66	0xbb1025af	-0.0021995117
67	0x3c614901	0.013750316
68	0x3c22088b	0.009889732
69	0x3c39776b	0.011319975
70	0xbbd8a834	-0.0066118483
71	0xb96020b0	-0.00021374482
72	0xbc2b154e	-0.010442091
73	0xba4017b4	-0.0007327751
74	0xbb19174f	-0.002335984
75	0xbb14166a	-0.0022596368
76	0xb9b80f3e	-0.0003510657
77	0x3b038166	0.002006614
78	0xbafab027	-0.0019125984
79	0x3c497db5	0.012298037
80	0xba98b389	-0.0011650185
81	0x36cecb1d	6.162924e-06
82	0xbbb722bd	-0.005588858
83	0xbbff9f67	-0.0078009847
84	0xbc068883	-0.008211258
85	0xbbc19c9d	-0.0059085623
86	0xbc40acdc	-0.011759963
87	0xbc544b14	-0.012957353
88	0x38da7ec1	0.0001041866
89	0x3aa364c7	0.0012465947
90	0x3ab97f2f	0.0014152284
91	0x3a93086c	0.001121772
92	0x3b23e026	0.002500543
93	0x38abb530	8.187664e-05
94	0xbba7034a	-0.0050968276
95	0x3a6af83c	0.00089633814
96	0x3c039438	0.008030944
97	0xbbdfba8e	-0.006827659
98	0xbb2e6602	-0.0026611094
99	0xbb99b935	-0.004691268
100	0x3c38b1e5	0.011272882
101	0x3c13a529	0.009011545
102	0xbab606c9	-0.001388752
103	0xb9f25ffd	-0.00046229354
104	0xb8284737	-4.0120645e-05
105	0x3b958064	0.0045624245
106	0xbbbb5fd3	-0.0057182102
107	0x3b0d18d3	0.002152969
108	0xba87263e	-0.001031108
109	0x3be80e88	0.0070818104
110	0x3c503589	0.012708076
111	0x3c3807f0	0.011232361
112	0xbae494d0	-0.0017439369
113	0xbbb3e1fd	-0.0054895864
114	0xbb88657c	-0.0041624885
115	0xbbb0b8ad	-0.005393109
116	0x3ba22cf7	0.004949208
117	0x3b7ca3f7	0.003854988
118	0xbbbabc08	-0.0056986846
119	0xbb914e0b	-0.0044343523
120	0x3bce3d78	0.0062939487
121	0x3ac9c826	0.0015394732
122	0xbbe97b04	-0.0071252603
123	0xbb2a0723	-0.0025944195
124	0x3af095b9	0.0018355168
125	0xbb3c89e0	-0.0028768703
126	0x3be546c6	0.0069969622
127	0x3acaf23e	0.0015483571
