production/TDC/sr-hse/checkpoint/state_dict.pt (torch, 203295 bytes, 57 tensors)

lin1.weight f4 [128, 27]
000000 75 3d f4 bd 28 33 96 3d 07 69 1a be 8b 71 83 3d
       -0.119257845 0.07333976 -0.15079127 0.06418141
000010 4a 3e 26 3e 5e 5f 5d 3c 62 31 b5 3d cd ed 28 3e
       0.16234699 0.013511507 0.0884731 0.16496964
000020 ff d4 8f 3d 49 bd 2d be fa e6 fe bc 80 4c 94 bd
       0.07023048 -0.16966738 -0.031115998 -0.07241154
000030 bc 07 3d 3e dd f3 99 3a 8c f1 9a 3c 54 13 cf 3d
       0.18459982 0.001174565 0.018914007 0.101111084
000040 4e d5 9d bc 0d 69 fa bd c8 9a ef bd ba 8a d2 3a
       -0.01926675 -0.12227068 -0.11699444 0.0016063072
000050 e9 00 e6 3d 20 5b cf 3a b3 52 c7 3d 5c d6 9a 3d
       0.11230642 0.0015820004 0.097325705 0.07560417
000060 0c 35 27 3e bd 61 a6 bd c7 6f ca 3d e8 7c 49 bd
       0.1632883 -0.08124111 0.09884601 -0.049191386
000070 a5 0b 32 be ef d1 3a 3e d0 a0 d8 3d 13 01 41 bd
       -0.17387255 0.18244146 0.105775476 -0.047120165
000080 28 09 0e be 17 60 14 be 62 76 c4 bd 0b 34 53 bd
       -0.1387068 -0.1448978 -0.09592892 -0.051563304
000090 66 80 e3 3d 12 97 ed 3b 45 65 8d 3c d2 91 b0 bd
       0.111084744 0.007250675 0.017260203 -0.08621563
0000a0 ed 7f ba bd 79 0e 36 3d 5b ab ec bd c6 f9 89 bd
       -0.09106431 0.044447396 -0.11556121 -0.067370936
0000b0 1a a9 45 be 18 d3 1d bd 74 93 f9 3d db e2 2f bc
       -0.19302788 -0.038531393 0.121863276 -0.010735239
0000c0 51 4e d5 bc 7d 7d 86 bd f5 35 27 3e 59 e2 c2 3c
       -0.02603832 -0.06566904 0.16329177 0.023789572
0000d0 d2 51 8c bd 7c 9f 1d 3c 5d c2 d1 3d 66 d7 bd bd
       -0.068515435 0.009620544 0.1024215 -0.092695996
0000e0 6c 7f 24 be c5 21 13 3e 61 89 d8 bb 40 18 dd 3d
       -0.16064233 0.14368351 -0.0066081737 0.10795641
0000f0 78 9f 6a bc 26 4b ba bd 36 77 71 3b b6 22 2a 3e
       -0.014320247 -0.09096365 0.0036844737 0.16614804
000100 9d 77 21 be db d3 d4 bc 6a 1b 2d 3e 4a c4 03 be
       -0.15768285 -0.025979927 0.16904989 -0.12867847
000110 dd 0c 2c 3e c5 c4 0a 3d fa 67 06 3e 25 b2 e8 3d
       0.16801782 0.03387906 0.13125601 0.113621034
000120 a7 b6 16 be 6e 31 83 bd ac 93 fb bc 3a 26 0e be
       -0.14718114 -0.06405912 -0.030710064 -0.1388177
000130 b4 64 3f 3e 76 fe 0b 3e f4 fb 57 bd 0b 7f 93 3c
       0.18690759 0.13671288 -0.052730516 0.018004915
000140 35 20 49 3d 6a 78 32 3e 87 24 96 3d 0a 9b 64 3d
       0.04910298 0.17428747 0.07331186 0.05581192
000150 37 d4 06 be 25 77 10 3e 79 8b b6 bd c5 7d c7 bd
       -0.13166891 0.1410795 -0.08913321 -0.097407855
000160 2c 5c 73 3d b1 de 61 3e 51 a2 00 be 6f ff 33 3c
       0.059414074 0.22057606 -0.12561919 0.010986193
000170 80 59 e3 3d 42 d8 21 be 19 d1 8c bd d7 de 16 3e
       0.11101055 -0.15805152 -0.0687582 0.14733444
000180 f1 89 0c bd 2f ff df 3d 30 64 68 3d 48 5c 2c be
       -0.03431124 0.10937344 0.05673617 -0.16832078
000190 cd 09 15 be 5c e3 21 bd 66 04 12 3e 23 c2 d3 bd
       -0.1455452 -0.039523467 0.1425949 -0.10339763
0001a0 02 45 ae 3d 57 0b ca bd 80 87 b5 bc 12 21 26 bd
       0.08509256 -0.09865444 -0.022159338 -0.040558882
0001b0 8a 9d 1f be e6 dc c4 3c 47 9d c5 3d 82 86 ed bc
       -0.1558744 0.024031114 0.09649139 -0.028994802
0001c0 a9 fb 2e be ce e0 19 3e 0f 18 9d 3d aa 82 05 3e
       -0.17088188 0.15027162 0.076706044 0.13038126
0001d0 eb ba 23 3d 43 fd 0c be 0a 62 b4 3d f4 22 3f be
       0.03997318 -0.13768487 0.08807762 -0.18665677
0001e0 2e 7a ed 3c b9 06 84 bd 8f a0 a1 3d 6d fc 04 3e
       0.028988924 -0.06446595 0.07891952 0.12986918
0001f0 a6 89 6e bd bc 61 13 3c 6d cc 2f 3e 8d bb ca 3d
       -0.05823674 0.00899547 0.17167826 0.09899054
000200 74 d2 d0 bd 9b 2a ca 3d 61 50 ab bd 75 ad a1 bc
       -0.10196391 0.098714076 -0.083649404 -0.019736031
000210 2f d6 e9 3c 86 5d b5 bd b5 84 9d 3d fa 57 f7 3c
       0.028544514 -0.08855729 0.076913275 0.030193318
000220 4c 6c 6d bd 61 f9 46 3d 92 45 4a be 5b 26 c8 bd
       -0.057964608 0.04857767 -0.19753101 -0.09772941
000230 db 1b f3 3d d1 ba 98 3c 18 36 d1 3d 24 bb 34 3d
       0.118705474 0.018643769 0.10215396 0.044123784
000240 60 d4 96 bd 17 97 48 3e 7b 6f 42 3d 93 2b 10 bd
       -0.07364726 0.19588886 0.047469597 -0.035197806
000250 cf 5e 13 3e 87 86 6b 3c 6d 4b 9b bd ab 0e 0a be
       0.14391635 0.014375336 -0.07582746 -0.13482158
000260 6d cf d6 bd 27 70 47 bd fd b1 80 3d 86 1f 67 bd
       -0.10488782 -0.04869094 0.062839486 -0.056426547
000270 e9 52 91 b9 68 54 30 be 86 e6 e7 3d e6 fb 3e 3e
       -0.00027718328 -0.17219698 0.11323266 0.18650779
000280 a8 a3 96 bd dc 71 23 be f6 55 41 3e aa fc 44 3e
       -0.07355434 -0.15961403 0.18880448 0.19237009
000290 57 85 e0 3c 8d d6 12 be 3b f9 5b be df 1c 9d 3d
       0.027407331 -0.14339657 -0.21481793 0.07671522
0002a0 a1 4f a4 bc 6d cb 38 be ee 5b 75 bc e1 5a 1d be
       -0.020057501 -0.18046351 -0.014975531 -0.15366699
0002b0 d8 86 f9 bc 9f 51 1d be 12 47 c6 bd 94 db 3e 3e
       -0.030459806 -0.15363167 -0.09681524 0.1863845
0002c0 ee 24 72 3d 3f 50 0e 3d c0 15 4b bc fb 88 db 3d
       0.05911725 0.034744497 -0.012395322 0.10719486
0002d0 98 bb 01 bc c0 13 33 3d e0 79 06 3e dd c6 01 be
       -0.007918261 0.043720007 0.13132429 -0.12673517
0002e0 53 6f 01 3e 5d f6 80 3d 1c 59 d3 3d 35 36 34 be
       0.12640123 0.0629699 0.10319731 -0.17598803
0002f0 64 bb d9 bd a3 65 da 3b 6b 55 1a 3e 26 ef 98 3d
       -0.10631445 0.006664948 0.15071647 0.07467489
000300 96 a9 d0 bd 45 35 91 3d de 2b 20 be ad 91 23 be
       -0.10188596 0.070902385 -0.15641734 -0.1597354
000310 31 93 51 3e e3 c0 b5 3d d0 5e e0 3c ba e3 3e be
       0.20466305 0.08874681 0.02738896 -0.18641558
000320 79 9b 47 bd 9b ba 9e bc 73 36 68 3e 1c 23 ab bd
       -0.048732255 -0.01937609 0.2267702 -0.08356306
000330 64 3f fe bb 21 d3 ed bd d7 42 b3 3d b3 3a 9b bd
       -0.0077590216 -0.11612535 0.08752983 -0.07579555
000340 0c d8 0d 3c 7d 64 63 bd ac 40 b4 bc 89 18 a4 bd
       0.008657467 -0.055515755 -0.022003494 -0.08012492
000350 df d5 58 bd 7a 1c e2 bd b2 7e 91 3d 97 b2 91 bd
       -0.05293834 -0.11040588 0.07104243 -0.071141414
000360 8d 4d ae bd d8 09 4d be 12 01 10 bd e7 b9 7c bd
       -0.085108854 -0.20023286 -0.03515727 -0.061700728
000370 7a 0a c5 3c 71 10 78 bd 61 03 21 bd 3a 42 94 bc
       0.024052847 -0.060562555 -0.039309863 -0.018097986
000380 f1 2f d9 3c 0b 38 ff 3d 68 42 89 3d a7 e8 de 3d
       0.026512118 0.12461861 0.06702119 0.10884219
000390 24 ed 56 3d f8 16 34 3e 1e 05 90 3b 76 31 33 be
       0.05247225 0.17586887 0.0043951413 -0.17499337
0003a0 be 28 2d bd 71 73 51 3e 05 94 43 3e e5 06 14 3e
       -0.042275183 0.20454194 0.19099434 0.14455755
0003b0 60 f2 16 bd 94 4a 36 3e dd 83 14 bd a6 93 26 3e
       -0.03685224 0.17801887 -0.036258567 0.16267261
0003c0 fc 32 ce bd 5a 56 de bd 99 de 0e 3e 0a cb 3d 3e
       -0.10068318 -0.10856314 0.13952102 0.18534485
0003d0 7b 33 1a be 82 1a f6 bd af 78 23 be b7 ee 11 3d
       -0.150587 -0.12016775 -0.15964006 0.035628047
0003e0 fd 3d da 3d bf 5c b0 bd 6d fd 29 be 69 0e 0e bd
       0.106563546 -0.0861144 -0.1660058 -0.03468171
0003f0 32 af 27 3d 0d 7f 98 3d 27 ac 5b 3d 23 ae 35 be
       0.040938564 0.07446108 0.053630974 -0.17742209

lin1.bias f4 [128]
000000 1f de 0e 3e 9d 4a 3c 3c a9 c6 08 be e3 c4 b0 3d
       0.1395192 0.011492399 -0.13357033 0.08631303
000010 5b a8 fd bd cd 40 66 3d e1 7a 84 bd 6a 18 1d 3e
       -0.12385627 0.056214143 -0.0646875 0.15341344
000020 c1 d1 97 bd 7d ec 5f bd d4 6c 09 be 8d a4 d7 3d
       -0.07413054 -0.054668892 -0.13420421 0.105294324
000030 ff 19 52 bd ee 11 32 3d 69 0b 56 bb 36 6d e1 3d
       -0.051294323 0.04347413 -0.003266061 0.110071585
000040 4f 74 2c 3e b9 aa 2d 3e 9b 68 01 3e f2 f1 ce bc
       0.16841243 0.16959657 0.1263756 -0.025261853
000050 16 90 1a bd e5 19 71 3c 6d 4d 2d 3e b0 50 76 bd
       -0.037735067 0.014715646 0.16924067 -0.060135543
000060 4b b9 4b 3e 49 74 92 bd 0a 72 31 be f6 18 d7 3d
       0.19894902 -0.07151086 -0.17328659 0.10502808
000070 22 a6 c9 bd 27 c6 2b be 29 e7 ec bd 05 09 02 bd
       -0.098461404 -0.16774808 -0.11567528 -0.031746883
000080 a1 37 a0 3d ec ff e1 bc bf d3 ed 3d d5 a1 e4 3d
       0.0782311 -0.027587853 0.11612653 0.111636795
000090 2f 1c 34 be 8a 49 45 be 27 ba 42 3e 66 81 2c be
       -0.17588876 -0.19266334 0.19016324 -0.16846237
0000a0 c2 c2 a1 3d 46 8e cc 3d 10 05 10 3d 12 58 3c 3e
       0.07898475 0.09988074 0.035161078 0.18392971
0000b0 4e 9c 3e 3e 44 d0 2b bd e5 46 2c be 2f f2 8b 3d
       0.18614313 -0.041946664 -0.16823919 0.06833302
0000c0 ed cf 9a 3b 09 40 29 3e 7a 5b 8e bd 2e 68 21 be
       0.0047244937 0.16528334 -0.069510415 -0.15762398
0000d0 fc 27 a5 bd 2d ca 12 3d 06 3f e8 3b 40 5e 2f be
       -0.08064267 0.03583734 0.007087591 -0.17125797
0000e0 8b cb d2 3d 18 c1 8f 3d 77 87 1f 3e c0 07 81 bb
       0.10292729 0.070192516 0.1557902 -0.0039376915
0000f0 af 0e 2a 3e 12 9c c2 3c 05 6b 61 3d 7e c8 06 be
       0.16607164 0.02375606 0.055033702 -0.13162419
000100 1a a0 dc bd 77 f6 f2 bd 45 0c 8b bc fc 62 4c bd
       -0.107727244 -0.11863416 -0.016973624 -0.049899086
000110 38 b0 ea 3d 77 bf 3e be 37 7f 84 3b b3 66 39 3e
       0.11459392 -0.18627726 0.0040434855 0.18105583
000120 08 87 e0 bd 8c 30 52 bc 1e 09 bb 3d cd 32 44 3e
       -0.10963255 -0.012828957 0.09132598 0.19160004
000130 b8 08 0b 3e 08 18 fc bb e2 87 17 3c 6f d5 3e be
       0.13577545 -0.0076932944 0.009248706 -0.18636106
000140 30 f1 37 3d 0e fb 5b 3d 12 fa 2c 3c 96 04 f6 bc
       0.04490775 0.05370622 0.010557668 -0.030031484
000150 fc a0 31 be 84 4e de 3d 4b 73 9f 3b 93 e2 fa 3d
       -0.17346567 0.108548194 0.004866039 0.12250247
000160 1d 71 07 be d9 7a 75 3d cb 91 84 3d bd 2f 1a be
       -0.13226743 0.05993161 0.0647312 -0.15057273
000170 c9 ac 41 be a0 79 01 be de 63 fc 3d ac f7 8d bd
       -0.18913569 -0.12644053 0.12323736 -0.06932005
000180 a0 9b 39 be c7 0c 2e bd 88 67 4d bd 66 03 0a be
       -0.18125772 -0.042492654 -0.050147563 -0.13477859
000190 18 83 22 be 22 4c 62 3d 4a db 93 3d dc 91 47 3d
       -0.15870321 0.055248387 0.072195604 0.048723087
0001a0 01 f4 91 bd 5e b6 12 3e fa 4f 20 3e 60 1c 0b be
       -0.07126618 0.1432738 0.15655509 -0.13585043
0001b0 31 c7 f2 bd 5b 74 c0 3d 6f 72 8f 3d 30 27 1d 3e
       -0.11854399 0.09397193 0.07004248 0.1534698
0001c0 b2 65 05 3d 78 ed 7c 3d d5 40 a9 3b cd d1 42 be
       0.032567687 0.061749905 0.0051651993 -0.19025345
0001d0 0c 25 1a 3e 6b f7 3b bd e6 52 40 3e e6 3d 82 3d
       0.15053195 -0.045890253 0.18781623 0.063594624
0001e0 b4 67 2f 3e 7b a4 e0 bc 36 a8 16 bb 6a 9d a9 bd
       0.17129403 -0.02742218 -0.0022988445 -0.082819775
0001f0 96 e3 cc bd b0 64 13 be 96 f5 3c be a1 ff 19 3e
       -0.10004346 -0.14393878 -0.18453059 0.15038921

norm1.weight f4 [128]
000000 05 92 7a 3f 8e fc 7f 3f be 13 80 3f 3e 0b 83 3f
       0.9787906 0.9999474 1.0006025 1.0237806
000010 a6 c7 81 3f 7a bb 75 3f 00 6f 7d 3f 8e 48 7a 3f
       1.0139053 0.9598919 0.989975 0.9776696
000020 5d c7 7f 3f 15 f2 82 3f 04 fd 78 3f ba c1 7c 3f
       0.9991358 1.0230128 0.9726107 0.98733103
000030 f3 38 7e 3f 58 d4 7f 3f df 6c 7b 3f c2 34 79 3f
       0.9930565 0.99933386 0.98213 0.9734613
000040 d5 db 7d 3f 2d 3c 7c 3f 4f 72 7c 3f 39 eb 7f 3f
       0.9916356 0.9852932 0.9861192 0.99968296
000050 19 1c 76 3f 81 a7 7e 3f 58 33 83 3f 54 1c 74 3f
       0.96136624 0.9947434 1.0250044 0.95355725
000060 24 ca 7b 3f ef f9 7d 3f 91 02 85 3f 3d 01 77 3f
       0.9835532 0.99209493 1.0391408 0.96486264
000070 52 28 76 3f 38 6f 79 3f 73 8b 7b 3f c2 4e 82 3f
       0.96155274 0.9743533 0.9825966 1.0180285
000080 25 7c 82 3f 49 ad 78 3f f6 56 80 3f cf 0a 7c 3f
       1.0194136 0.9713941 1.0026538 0.9845399
000090 42 5c 81 3f 46 63 7a 3f 72 80 83 3f 36 91 78 3f
       1.010628 0.9780773 1.0273573 0.97096574
0000a0 9f 6e 7c 3f 90 7b 78 3f 07 d2 74 3f f0 01 7c 3f
       0.98606294 0.9706354 0.95632976 0.98440456
0000b0 7b e0 79 3f f3 f4 84 3f 13 47 83 3f a6 d5 7f 3f
       0.97608155 1.0387253 1.0256065 0.99935377
0000c0 97 89 79 3f e5 72 7f 3f 77 e4 7a 3f a7 1f 80 3f
       0.9747557 0.9978469 0.9800486 1.000966
0000d0 a8 5b 80 3f ae cb 77 3f eb ff 82 3f 72 df 82 3f
       1.0027971 0.96795166 1.023435 1.022444
0000e0 40 d6 86 3f 8a af 81 3f 59 04 81 3f 68 a3 80 3f
       1.0534134 1.0131695 1.0079452 1.0049868
0000f0 01 5d 7d 3f 11 2c 77 3f 05 24 77 3f c3 9e 84 3f
       0.9897004 0.96551615 0.96539336 1.036095
000100 86 74 7a 3f 95 98 80 3f 2c 2d 75 3f 63 3e 83 3f
       0.9783405 1.0046564 0.9577205 1.0253414
000110 7f d6 87 3f 71 b9 80 3f ef 45 82 3f 1e ff 7e 3f
       1.0612334 1.0056592 1.0177592 0.9960803
000120 10 46 7d 3f 9e c5 78 3f fd 1b 81 3f ae 8a 83 3f
       0.9893503 0.9717654 1.0086666 1.0276697
000130 46 ec 82 3f 50 75 7f 3f ac a9 84 3f b5 fb 7c 3f
       1.0228355 0.9978838 1.036428 0.98821574
000140 36 ec 85 3f 6b 03 81 3f db b1 75 3f 82 b6 82 3f
       1.0462711 1.0079168 0.9597451 1.0211947
000150 6f dd 7a 3f 63 20 75 3f a3 39 81 3f 3e 7e 7c 3f
       0.9799413 0.95752543 1.0095714 0.9863013
000160 7b df 80 3f 3b ce 80 3f eb 83 7c 3f 28 1c 70 3f
       1.0068201 1.0062937 0.9863879 0.93792963
000170 f3 f6 81 3f 98 3c 81 3f 36 9f 7f 3f 75 ac 79 3f
       1.0153488 1.0096617 0.9985231 0.97528774
000180 2a c5 78 3f 6a d1 84 3f e6 74 7a 3f 04 cc 85 3f
       0.9717585 1.0376408 0.9783462 1.0452886
000190 46 32 7e 3f da 59 7b 3f 83 9a 78 3f 87 8d 84 3f
       0.9929546 0.9818398 0.97110766 1.0355691
0001a0 98 aa 78 3f 02 a4 84 3f f8 06 74 3f e5 db 7c 3f
       0.97135305 1.0362551 0.95323133 0.9877303
0001b0 aa bd 7f 3f f0 0f 7d 3f c8 3c 70 3f 40 f2 81 3f
       0.9989878 0.98852444 0.93842745 1.0152054
0001c0 1b ab 7a 3f fe fa 83 3f 64 df 79 3f 20 28 81 3f
       0.97917336 1.0310972 0.9760649 1.009037
0001d0 d0 b1 80 3f 55 a7 7e 3f 1a 91 7f 3f 29 d2 7d 3f
       1.0054264 0.9947408 0.9983078 0.99148804
0001e0 57 01 7b 3f 35 5a 83 3f 65 4a 7e 3f b1 89 80 3f
       0.9804892 1.0261904 0.9933227 1.004202
0001f0 0b ff 7f 3f 2b 0c 82 3f 47 d3 7b 3f 63 e0 7f 3f
       0.9999854 1.0159963 0.9836926 0.9995176

norm1.bias f4 [128]
000000 f3 a2 3e bd 94 64 64 3c 2c a5 14 3c fd 5c 9d 3c
       -0.04654212 0.013939995 0.009072583 0.01920938
000010 d9 c6 b9 3b d0 3e 64 bb 46 22 fd 3b 78 b8 e4 bc
       0.0056694564 -0.0034827478 0.007725033 -0.027919993
000020 d7 1c 8a 3b 50 fc 02 3d 85 9c d8 bc 1b 36 a6 bd
       0.0042148638 0.031978905 -0.026441822 -0.081157885
000030 c9 16 3b 3c 50 85 ad b9 98 36 33 bc df 5f 84 3c
       0.011419007 -0.00033096457 -0.010938309 0.016158996
000040 37 43 1d 3d 7c 18 a6 3b 98 f2 8c bc 12 06 97 3b
       0.03839418 0.0050688367 -0.017205521 0.004608878
000050 c4 4c 7f bd 7f 45 f6 ba c6 c2 3b 3c dd 76 ca bc
       -0.06232907 -0.0018789022 0.011460012 -0.024714882
000060 db 85 9d bd 74 2f a1 3c d0 09 02 3d 98 54 31 bd
       -0.076915465 0.019675948 0.03174764 -0.043293566
000070 88 3e 70 bc f4 cf d0 bc 33 38 a7 3b 83 87 a5 3b
       -0.014663346 -0.025489785 0.005103135 0.0050515546
000080 72 e1 04 3d 13 96 dc bc 9d 83 2d bd 9d 24 6a bc
       0.032441564 -0.02692703 -0.042361844 -0.014290956
000090 02 81 65 3c 55 cb ea bc 55 af d1 3c 17 f0 b2 bc
       0.014007809 -0.02866141 0.0255963 -0.021843
0000a0 c5 f1 77 bc 92 71 07 bd d4 4d 97 bc 18 6d 6d bb
       -0.015133326 -0.033067293 -0.018469729 -0.0036228355
0000b0 c1 42 24 3c 58 e7 9d 3c 53 fb 9f 3c e8 ef 6b 3c
       0.010025681 0.019275352 0.01952902 0.01440046
0000c0 c3 14 17 3c b6 bb 5e 3b ad 83 93 bb 44 a6 0a 3c
       0.009221259 0.0033986396 -0.004501781 0.008462492
0000d0 88 f4 35 3c 7f a3 66 bc 1e 70 4f 3d 11 99 9f ba
       0.011105664 -0.014077066 0.050644033 -0.0012176355
0000e0 56 2e 2d 3d ab 04 93 3c 30 96 1a 3b 30 3e 54 3b
       0.042280518 0.017946562 0.0023588054 0.00323857
0000f0 ac f7 14 bb 42 6b d0 bc 46 89 d1 bc 42 18 2c 3d
       -0.0022730632 -0.02544177 -0.025578152 0.04201532
000100 3e 2f ad bc 92 80 5a 3c f1 ce 23 bd af e8 65 bb
       -0.02114069 0.013336318 -0.039992277 -0.0035081317
000110 9a a4 4c 3d f9 a3 5b 3c c6 1b 1d 3d 6f 1b 1f bd
       0.049961664 0.013405793 0.038356565 -0.038844522
000120 11 c4 3d bc 6a eb b2 39 3d 8a d8 3b 52 44 2a 3d
       -0.01158239 0.00034126203 0.006608276 0.04156906
000130 ad e1 15 3c 56 da 64 3b fe cb 4e 3d 07 e9 b2 3b
       0.009148044 0.0034920177 0.05048751 0.005459908
000140 9b e1 04 3d b2 18 97 3b e4 17 88 bb 0a 6a 98 3c
       0.032441717 0.004611098 -0.0041532386 0.01860525
000150 fa 1a 26 39 22 e6 8f bc 5e 9e 85 bb 86 83 a6 bc
       0.00015841043 -0.01756579 -0.0040777167 -0.020326387
000160 cf b9 83 bc af fe 5b bc e1 37 90 3c ee 5d 6d bd
       -0.016079811 -0.0134274205 0.01760477 -0.057950906
000170 2d 90 56 bd 10 1d 51 bc e2 32 62 bc 25 f8 0f bd
       -0.05238359 -0.012763277 -0.013806077 -0.03514876
000180 a6 7c 9c bc 97 92 10 ba 8d a6 36 3b cc 7f 96 3c
       -0.019102406 -0.00055150077 0.0027870268 0.018371485
000190 3a 39 71 3c cd 19 28 bd 7b ca de 3b dd 8c 84 3d
       0.0147231165 -0.04104023 0.00679904 0.0647218
0001a0 c5 70 13 bd 8b 25 4f 3c 11 02 86 bc 11 f3 49 3b
       -0.035996217 0.012643228 -0.016358407 0.0030815045
0001b0 22 46 ad 3a b7 58 cb bc cc 42 ae bc 69 85 c9 3a
       0.0013219754 -0.024822576 -0.021272086 0.0015374842
0001c0 bb 13 16 bd eb 8c 15 bc ec d1 ac 3c 24 46 41 3c
       -0.03663991 -0.009127836 0.021096192 0.011796508
0001d0 c4 fa ef 3c 3a e4 04 3c d8 99 5c 3c 29 04 ec bb
       0.029294379 0.008111054 0.013464414 -0.0072026444
0001e0 b0 8b 5a bc b9 ab aa b9 22 66 c1 bc f0 bc 38 bc
       -0.013338968 -0.0003255287 -0.023608271 -0.011275515
0001f0 3c de a3 3b cf 88 97 3c 62 a1 11 3c 73 d6 11 bd
       0.0050008576 0.018497853 0.008888574 -0.035604905

norm1.running_mean f4 [128]
000000 24 55 8c 3e a2 94 49 bc ae 50 60 be 7a bd f1 bc
       0.27408707 -0.012303503 -0.21905777 -0.029509295
000010 af bf a4 bc bc 14 06 3e 4e 01 90 3d 73 f7 17 3e
       -0.020110933 0.13093847 0.07031499 0.14840488
000020 2d 5a c4 3d ab 51 32 be 6d 7c 87 3b f6 7b 94 bd
       0.09587512 -0.17413966 0.0041347058 -0.07250206
000030 fa a5 82 3c f3 2a 2f 3e 60 be 25 3d 86 72 11 3d
       0.015948284 0.17106228 0.04046476 0.03550961
000040 18 5e b3 3d c1 04 c6 bd 37 24 95 3d 57 ab 01 bd
       0.08758181 -0.096688755 0.07282298 -0.031657543
000050 e0 13 f3 3b bf f0 9e 3d 51 91 14 3e 3e 64 04 bf
       0.007418141 0.077607624 0.14508559 -0.5171546
000060 4a f6 d3 3d 16 8d 95 be a6 9b ee be c1 fd 6d 3d
       0.1034971 -0.29209203 -0.46603125 0.058103327
000070 93 97 a4 be df 7b 93 3d 2e 27 93 bd 2b c0 2f be
       -0.32146892 0.07201361 -0.07185207 -0.1716315
000080 78 f4 68 bd 2f c1 8f be 08 0e b2 3c 8a 69 bd bd
       -0.05687377 -0.28077075 0.021735206 -0.092486456
000090 d9 6a bc be dc 4e f7 be 3e 58 02 3e 36 b6 f0 3d
       -0.36800268 -0.48302352 0.12728974 0.11753504
0000a0 ce 88 a2 3d 3b 54 19 3e d7 ce 06 3e be 94 ad 3e
       0.0793625 0.14973538 0.1316484 0.33902544
0000b0 ae 74 10 3e 64 81 94 3d e8 14 b2 be 48 c2 03 3c
       0.1410701 0.07251242 -0.34781575 0.008041926
0000c0 3f 9e 60 3e c0 b7 bc 3e f5 af 23 3d ca b4 af be
       0.21935366 0.3685894 0.039962728 -0.3431762
0000d0 a8 59 a0 be 39 5a c7 3d 99 3a 33 3e e3 66 5d be
       -0.31318402 0.097340055 0.17502822 -0.2162128
0000e0 09 5d 96 be a7 c6 22 3e 08 26 09 bc 30 49 a4 bd
       -0.29367855 0.15896092 -0.008370884 -0.08021772
0000f0 ce 6d db 3c 38 2e 4c 3c 6d 46 1b 3d d7 eb 85 3c
       0.026785757 0.012462191 0.03790896 0.016347809
000100 b3 42 49 3d 7c 91 05 bd 44 59 ac bd 52 3e 1a be
       0.049135875 -0.032609448 -0.084154636 -0.15062836
000110 8f cd a2 3e 8a 47 15 3d 5d 65 0a 3e 2c 2b 19 3e
       0.31797454 0.036445178 0.1351523 0.14957875
000120 34 bd ef bc 8d f5 3b 3e 0b 2a 40 3e f5 4b 55 3e
       -0.029265024 0.18355389 0.18766038 0.20829757
000130 9f 10 14 3e 59 84 97 be ff 2c c0 3e 0d 79 cd bb
       0.14459465 -0.2959316 0.3753433 -0.006270534
000140 fc 43 05 3c 01 4a 4c 3d 46 bf 8a 3d 0a ae b0 bd
       0.0081338845 0.049875263 0.06774764 -0.08626945
000150 3b a7 84 be 45 d4 ce bd 4c 30 9d 3d 91 66 96 3e
       -0.25908837 -0.10099081 0.076752275 0.29375127
000160 c9 4e 8a be c0 e6 7e 3e ac 3d 9b 3e 39 1c 5a bd
       -0.27013233 0.24892712 0.3032049 -0.05324957
000170 06 ed 83 bd f0 9d 60 3d 49 71 74 be ab f2 a9 3d
       -0.06441693 0.05483812 -0.2387134 0.08298238
000180 fe 92 aa be 76 eb 83 be 36 ba 11 bd bc 44 cb bc
       -0.3331527 -0.2576558 -0.035577975 -0.024813049
000190 4f 96 35 be 71 56 bc 3d 22 88 85 3d f3 a9 e5 3e
       -0.1773312 0.09196175 0.06520106 0.44856223
0001a0 02 70 d8 bd b5 f8 f5 3d 0f db 63 3e 38 3a 83 be
       -0.10568239 0.12010328 0.22251533 -0.25630355
0001b0 30 58 60 bd 89 43 58 be 93 0d 7d be 01 09 3e be
       -0.054771602 -0.21119513 -0.2471221 -0.18558122
0001c0 5b 91 67 be c8 91 9b bd df 0f 29 be ba 35 95 be
       -0.22614042 -0.07596165 -0.1650996 -0.29142553
0001d0 dc 6a ed 3e a0 29 94 bd d6 55 39 3d 25 1d f0 3d
       0.4637059 -0.07234502 0.045247875 0.11724309
0001e0 30 b9 02 3f 1b 4b 8c be 25 50 06 3e a6 ad 91 be
       0.51063824 -0.2740105 0.1311651 -0.28452796
0001f0 3f d5 92 bc 76 b8 dd bb 16 d0 ca 3b f1 60 89 3e
       -0.01792395 -0.006766374 0.0061893566 0.26831773

norm1.running_var f4 [128]
000000 68 d7 e2 3c 86 30 87 3c 08 a0 a2 3c f6 21 af 3c
       0.027690604 0.01650263 0.0198517 0.021378499
000010 9a ff 37 3c 3d b6 0c 3d 5f 96 86 3d 55 67 30 3d
       0.011230374 0.034353483 0.0657165 0.043067295
000020 58 19 73 3c 49 03 be 3c 82 82 bf 3c 06 ed a5 3c
       0.014837585 0.023194926 0.02337766 0.020254623
000030 14 cc 1b 3d a6 03 c7 3c 7c b3 c3 3c 51 1c 93 3c
       0.03803642 0.024293732 0.023889296 0.017957838
000040 79 0d d3 3c cc 63 64 3d 5b 41 20 3d f3 50 d9 3c
       0.02576326 0.055759236 0.039124828 0.026527857
000050 2c 0d 64 3c 8f cc ad 3c 2c 8c 65 3c 85 57 32 3d
       0.013919156 0.021215705 0.01401047 0.043540496
000060 fb f9 35 3d 7d a6 99 3c 26 9b 92 3c ad 33 c1 3c
       0.044427853 0.018756146 0.017896246 0.023584211
000070 b1 95 2a 3d 00 be c1 3c b4 6a 67 3d 3d 4f 0e 3d
       0.041646663 0.02365017 0.056498244 0.034743536
000080 c9 9d e6 3c 87 f3 0f 3c 7f 63 48 3c d5 f0 2f 3d
       0.02815141 0.008786089 0.012230753 0.042954285
000090 63 b2 5f 3d 29 a4 c7 3c c9 4f 39 3d 1a ef 9a 3c
       0.054613482 0.02437027 0.045242105 0.01891284
0000a0 4a 3a 94 3c da 84 1c 3d ec 3f 9f 3c 80 60 ca 3b
       0.0180942 0.038212635 0.01943966 0.0061760545
0000b0 fe f2 d9 3c 4f d2 c0 3c ac ac 84 3c 04 75 c9 3c
       0.026605126 0.023537783 0.016195618 0.02459193
0000c0 d3 7d a2 3d 2b 0b 9c 3c 70 31 8b 3c ae 1e 96 3c
       0.07934155 0.019048294 0.016991347 0.018325176
0000d0 6f f8 ae 3c eb 52 92 3c 17 24 33 3d 16 ce 53 3d
       0.021358697 0.017861804 0.04373559 0.05171021
0000e0 c2 93 9f 3c 05 cb a8 3c e1 fd 4e 3c 64 17 f8 3c
       0.019479636 0.02060462 0.012633772 0.030284591
0000f0 2e b3 cc 3c fb 17 71 3c 8f 88 1c 3d 57 78 c7 3c
       0.024987783 0.01471519 0.03821617 0.024349375
000100 28 7e 3f 3d 8e 7d e0 3c ac c4 48 3d 42 b0 cf 3c
       0.04675117 0.02740362 0.049015686 0.025352601
000110 2c bd 96 3c d8 9b 3e 3d d2 3d 84 3c 8a 0a a9 3c
       0.018400751 0.046535343 0.01614276 0.020634908
000120 35 fa 45 3c 72 04 83 3c 98 31 02 3d 41 ce 4a 3c
       0.01208358 0.01599333 0.031785578 0.012378276
000130 20 b2 f5 3b e9 47 73 3d fa 23 29 3c 03 47 a0 3c
       0.007498041 0.05939475 0.010323519 0.019565111
000140 e0 cc 62 3c 76 cf 64 3c 14 6f 62 3d d6 c1 95 3c
       0.013842791 0.013965478 0.055281714 0.018280905
000150 3e c3 fb 3c ff 91 cf 3d ac 67 26 3c 61 1b 05 3d
       0.030732747 0.101352684 0.010156553 0.032496814
000160 0d ce 76 3c 3f 10 a2 3c f0 c7 1e 3d 39 74 a3 3c
       0.015063775 0.019783137 0.038764894 0.01995288
000170 3b 49 8f 3c 67 7b d6 3c 63 9a 07 3d e2 18 3c 3d
       0.017490974 0.02618189 0.03310622 0.045922168
000180 ba 6d 4a 3d bb 1a 44 3c 5b dc 0f 3d 16 1f ac 3c
       0.04942105 0.011969264 0.035122257 0.021010917
000190 54 eb ea 3c 0e e2 a7 3c 05 a7 de 3c e2 9d 91 3c
       0.028676666 0.020493533 0.02717925 0.01777548
0001a0 3b d8 20 3d d1 d7 2d 3c b0 c9 77 3d c8 ee 1b 3c
       0.039268713 0.010610537 0.06049508 0.009517379
0001b0 88 bf b4 3c 60 3a 91 3c 6d bb e1 3c 71 c1 0e 3d
       0.022063985 0.01772803 0.027555192 0.03485245
0001c0 96 50 c6 3b ba eb da 3b 76 5b b7 3c fb 0b 42 3d
       0.006052087 0.006680933 0.02238248 0.047374707
0001d0 c4 35 a3 3c 5e d3 af 3d c5 bd 1e 3c 88 7d ae 3c
       0.019923098 0.08585237 0.009688799 0.021300092
0001e0 d0 7c ec 3c 61 0e 71 3d f7 38 21 3d 87 33 96 3d
       0.028868109 0.058851603 0.039360967 0.07334047
0001f0 f3 c1 e5 3c 98 4f ac 3c ef a3 26 3c be dc a0 3c
       0.028046584 0.021034047 0.010170921 0.019636508

convs.0.bases_weight f4 [128, 32]
000000 db 7b a1 bd 6f f2 9f bd 0a 6e 5a bd 4c ef 10 3e
       -0.07884952 -0.078099124 -0.053327598 0.14153785
000010 e0 9f 00 be dd ba dd 3d e5 b1 81 3d 2c 84 f8 bd
       -0.12560987 0.10826657 0.06332759 -0.12134585
000020 18 4d 81 3d c6 a7 5e bd 4d 01 07 be a0 38 54 3c
       0.063135326 -0.05435922 -0.1318409 0.012952954
000030 dc 54 a5 bd 9b 0e a7 3d ff c3 e0 3d e0 86 81 bd
       -0.08072826 0.08157083 0.10974883 -0.063245535
000040 78 28 76 3c f8 4c 0d be b4 ac a0 3d f7 2d 49 be
       0.015024297 -0.13798892 0.078454405 -0.1964644
000050 e0 3e 24 3e b0 a4 cf 3d 87 00 42 3d 2e fa a0 bd
       0.1603961 0.101388335 0.047363784 -0.07860218
000060 47 06 f6 bc c9 37 fa bc 4b 11 4a 3e 09 d8 06 3e
       -0.03003229 -0.030544179 0.19733159 0.13168348
000070 bd ee f0 bb 3f 71 00 3e 96 36 9f 3c ce 20 89 3d
       -0.0073526786 0.125432 0.019435208 0.0669571
000080 bb 17 39 3e 28 7d f6 bd 61 f8 a6 bd 79 97 b8 bd
       0.18075459 -0.120355904 -0.08152843 -0.09013266
000090 5d 10 2a be 7b bb 24 3c 4c 6a f3 bc 1a ac 38 be
       -0.16607805 0.010054464 -0.029713772 -0.18034402
0000a0 0c d9 83 bc b1 40 17 be 16 53 3b bd 19 e2 8b 3d
       -0.016094707 -0.14770772 -0.045733534 0.06830234
0000b0 c2 3a b5 bd 39 83 fe bc d4 69 cb bd e8 6c ff 3d
       -0.08849098 -0.031068431 -0.099322945 0.12471944
0000c0 fb a9 aa 3d c3 04 3d be 22 ba 4d 3e b5 98 3c be
       0.083332025 -0.18458848 0.20090535 -0.18417628
0000d0 ff ea 8f 3d 56 29 07 bd 47 1b 1b be 98 d7 4a be
       0.07027244 -0.032998405 -0.15147124 -0.19808805
0000e0 f3 0b 37 be 85 c0 07 be 35 6f 1e 3e 82 08 2a be
       -0.17875652 -0.13257034 0.1547211 -0.16604808
0000f0 92 4e 1f 3e 90 c7 11 be 34 1c cb bd 51 a1 11 bb
       0.15557316 -0.14236283 -0.09917489 -0.0022221396
000100 4a 54 3c 3c 17 06 36 be b6 e3 c6 bd 9a f2 8a bd
       0.011494705 -0.1777576 -0.09711401 -0.06784554
000110 9d 80 73 3d e9 76 83 3d 8b 90 f3 3d 4c a0 bb 3d
       0.059448827 0.06419165 0.11892804 0.091614336
000120 a5 22 09 3c 2f f9 23 3e a6 65 5a 3e 3b 9b b9 3d
       0.008370076 0.16013025 0.21327838 0.09062811
000130 e9 8e b7 3d ea 50 9b 3c 11 f6 1b 3d c6 1d d5 3d
       0.08962805 0.018959481 0.038076464 0.104060695
000140 cd 58 25 3e dc 87 f2 bd 67 d1 7f bc 4c 39 2b be
       0.16147156 -0.11842319 -0.01561389 -0.16721076
000150 89 25 7b 3d a8 fd 29 3e 78 4e 0f 3e f0 ee c3 bd
       0.061315093 0.16600668 0.13994777 -0.09567058
000160 22 f1 c3 3d cc cd 7d 3c 88 bc d3 3d 13 63 0d 3e
       0.09567477 0.01549096 0.10338694 0.13807325
000170 bf 1c 8a 3d 97 af be bc 74 47 ad 3d 89 aa 2f 3d
       0.06743764 -0.023277087 0.08460894 0.042887244
000180 c7 74 c0 bd dd 45 02 be 39 12 2c ba 04 23 23 be
       -0.093972735 -0.12721963 -0.00065639947 -0.15931326
000190 35 64 ea 3d f5 23 0f be 5c 19 b2 3d ed 53 b4 bd
       0.11444894 -0.1397856 0.08696243 -0.0880507
0001a0 b6 19 48 3c 60 80 f0 bd fd 2d 08 be 8c d1 b8 bc
       0.012213161 -0.117432356 -0.13298793 -0.022560857
0001b0 90 91 1f 3e 63 1d 86 bd bd b6 a6 3d 20 4f f9 3d
       0.15582871 -0.06548574 0.08140323 0.12173295
0001c0 76 c6 16 be b6 32 05 be 58 86 c0 bd 33 4f 24 be
       -0.14724144 -0.13007626 -0.09400624 -0.16045837
0001d0 ee 3b 15 3e 33 dd 84 bd 5a 32 75 3d 85 95 82 bb
       0.14573643 -0.06487503 0.059862472 -0.0039851093
0001e0 8b 7b 0f b9 46 6b e8 bd f7 19 20 be a6 d9 02 3d
       -0.00013683566 -0.11348586 -0.15634905 0.031945847
0001f0 b6 9e 0f 3e 18 24 3b 3d ae 2c dc bc f2 77 17 ba
       0.14025387 0.04568872 -0.026876774 -0.0005778066
000200 cf 08 11 be e2 cf 08 bd cf 61 0a 3e a8 3b e6 3d
       -0.14163516 -0.033401377 0.13513874 0.11241847
000210 00 2d 0e be fd d3 47 3e 0b 67 0c 3e e0 41 06 be
       -0.13884354 0.19514461 0.13711183 -0.13111067
000220 8a 8a 41 be 2f 6a 2d 3e 81 6e e1 3d 2e cc 47 3e
       -0.18900505 0.16935037 0.11007405 0.19511482
000230 44 7f b8 3c 07 83 fa 3c 93 a1 34 3e 49 33 94 bd
       0.022521622 0.030580057 0.1763976 -0.07236344
000240 7e 0a 28 3e c8 2a 82 be a7 9f ab 39 7a 6d b1 bd
       0.16410252 -0.25423265 0.00032734612 -0.08663459
000250 0a 3f 80 bb fb f4 02 be 1c de 82 bd 58 e8 2b 3e
       -0.003913765 -0.12788765 -0.0639002 0.16787851
000260 81 86 ce bd 0e 3c 6c bc f5 4e b7 3d 8d 19 84 3d
       -0.10084248 -0.014418615 0.08950607 0.06450186
000270 a0 a0 32 be 00 6a 5e 3e 04 57 46 be 0b cb 43 3e
       -0.17444086 0.21720123 -0.19369131 0.19120423
000280 27 bc 53 bc 94 0d 43 3e 99 3c d0 bd 67 e3 b2 3d
       -0.012923277 0.19048148 -0.10167808 0.0873478
000290 cd 3e 1f 3e c0 6e 01 be 5d ab 31 be 4c 18 db bc
       0.155513 -0.12639904 -0.17350526 -0.026744984
0002a0 d1 ae d4 ba 2e ee 2a be 69 40 e8 3d e5 02 99 3d
       -0.0016226416 -0.16692421 0.1134041 0.07471255
0002b0 ba 86 ca 3d e1 39 ec 3d b1 03 b4 bc 58 79 03 be
       0.09888978 0.11534477 -0.021974416 -0.12839258
0002c0 c4 6f 21 bd 9d cb 10 3e 52 8a ae 3d f4 d6 05 3e
       -0.03941323 0.14140172 0.08522476 0.1307028
0002d0 ff 1d c8 3d e1 f8 9a bd b6 d9 01 3e b5 0c 37 3c
       0.09771346 -0.07567001 0.12680706 0.011172463
0002e0 de eb a8 3c 2b ef 1f be 8e e5 11 3e 9b b9 c5 3d
       0.020620283 -0.15618579 0.14247724 0.09654542
0002f0 bc 1b 0f 3e c5 8b 19 be 55 14 8b 3d 95 29 9b bd
       0.13975424 -0.14994724 0.067909874 -0.075762905
000300 cd cf d7 bd da 18 2b be ca fa 40 be be 09 41 3e
       -0.10537682 -0.16708699 -0.18845668 0.18851373
000310 2b d4 bb bd 93 15 a6 3d a2 e0 e1 bd 51 95 c8 bd
       -0.09171327 0.08109584 -0.110291734 -0.09794105
000320 c1 f8 19 3e c3 55 cf 3d a9 21 3b be cc 59 99 bd
       0.15036298 0.101237796 -0.18274559 -0.074878305
000330 20 c1 3f 3d 89 1e 43 3e 2a e5 2f 3e b4 b4 d4 3d
       0.046815038 0.19054617 0.17177263 0.10386029
000340 33 04 c1 bd 2e bb 73 3d 90 e7 68 bd 42 e2 8c bd
       -0.09424629 0.05950468 -0.05686146 -0.06879093
000350 b9 cf 4b 3e 6b f0 95 bc b5 f1 fc 3d 9d 0e b2 bd
       0.19903459 -0.018303117 0.123507895 -0.086941935
000360 0e 30 15 be 6b 9b 22 3e fd 08 99 3d ad 54 14 3e
       -0.14569113 0.158796 0.074724175 0.14485426
000370 92 9e 6b bd 54 b6 20 3e 81 0d 5c 3c c0 3e 01 3d
       -0.05752427 0.15694553 0.013430954 0.031553984
000380 00 cd b0 bc 10 53 d5 bd ce b4 25 be 33 ad 83 3d
       -0.021582127 -0.104162335 -0.16182253 0.064295195
000390 b8 07 42 be c7 8c 12 be cd 6d 94 bd 3a c3 55 be
       -0.18948257 -0.14311515 -0.07247505 -0.20875254
0003a0 d8 51 d7 3d d2 e5 1c bd 28 f4 4d 3e c0 98 35 3e
       0.10513657 -0.03830511 0.2011267 0.17734051
0003b0 bb 8c 9d bd 92 49 ce bd f4 95 a6 3d 3e 5b a2 bc
       -0.07692858 -0.10072626 0.0813407 -0.019818898
0003c0 f7 cd 16 be 68 46 7c bd 5b 1c 41 bd 0d 10 92 ba
       -0.14727007 -0.061590582 -0.047146183 -0.00111437
0003d0 0c c4 d6 bc a5 fc 1d be 93 87 0e 3e 97 26 19 bd
       -0.02621653 -0.15428407 0.13918905 -0.037390318
0003e0 c1 38 47 be c0 e0 30 be e5 84 1d 3e 0b e9 33 3e
       -0.19455244 -0.17273235 0.15382726 0.17569368
0003f0 69 be 80 3d 56 fe 1d 3e c1 1b c5 3d 30 f1 b9 3d
       0.06286318 0.15429053 0.09624434 0.09079206

convs.0.bias f4 [128]
000000 00 9a c8 ba b4 1e 03 ba 24 ad 99 ba b8 93 0b ba
       -0.0015304685 -0.00050018285 -0.0011724574 -0.0005324441
000010 91 3c 2f ba 27 7f 9f ba d2 ac b2 b9 99 27 0b 3b
       -0.00066847453 -0.0012168632 -0.00034079567 0.002123332
000020 4f 4a 99 3a b4 b3 57 39 6c 1c 84 39 24 4c 83 ba
       0.0011695119 0.00020570942 0.00025198178 -0.0010017199
000030 0c 9d d4 3a 82 de 88 b9 bf 62 1d bb cd 4b 49 bb
       0.001622112 -0.00026105723 -0.0024015156 -0.0030715347
000040 fd d0 35 bb 79 c9 82 3a 51 cd 3b bb 7a d7 0f bb
       -0.0027742975 0.0009978256 -0.0028656314 -0.0021948502
000050 0a 78 fd 39 1b ac 78 3a 8a dc 16 ba 47 3a 2d 39
       0.00048345356 0.0009486095 -0.0005754909 0.00016520276
000060 8a b7 1b b9 4a 71 46 b9 d0 84 49 ba 79 79 93 b9
       -0.00014850326 -0.00018924955 -0.0007687332 -0.0002812853
000070 0b a2 ed b9 de 1a 0b b7 3e fb 89 39 a3 93 86 b9
       -0.00045324894 -8.291301e-06 0.00026317866 -0.0002566847
000080 f9 c5 32 39 a9 f4 58 3a 14 5a 8f 3a 01 89 4c bb
       0.00017049153 0.00082762033 0.001093688 -0.003120959
000090 ea 28 31 3a b8 fd 14 3b b4 66 2d b9 a1 8f 27 3b
       0.0006758111 0.0022734236 -0.00016536826 0.0025567787
0000a0 ec af 4b b9 fe 23 53 3a 9b d2 0a 3b 44 2c e2 ba
       -0.00019425125 0.00080543745 0.002118266 -0.0017255624
0000b0 2d 51 2c 3b 2e 99 01 bb dd 91 d0 ba 21 28 80 39
       0.0026293502 -0.001977514 -0.0015912611 0.0002444396
0000c0 68 1b 45 ba 8b ea 07 3a 33 83 fa ba a8 dc 87 3a
       -0.00075190375 0.0005184791 -0.0019112587 0.0010365443
0000d0 5a 4f 5e 3a 3f 17 94 ba 4c 48 8a ba 2e b3 ba 37
       0.0008480452 -0.0011298432 -0.0010550111 2.2256365e-05
0000e0 ba 18 1f ba 0f 95 89 3a fc 59 c7 ba fa 49 16 ba
       -0.0006069053 0.0010496693 -0.0015209313 -0.0005733069
0000f0 57 86 1a 3a d7 33 5f 3a c2 1d ee b9 eb c4 eb b9
       0.0005894652 0.00085144996 -0.0004541707 -0.00044969408
000100 5e 46 c9 38 5b 35 9f ba d6 43 8f b9 b2 89 c2 39
       9.597534e-05 -0.0012146638 -0.00027325627 0.00037105154
000110 0e 7e 79 ba 40 5c 1d 3b b1 21 6b ba f5 b9 28 3a
       -0.000951738 0.0024011284 -0.0008969559 0.0006436401
000120 3b 7a 7a 3a f8 2b cd 39 c5 76 f2 ba 5e f3 72 3a
       0.0009554957 0.00039133406 -0.0018498531 0.0009267832
000130 e9 3c fc ba 06 9a ac b6 05 d5 93 ba 19 cd 59 ba
       -0.0019244227 -5.14393e-06 -0.0011278695 -0.0008308455
000140 32 a6 06 3a 48 2c 85 ba 11 70 e2 3a 4f 88 d3 3a
       0.00051364594 -0.0010160292 0.001727583 0.0016138646
000150 0c 28 32 ba b8 eb a6 3a 54 e9 63 39 e0 30 2e ba
       -0.00067961286 0.0012735045 0.00021735328 -0.0006644856
000160 60 f9 31 3a df 91 db ba f0 f7 65 ba d5 3c e2 ba
       0.0006789174 -0.0016751847 -0.00087726023 -0.0017260561
000170 83 f1 d2 3a 62 40 dd ba 8c 25 43 39 02 c9 ad 38
       0.0016093705 -0.001688015 0.00018610636 8.2867235e-05
000180 44 c6 85 37 9b 1d 7b 3a cc 41 c2 38 8c 61 98 ba
       1.594716e-05 0.00095793017 9.2628965e-05 -0.0011625751
000190 cd 02 b7 b9 d1 86 66 3a ed af de b9 df 59 7b 3a
       -0.00034906567 0.0008793893 -0.00042474215 0.0009588282
0001a0 92 15 af bb fa ac f6 ba 9e 84 0b 3b d8 c9 98 ba
       -0.0053431476 -0.0018819862 0.0021288763 -0.0011656834
0001b0 0b bb 06 b9 0a ee 28 bb 2d 57 af 39 cf f1 8f ba
       -0.00012848915 -0.0025776648 0.00033443552 -0.0010982099
0001c0 1a b5 af ba 97 25 c0 3a 62 db 74 bb 09 ad be 3a
       -0.0013405413 0.001465964 -0.0037362208 0.0014547418
0001d0 dd 2c 9d 3a a6 d5 16 bb 08 dc 34 3b 66 50 db 39
       0.001199152 -0.0023015528 0.002759697 0.00041830837
0001e0 48 b0 74 3a 8c cf 5d 3a ac f9 da 3a e5 31 fb ba
       0.0009334129 0.0008461408 0.0016706488 -0.001916465
0001f0 f7 62 6d 3a 7d b1 3c ba 7a b8 16 bb 3c b6 3f bb
       0.00090555794 -0.00071980787 -0.002299814 -0.0029252907

convs.0.comb_weight.weight f4 [12, 128]
000000 76 31 99 3d e9 e6 87 3d 69 e5 2d 3a d8 e0 17 3d
       0.07480137 0.066358395 0.0006633611 0.037079662
000010 b4 6e 03 3d c8 47 8f 3d 9d 6c 59 bd 6b a6 03 3d
       0.032087997 0.06996113 -0.053082097 0.03214113
000020 70 4e 9c bc b9 c1 4d 3d ff b9 aa 3d 59 13 73 bd
       -0.01908037 0.050233576 0.08336257 -0.059344623
000030 5c 38 37 3d dd 20 33 3d e7 91 92 3d f4 56 1f bd
       0.044731483 0.043732513 0.07156735 -0.038901284
000040 dd 5f 17 bc a9 5b 46 3d 0e 80 e8 3c 83 53 1a bd
       -0.009239164 0.048427258 0.028381374 -0.0376773
000050 85 9c 71 bd 14 f4 66 ba 6d 37 45 3d ca ff 01 bc
       -0.05898716 -0.0008810174 0.04814856 -0.00793452
000060 14 d9 cc bc b1 07 c4 bc aa 8f 14 3c cd 62 5e bd
       -0.025005855 -0.023929449 0.009067455 -0.054293443
000070 02 83 96 bd 57 9e 30 3d 91 77 98 3c e2 81 27 bd
       -0.073492065 0.043119755 0.018611701 -0.04089535
000080 0b ea 8a 3b f1 34 b0 bb 6b 2c 10 3e 7a 82 54 bd
       0.004239326 -0.005377405 0.14079444 -0.051882245
000090 c4 2e 7a bd 71 a2 c0 3c 08 0a 92 3c 74 7c 6a bd
       -0.061079755 0.023514958 0.017827049 -0.057247594
0000a0 6b 87 87 bc c6 36 a1 3d 39 34 85 bd d7 6e da 3d
       -0.016544065 0.07871775 -0.06504101 0.10665672
0000b0 5e 77 b0 3d 8d 26 f2 3d 7c 3b 87 3d 89 e1 12 3d
       0.086165175 0.11823759 0.066031426 0.03585962
0000c0 58 d7 68 bc fb 82 b8 3d f6 78 97 bd ff 7d d7 3b
       -0.014211498 0.090093575 -0.07396118 0.006576299
0000d0 78 df 20 3d f5 59 21 3d ba 60 63 3d d1 14 a9 bc
       0.039275616 0.03939243 0.055512168 -0.020639809
0000e0 61 b8 cb 3c 16 13 10 3d 6e d6 5e 3d 4b 56 77 bd
       0.024868192 0.03517445 0.054403715 -0.06038503
0000f0 26 74 73 3d 5f 6b a6 bc ba 62 73 bd e7 39 be bc
       0.05943694 -0.02031487 -0.059420325 -0.02322097
000100 ff 90 d3 3d b3 94 67 3d 2e 06 d7 3d 16 e2 70 3d
       0.1033039 0.056538295 0.104992256 0.058809362
000110 26 12 09 3e 2d 34 e6 3d 0a f9 d1 bd 9e 3d 24 bd
       0.1338583 0.112404205 -0.102525786 -0.040097825
000120 03 26 b7 3c e1 f2 39 bc 57 5d 9f 3d d3 8a 01 3e
       0.022356993 -0.011349411 0.07781475 0.12650613
000130 08 02 fe 3c 51 24 26 bd e1 94 7c 3d 51 d0 84 bc
       0.031006828 -0.040561978 0.06166542 -0.016212614
000140 92 05 52 3d d0 27 3f bb a8 9b 42 bc ac ab 99 3d
       0.051274844 -0.0029168017 -0.011877932 0.07503447
000150 e8 2a 3f bd f4 c0 84 bd 55 63 c8 bc 6e 35 c0 3c
       -0.046671778 -0.064821154 -0.024461428 0.023462977
000160 b7 a4 cf 3c 4c ee 02 3b 11 9c 4a bd 9b e2 ae bc
       0.025347097 0.0019978462 -0.049465243 -0.021348288
000170 29 70 17 3d 93 78 09 bd 2f 3d 93 3c 05 b2 31 bc
       0.0369722 -0.033562254 0.01797351 -0.010845666
000180 23 8e c8 3c 80 f1 48 3d 00 33 9e 3d 60 c3 89 3d
       0.024481839 0.049058437 0.07724571 0.06726718
000190 6e 99 9c 3d 96 60 e1 3d 9e cd a9 3c 9c 1e c8 3d
       0.07646452 0.110047504 0.020727929 0.09771463
0001a0 9a 84 17 3c 9e d4 26 3d f9 b5 10 3d 19 de 6c 3d
       0.009247923 0.04073011 0.035329793 0.057828996
0001b0 96 55 72 3d ea 61 9b 3d b3 66 7d ba c1 75 9a bd
       0.059163652 0.07587035 -0.00096664875 -0.07541991
0001c0 d3 0f 5a bd d2 42 af bd f7 ef 91 bc 7c 44 6e 3c
       -0.053237747 -0.08557667 -0.01781462 0.014542695
0001d0 a7 7c 36 3d 99 51 f4 3c 9c ac 91 3d 71 cb c0 3d
       0.04455247 0.029824065 0.07113001 0.09413803
0001e0 65 ed 03 3d 0e 2b 98 3d e9 76 97 bd 94 4b a6 bc
       0.03220882 0.07430087 -0.07395727 -0.02029971
0001f0 93 60 85 bd bd 19 49 bd f8 8c 59 bd 49 db 08 3d
       -0.06512561 -0.04909681 -0.053112954 0.03341225
000200 70 a6 d7 3d 27 c5 52 3d c2 ba ee 3d 8d 01 59 bd
       0.10529792 0.05145755 0.11656715 -0.052979995
000210 06 68 b4 3d e9 d5 95 bd 72 1c 12 3d ee c4 5e bd
       0.088089034 -0.07316191 0.03567166 -0.054387026
000220 3f 60 6b 3c fb 72 a0 3c 08 38 c1 ba 28 22 ee 3b
       0.014366209 0.019586077 -0.001474143 0.0072672553
000230 34 b6 3b 3d 3f c4 e5 3d e7 13 0d 3d c0 52 45 bc
       0.04582806 0.112190716 0.03444281 -0.012043655
000240 83 94 b6 3d be c1 6c 3d 97 01 67 bd 6d 53 1b 3d
       0.08915045 0.057801954 -0.056398 0.037921358
000250 ba 90 94 bd ec 20 38 3c c8 9f 07 bd 0f 5f 32 3d
       -0.07254167 0.011238318 -0.033111364 0.043547686
000260 a7 00 c0 bc c2 66 a2 3d f3 5b f0 3c e2 34 92 3d
       -0.023437811 0.07929756 0.02934072 0.07138993
000270 f9 73 b3 3c 41 fa 2f 3b 25 92 fa bc 6f b7 bb bc
       0.021905886 0.0026852044 -0.030587265 -0.022914616
000280 58 1f a7 3d b1 c7 98 3d 43 30 a1 bc fb d1 62 bd
       0.08160275 0.07459963 -0.019676333 -0.055376034
000290 a4 b1 86 bd 11 c2 87 bd a2 c2 d7 3d 41 65 b8 bc
       -0.06576851 -0.06628812 0.1053517 -0.02250922
0002a0 b6 3f bc 3c 7a ea 56 bc 8a 3a fe 3c b5 85 11 3d
       0.022979598 -0.013117427 0.031033773 0.035527904
0002b0 a0 4d f9 3c 9c 50 84 3d e1 6b 83 bd cf e2 e5 3c
       0.030432522 0.064606875 -0.06417061 0.028062252
0002c0 12 37 9a 3d 05 db 77 3c 2a ef ee bb 2b 6a 2f 3d
       0.07530035 0.015127902 -0.007291694 0.04282586
0002d0 f2 4a 3a bd c4 99 3a 3d d2 4e 79 bd 85 43 49 bd
       -0.04548163 0.0455568 -0.060866185 -0.049136657
0002e0 af 95 74 bd 80 07 a6 bd 55 f3 2f 3c a2 2d 3e 3d
       -0.059713062 -0.08106899 0.010739167 0.046430238
0002f0 41 9d 55 bd e9 f0 c1 bc 5e df 89 3d c5 9f 8f 3b
       -0.052151922 -0.023674445 0.06732057 0.0043830597
000300 7a c6 62 bd a3 84 96 bd b2 bf a0 3d c5 eb 76 3c
       -0.055365063 -0.07349517 0.07849063 0.01507086
000310 2f 30 d4 3d b3 cf 2e 3d 84 df 1f bc b6 99 30 bc
       0.10360753 0.042678546 -0.00975788 -0.010778835
000320 c0 fa 28 3d 1c c4 67 3d 42 ad 9c 3d 83 86 6c 3d
       0.04125476 0.05658351 0.07650234 0.057745468
000330 8f 5d 5c bd f6 4d ce 3c 63 a7 a1 3d a6 0d 1a bc
       -0.053800162 0.025183659 0.078932546 -0.009402668
000340 95 c9 45 3d 71 07 93 3d 16 12 17 bd 84 7a e4 3c
       0.048287947 0.07179154 -0.036882482 0.027890451
000350 59 45 ae 3d d4 be 8e 3d 8f fb e6 3d f7 87 92 3d
       0.08509321 0.06969991 0.1127845 0.071548395
000360 fb 10 21 bd 07 a0 8f bd 11 bc 84 bc 6b ad 8e 3d
       -0.039322834 -0.07012945 -0.016202958 0.069666706
000370 04 70 7d bd 0a fe b0 3d bb 17 15 bd fb 03 cf bc
       -0.061874405 0.08642204 -0.036399584 -0.025270453
000380 62 2f 0e bd b5 d5 6b bc 21 b0 4b 3c 6c 78 83 3d
       -0.034713157 -0.014394213 0.012432129 0.06419453
000390 40 f0 3e 3d 31 f5 25 bd 97 fe 51 bc 65 cf a8 3d
       0.04661584 -0.040517036 -0.012817047 0.08242682
0003a0 dd 4a 0c bc 59 f5 40 bd 7f 97 80 bd 8f aa 89 bc
       -0.008562771 -0.04710898 -0.062788956 -0.016804961
0003b0 2d 55 68 bd 24 ea bf 3d c3 f7 87 3a 43 91 9f 3d
       -0.056721855 0.09370831 0.0010373521 0.07791378
0003c0 66 e4 1a bb 17 bf 3e bc da 38 04 3e 26 ee 3a bd
       -0.0023634671 -0.011642239 0.12912312 -0.045637272
0003d0 ce 46 85 3d c2 04 c2 3d a3 29 bf 3d be 70 a5 3d
       0.065076455 0.09473564 0.093341134 0.080781445
0003e0 3c 9c ce bd 4b 10 d9 3c 25 d9 4e 3d a1 46 8f 3d
       -0.10088393 0.026497027 0.050500054 0.06995893
0003f0 16 fe 9f bc da fa dc 3b d3 ae 78 bd cc c2 c2 3d
       -0.019530337 0.006743771 -0.0607136 0.09509811

convs.0.comb_weight.bias f4 [12]
000000 f6 80 04 3d 11 d1 6a 3d 0a 2b b5 3d 62 a5 91 bd
       0.03234955 0.057328288 0.088461 -0.071116224
000010 5e b8 a0 3d b5 91 70 bc 95 60 ff 3b f1 3d 81 bd
       0.07847665 -0.014683177 0.007793496 -0.063106425
000020 01 66 30 3d e9 f8 d6 bc 84 e0 28 bd 36 be b9 3d
       0.04306603 -0.026241736 -0.04122974 0.09069483

convs.1.bases_weight f4 [128, 32]
000000 eb be 10 3e bd 00 0e 3e bf fe 00 3e 3f 3e dd bd
       0.1413533 0.13867469 0.12597178 -0.10802888
000010 ae 8e 38 3e 65 25 10 be 5e d7 fa 3c 3d ae bf bd
       0.18023178 -0.14076765 0.030620273 -0.09359405
000020 03 e8 40 3e dd c2 21 3e 13 72 38 be 3d 86 06 3e
       0.18838505 0.1579699 -0.18012266 0.13137145
000030 24 86 18 3e e6 33 46 bd 4a b8 7f 3d bb 7b 96 bd
       0.1489492 -0.048389338 0.06243161 -0.073478185
000040 cc c1 8b 3d a9 5d 44 3d f4 38 bd bd 2b db c4 3c
       0.06824073 0.047940884 -0.092393786 0.024030289
000050 ae 22 0e be 2f b6 5e 3d 24 f8 b4 bd b4 90 83 bd
       -0.13880417 0.054372963 -0.088363916 -0.06424084
000060 11 d4 7e 3b 46 04 b2 bd 96 40 d8 3d a7 2b 40 3e
       0.0038883726 -0.08692221 0.10559194 0.18766652
000070 3b 24 cc bd 0d 4d 22 3d b0 b2 19 be fc 9e 52 3d
       -0.09967848 0.039624263 -0.1500957 0.05142115
000080 24 00 4b 3e 3b 53 08 be bf e5 d7 3d 44 63 c8 bd
       0.19824272 -0.13313 0.105418675 -0.097845584
000090 39 f5 16 be f6 03 35 be 29 e8 d0 bd ac a0 93 3d
       -0.14741983 -0.17677292 -0.10200531 0.0720838
0000a0 20 f7 48 3d 52 5c c5 3d 77 4c 34 be 10 ab 8b 3d
       0.0490638 0.09636749 -0.17607294 0.06819737
0000b0 85 a9 13 be f3 e4 3d bb 82 df 1e be 9e cd 74 bc
       -0.14420135 -0.0028975576 -0.15514949 -0.014941601
0000c0 f0 aa 35 be 97 35 9f bd b7 6a c9 3c 86 ed c6 bd
       -0.17740989 -0.07773893 0.024587018 -0.09713273
0000d0 67 5e 35 be 22 1c 47 bd bc 94 07 3e 68 04 f7 bc
       -0.17711793 -0.048610814 0.13240331 -0.030153468
0000e0 5f 75 1a bd 7e 81 d7 3d f6 30 11 be fd 0f 45 bd
       -0.03770959 0.105227455 -0.14178833 -0.04811095
0000f0 4c f5 40 bd 70 ce b9 3d cc ed 6b bd 95 f1 3b be
       -0.047108933 0.09072578 -0.057599828 -0.18353875
000100 f9 5a 0b be 84 41 b7 bd 4d 81 e1 3d f9 a0 42 3d
       -0.13608922 -0.08948043 0.1101099 0.047516797
000110 21 39 3c 3e 91 07 9d bd b0 6c f9 bd 82 83 22 bd
       0.18381168 -0.07667459 -0.121789336 -0.039676197
000120 cb 67 0f be ea 1e 84 bd 0e 5f c5 bc cd 29 2a bd
       -0.14004438 -0.06451209 -0.024093177 -0.04154377
000130 7c 67 bd bd a3 27 ba 3d 80 0b 00 3e 1c 06 41 3d
       -0.09248254 0.09089591 0.12504387 0.047124967
000140 aa ea dd bd 8b 93 01 be 4e 9d 2f be 71 41 2f 3e
       -0.10835774 -0.1265394 -0.1714985 0.17114808
000150 42 21 17 bd 94 c4 60 bc f3 98 be bd 76 fa a0 3c
       -0.03689695 -0.013718743 -0.093065165 0.01965068
000160 88 b7 a9 bc 97 18 d9 bc 34 e2 89 3c a8 7c 11 be
       -0.020717397 -0.026500983 0.016831495 -0.14207709
000170 7b 24 d4 bd 7a c2 00 be b7 d3 ee 3d f5 09 f7 3d
       -0.103585206 -0.12574187 0.11661475 0.12062446
000180 1e 77 ba 3d 11 03 93 3d 34 dd 0e bc 5b 73 27 3e
       0.09104751 0.07178319 -0.008719731 0.16352598
000190 b7 b5 e9 bd e4 b4 1f be a6 d0 60 3c fc 58 7e be
       -0.114116125 -0.15596348 0.013721621 -0.24838632
0001a0 cb 51 e8 3d 95 e3 ef 3c 93 82 18 be 3f 73 d1 3d
       0.11343726 0.029283324 -0.1489356 0.102270596
0001b0 eb ba 51 3d 62 3d ad 3a 23 6b 04 3e 94 52 fa bd
       0.05120365 0.0013217146 0.12931494 -0.12222782
0001c0 b4 8e 85 3b 31 6d 45 3e 9b 2f 3b 3e 91 58 10 be
       0.0040758494 0.19279934 0.18279879 -0.14096285
0001d0 e4 8c d9 bd f7 f0 0a 3e 6e 5c 6b 3d 42 b3 46 be
       -0.10622576 0.13568483 0.057461195 -0.19404319
0001e0 66 11 2b be 54 2f ff bd 61 52 39 bd 0f 85 40 3e
       -0.16705856 -0.12460199 -0.04524458 0.18800758
0001f0 7c 62 51 bd 16 f1 06 3e 3d 9b e1 3d e7 2c b9 3d
       -0.051119313 0.13177904 0.110159375 0.090417676
000200 98 98 3e bd 0d 67 bd 3c 8d 8b 3e 3c e9 71 ad bd
       -0.046532243 0.023120428 0.011629951 -0.08468992
000210 5d 95 28 3d de 1f 63 be 6a bf 65 bc 0c 8a a6 3c
       0.04115807 -0.22180125 -0.014022687 0.020329498
000220 19 c6 08 be 99 40 db bd 87 5e db bd c9 b8 9e bd
       -0.13356818 -0.107056804 -0.10711389 -0.07750089
000230 42 b2 ca bd 16 cd 20 bd 9b 69 3a bc 69 42 a7 bc
       -0.09897281 -0.039258085 -0.011377717 -0.020417409
000240 6b b6 ec 3d 48 ba 4a bd 09 ac 48 3e 61 f1 a3 bb
       0.11558231 -0.049494058 0.19596876 -0.00500314
000250 d6 a6 fb 3d 12 87 2f be 4d 16 0f 3e 0f c3 bb bc
       0.12287681 -0.17141369 0.13973351 -0.02292016
000260 ca 8e 41 bd db 35 c5 bb 74 d7 0e bd 81 b4 fc bd
       -0.047255315 -0.006018383 -0.03487344 -0.12339116
000270 27 5f ca 3d fd b6 08 3d be 34 ae 3d f3 1f 00 be
       0.0988143 0.033377636 0.085061535 -0.12512188
000280 ec 69 11 3d 45 ee 57 bd 9a b6 54 bd 42 17 02 be
       0.035501406 -0.052717466 -0.051931955 -0.12704185
000290 f2 6e c9 bd 54 5b 56 bd e7 7e b6 3d 1a 45 f0 3d
       -0.09835614 -0.05233319 0.089109235 0.1173193
0002a0 06 52 20 be 01 fd 30 3e 7e 6a 11 3d f6 92 ac bd
       -0.1565629 0.17284013 0.03550195 -0.08426468
0002b0 fe e0 11 3e 6d ae 6b 3d fa 01 17 be 63 c5 1d bd
       0.14245984 0.057539392 -0.14746848 -0.03851832
0002c0 d3 3d b1 bd 66 af b1 3d 0e 69 35 3e 9b 3e de bd
       -0.0865437 0.08676033 0.17715856 -0.10851785
0002d0 82 9f 5d be bc c3 05 be f3 bd 3a 3e d4 d9 43 3e
       -0.21642879 -0.13062948 0.18236522 0.19126064
0002e0 29 96 d7 bd 85 b0 a3 bd 97 e3 95 3d b2 77 c9 3c
       -0.10526688 -0.07992653 0.073188 0.024593208
0002f0 a1 78 03 3d 56 fb 60 bd fa bb 14 3e 21 ef 81 3d
       0.032097463 -0.054927193 0.14524832 0.06344438
000300 04 7f 50 3e 37 04 1c 3e ad db 13 3e db 9a 9f bc
       0.20360953 0.15235983 0.14439268 -0.01948302
000310 82 ea f1 3d 09 cd 12 bd 7d e7 10 3d 5a 58 19 be
       0.11812307 -0.035840068 0.035377014 -0.1497511
000320 c3 f2 c5 3d 58 bd b6 38 aa dd 5f be 0e 29 a0 bc
       0.09665444 8.713704e-05 -0.21861902 -0.019550826
000330 3e c4 1a be c1 f3 28 be 22 06 36 bd cf 83 3c 3d
       -0.15113923 -0.16499235 -0.044439442 0.04602414
000340 66 fb 22 bc 83 c2 31 3e ff 6e 58 3d fe e9 22 3e
       -0.009947633 0.17359357 0.05284023 0.15909573
000350 7a 66 d5 3c 12 e7 24 3e ef 32 26 bc 43 ce 29 3d
       0.026049841 0.16103771 -0.010143979 0.041456472
000360 54 ea da bd 43 70 9d 3d ce e9 64 be fd f3 74 3d
       -0.10689226 0.07687428 -0.22354814 0.059802998
000370 0a 25 95 3d bc 1c 84 bd a0 fb 15 be 8d 63 23 3e
       0.07282455 -0.06450793 -0.14646769 0.15955944
000380 6d 30 06 3e 07 50 00 be 81 af 16 be 56 f6 6d be
       0.1310441 -0.12530528 -0.14715387 -0.23238501
000390 80 d5 18 be e2 f9 67 3e 97 ce b3 3d 49 c4 de bd
       -0.14925194 0.22653916 0.08779638 -0.10877282
0003a0 a9 cd b8 bd a8 5a 06 be d4 10 20 3e 69 62 2c 3e
       -0.090236016 -0.1312052 0.1563142 0.16834415
0003b0 fa 0b fa 3b b5 d8 37 be 88 46 1d 3e 08 7d ef bd
       0.0076308222 -0.17953761 0.15358937 -0.1169377
0003c0 aa 96 2d 3e 4f 75 95 bd 65 e9 02 bd a3 fe 4f 3d
       0.16952005 -0.072977655 -0.031960864 0.05077995
0003d0 9e 6e cb 3d 30 65 a7 3d 9d fa 4a 3d c2 03 34 be
       0.09933208 0.08173597 0.04955541 -0.17579558
0003e0 35 4a 96 3d 0e de b8 3d f4 0c 60 be e4 2f c5 3d
       0.073383726 0.090267286 -0.21879941 0.09628275
0003f0 5c a8 9c 3d c6 b0 f1 bc 12 b6 52 bd 33 90 b6 3d
       0.076492995 -0.029503237 -0.051443167 0.089142226
