production/TDC/CYP2C9_Veith/checkpoint/state_dict.pt (torch, 537136 bytes, 33 tensors)

lin1.weight f4 [128, 27]
000000 38 7c 05 be 08 43 0d 3e 12 02 6e 3d ae 25 20 3e
       -0.13035667 0.13795102 0.058107443 0.15639374
000010 6b 96 b9 3d 61 e8 25 be 46 25 49 ba 67 cf 91 bb
       0.09061893 -0.16201927 -0.00076730957 -0.004449773
000020 b4 7a df 3d a2 61 3f 3e 13 46 cd bd 42 3b 3e be
       0.10912076 0.18689588 -0.10023131 -0.18577293
000030 c6 a5 02 be 25 58 d9 3d 87 ea 26 3e ca 86 42 be
       -0.1275855 0.10612515 0.16300403 -0.1899673
000040 81 cb 32 be aa f4 3a 3e 24 f6 35 3c fb f0 28 be
       -0.17460443 0.18257394 0.011106048 -0.16498177
000050 fa ac 28 be 98 51 bb bd 91 4a b3 bd 0e d1 27 bc
       -0.16472235 -0.09146422 -0.08754457 -0.010242714
000060 59 1a ea bd 2c 4e 06 3d 35 01 c3 3d e1 85 49 3d
       -0.11430807 0.032789394 0.095217146 0.049199942
000070 85 03 dd 3c a4 00 19 3e 38 8e a7 3d 0f 44 1c be
       0.026979217 0.1494165 0.08181423 -0.15260337
000080 b8 43 12 3d e8 87 f4 3d a5 2a 16 be e1 3b 85 3c
       0.035709113 0.119399846 -0.14664705 0.016263904
000090 c0 72 6a 3d b1 1e 20 3e 12 33 e3 3d 8b 37 99 3b
       0.05723834 0.15636708 0.11093725 0.0046758107
0000a0 b1 c0 bb 3d cb bc cc bd 2e 66 2a bc ff 99 58 bd
       0.09167612 -0.09996947 -0.010400338 -0.052881237
0000b0 d5 ac 1a 3e d4 24 50 bd 34 fd a7 3d 06 02 23 be
       0.15104993 -0.050816372 0.082025915 -0.1591874
0000c0 54 ec d6 bc 58 5a 11 3d 3b f5 b3 3d 81 a5 02 3e
       -0.026235737 0.03548655 0.087870084 0.12758447
0000d0 cf 51 a0 3d fc 36 2f bc 7f 7c 77 3d 33 eb 49 be
       0.07828104 -0.010694262 0.060421463 -0.19718628
0000e0 01 63 fb bd 41 a1 10 3e 53 62 05 3e a5 76 23 3e
       -0.12274743 0.14124013 0.13025789 0.15963228
0000f0 88 9b 12 3e e6 cb 15 be e4 f4 04 bd 4d 6b 71 3d
       0.14317143 -0.14628562 -0.03246011 0.05894022
000100 ff 44 25 3e 84 56 28 3e 12 51 16 3d 5b 9a 06 3e
       0.16139601 0.16439253 0.03669841 0.1314482
000110 02 f8 ff bc c3 7d a9 3d 44 c0 17 bd fb b0 bb 3d
       -0.031246189 0.0827594 -0.037048593 0.09164616
000120 c0 01 84 bd 50 ef 0e 3e dc 9f 69 3d 5d d9 08 be
       -0.06445646 0.13958478 0.05703722 -0.13364168
000130 c1 1c 62 3c 75 37 26 be f1 cd a9 3d 4e 65 2b be
       0.013800801 -0.16232093 0.08291233 -0.16737863
000140 77 05 a0 bd ef 4a 3d 3c 1e 5b 38 3e b9 35 99 3d
       -0.07813542 0.01155351 0.18003508 0.0748095
000150 48 9d 75 3d 34 dd b6 bc f5 c2 10 3e 92 32 fa 3d
       0.05996445 -0.022322275 0.1413687 0.12216677
000160 8f ae e0 bd ef aa e3 3b d4 2b 3b be f8 ea 24 be
       -0.109707944 0.006947867 -0.18278438 -0.16105258
000170 27 e0 a9 bd e4 96 02 3e e9 9d 3d 3e 55 49 e5 3d
       -0.08294707 0.12752873 0.18517269 0.111956276
000180 6a 80 8a 3d ec b2 a5 bd 99 d7 b3 3b 27 a5 d6 3d
       0.06762774 -0.08090767 0.0054883477 0.10480719
000190 bb cc c4 bd ba e7 2d be d0 91 a9 bc 4a e2 9a bd
       -0.09609362 -0.16982928 -0.020699412 -0.075626925
0001a0 77 3f e7 bd 51 b4 8b bd be 93 75 bd f4 e3 a9 3d
       -0.11291402 -0.06821502 -0.05995535 0.08295432
0001b0 2a e2 06 3c 02 ca 70 bd 15 04 19 be e4 f0 20 3e
       0.008232633 -0.0587864 -0.14942963 0.15716892
0001c0 b9 80 f8 3d c1 01 bf bd b2 60 6f bd b5 28 83 bd
       0.12133927 -0.093265064 -0.058441825 -0.064042486
0001d0 eb 75 cf 3d 65 f4 cc 3d 6d 32 e7 bd a2 40 d5 bd
       0.10129913 0.10007552 -0.11288915 -0.10412718
0001e0 7b 85 ed 3d ef 8c e4 3d 2f 52 33 be e5 d2 f0 3d
       0.11597725 0.111596934 -0.1751182 0.11758975
0001f0 53 9a 35 3e 95 4f 03 3a 54 a2 36 be 73 67 2d bd
       0.17734651 0.0005009112 -0.17835361 -0.042334985
000200 63 2c 34 3e 35 9c 3c be f1 51 b5 3d 25 3c 19 bd
       0.17595057 -0.18418963 0.0885352 -0.037410874
000210 c4 a6 1d be c0 db 3b 3e ce 1b 38 be 99 ed 0d 3e
       -0.15395647 0.18345547 -0.17979357 0.13860168
000220 fa dd ae 3d 69 12 cf bd 08 38 85 bd 7f 1b 0c be
       0.085384324 -0.10110933 -0.06504828 -0.13682364
000230 ac f8 1c be a5 1c 6c 3d 01 d2 37 3d be 0b 0a bd
       -0.15329236 0.057644505 0.04487801 -0.033702604
000240 3d 4b 83 3d af a5 db bd 44 6f 33 3e e0 48 f6 bc
       0.06410835 -0.10724961 0.17522913 -0.030064046
000250 ae 3d 43 3e ec 6e 8e 3d 05 2f 11 3d be 57 f8 3d
       0.19066498 0.069547504 0.035445232 0.121261105
000260 4d ac 25 3e 08 05 2c 3e 62 14 35 3e c7 9b 3f 3c
       0.16179009 0.16798794 0.17683557 0.011694855
000270 f8 0f c0 bd a8 55 59 bd b5 61 1a 3e 73 dd 2f 3d
       -0.09378046 -0.053060204 0.15076335 0.0429358
000280 90 9d b9 3d 59 b6 ea 3d c8 2d 12 3e 9d 2b f0 bc
       0.09063256 0.11460561 0.14275277 -0.029317671
000290 71 d3 ed bc 64 7c 12 3d ce a7 e7 3d 9a 29 0c be
       -0.029031487 0.03576316 0.11311303 -0.13687745
0002a0 9b c8 1a bd d3 c2 8b 3d ef 66 8f 3d 60 5d 9b 3d
       -0.03778897 0.06824269 0.07002055 0.07586169
0002b0 0f f8 34 3e 74 c7 1f be fd 9b fd bd 09 eb cb bd
       0.17672752 -0.15603429 -0.12383268 -0.09956939
0002c0 9d a7 a3 3c b6 9f 08 be cd 8d 1f bd 0f 8e c4 3c
       0.019977385 -0.13342175 -0.03895359 0.02399352
0002d0 2b 9d 1f 3d 76 56 b0 bc f0 eb b5 3d 44 49 2b be
       0.038968246 -0.021525603 0.08882892 -0.16727167
0002e0 40 ca 29 be d1 d6 a6 3d ca e8 39 be ea 4c 31 3e
       -0.16581059 0.08146442 -0.18155208 0.17314497
0002f0 70 da d8 3d 99 b7 53 bd 29 3f bc bd 82 ac ab bd
       0.10588539 -0.051688764 -0.09191734 -0.08382513
000300 9c 20 d3 3d b8 34 85 3d 92 5a 13 3d b6 4e 35 3e
       0.10308954 0.06504196 0.035975046 0.17705807
000310 7e 70 3a 3e d9 82 76 3d f8 64 27 3e 77 aa 8a 3d
       0.18206975 0.06018338 0.1634711 0.06770795
000320 25 82 81 bd e3 24 3e 3d 00 7b c9 3c 05 a5 f6 bd
       -0.06323651 0.046421897 0.024594784 -0.12043194
000330 36 e0 08 be 14 a8 90 3d 6b 74 f3 3c 34 9f 41 3e
       -0.1336678 0.07063308 0.029718598 0.18908387
000340 7f 80 b1 3c a3 7b 31 bd 6e 3e 01 bd 26 24 72 3d
       0.021667717 -0.0433308 -0.03155368 0.059116505
000350 9c 37 34 3d 62 07 00 be fe 0c ee bd f5 f3 73 bd
       0.043998346 -0.12502816 -0.11623572 -0.059558827
000360 40 35 11 bd ba 9a 27 be 74 d6 70 bd d4 84 3a 3e
       -0.035451174 -0.16367617 -0.05879827 0.18214732
000370 f5 24 87 3c 24 1f f1 3b 8b e4 9c bd 19 13 21 3e
       0.016497115 0.0073584486 -0.076607786 0.15729941
000380 a8 6b cc bd 69 4d 6b 3d c5 9a 91 bd 80 23 7b 3b
       -0.09981471 0.05744687 -0.07109598 0.003832072
000390 7a 95 1e 3e cd 32 d3 3d fe c7 0a 3e b5 1f 01 be
       0.15486708 0.10312424 0.13552853 -0.12609752
0003a0 6a 20 dd bd df a8 ee 3c ca 33 73 3c 01 00 36 3e
       -0.10797198 0.029133258 0.01484389 0.17773439
0003b0 0d 17 37 bd 48 d1 93 bd c9 64 39 3e 5c 21 8d bc
       -0.044699717 -0.072176516 0.18104853 -0.017227821
0003c0 ed 5b 05 be cf 0e 3a 3e cc 00 89 3d 3e 64 96 bd
       -0.13023348 0.18169712 0.06689605 -0.073433384
0003d0 81 b5 f7 3d 04 3b 99 bc e2 7e 23 bd 04 cd 31 3e
       0.12095166 -0.018704899 -0.039915927 0.17363364
0003e0 86 dd d1 3d 61 01 2d 3d e5 fb 9b bd f3 b6 f2 3d
       0.1024733 0.042237643 -0.076164044 0.11851301
0003f0 69 61 10 be dc 1b ec bd 0e 3d 13 bc e7 de 21 be
       -0.14099659 -0.11528751 -0.008986725 -0.15807687

lin1.bias f4 [128]
000000 75 a6 2e bd f0 06 08 be d2 37 0b 3d e9 f3 0c bd
       -0.042639215 -0.13283896 0.03398878 -0.0344123
000010 9d ba de 3d e9 01 95 3d 09 08 eb 3c 36 a1 ad bc
       0.108754374 0.07275755 0.028690355 -0.021195035
000020 33 8e 3d 3e a0 fc 32 be 48 0e e7 3d 94 8f 01 be
       0.18511276 -0.17479181 0.11282021 -0.12652427
000030 04 bd d9 3c 66 c4 06 3d 8c 5f 24 be ab 6d eb b9
       0.026579387 0.032902144 -0.16052073 -0.00044904402
000040 9d 1d 09 3e 15 f1 20 be 70 d6 5e 3d 9c 5e df 3d
       0.13390203 -0.15716965 0.054403722 0.10906717
000050 ed 6c b3 3b 97 a4 62 bd a2 0e c2 bc f5 d1 97 3d
       0.0054756314 -0.055332746 -0.023688618 0.07413093
000060 aa 7a 81 bd 6f f3 45 3d 7e 63 e9 bc 16 bf 94 3d
       -0.063222244 0.04832786 -0.028489824 0.07263009
000070 f0 23 3b be 5c e0 fe bd ed 6f 9c 3d df 32 aa 3d
       -0.18275428 -0.12445137 0.07638536 0.08310484
000080 5e cc 34 3e 3d d6 ee 3d 7c b3 e4 3d 0b 3b df 3c
       0.17656085 0.116619565 0.111670464 0.027249834
000090 df df c9 bd 0f 8e ac 3c 06 7b c8 3c a6 07 1e be
       -0.09857153 0.021063833 0.024472725 -0.15432605
0000a0 9b 62 f7 3d 59 d7 0c be ac 53 26 3e 09 a7 ee 3c
       0.120793544 -0.13754024 0.16242856 0.029132383
0000b0 5b a8 28 bd ab 90 ae 3d 5d ed 0f bd cc f1 b8 bd
       -0.04117618 0.08523687 -0.035138477 -0.09030494
0000c0 08 e6 38 3e d5 d1 a8 bd 9f 42 3c be 19 ce 81 3d
       0.180565 -0.08243147 -0.18384789 0.06338138
0000d0 78 8e a8 bd a9 72 58 3d c3 ef cc bd 15 16 b2 3d
       -0.08230299 0.052843723 -0.100066684 0.08695618
0000e0 cb e2 23 be 7a 63 13 be f8 16 22 3e a1 38 19 3e
       -0.16004483 -0.14393416 0.15829074 0.14963008
0000f0 48 4f 9f bb 39 b1 0d be eb 45 28 bd c9 6c dd 3d
       -0.004861746 -0.13837136 -0.041082304 0.10811765
000100 da b1 6f 3d b0 8d 11 be 7a ea 08 be 13 05 24 3e
       0.05851922 -0.14214206 -0.13370696 0.1601756
000110 01 f5 a8 bb f8 6b 06 be 0a 33 30 be b2 b3 d9 bd
       -0.00515616 -0.13127124 -0.1720697 -0.10629977
000120 67 8f ba 3d 2f 24 b2 bd 0f f1 32 3e 98 12 14 bc
       0.09109383 -0.08698308 0.17474769 -0.009037636
000130 cb 91 36 be 40 61 b4 3d b7 52 41 3e 34 f2 a6 bd
       -0.17829053 0.088076115 0.1887921 -0.08151665
000140 b0 28 90 bd 1a 20 83 3d 94 02 9b bd ba a5 9b 3d
       -0.070390105 0.06402607 -0.07568851 0.07599969
000150 3f 08 7b 3d a3 85 44 3e 57 5c 83 3d 3a 32 95 3b
       0.06128716 0.19191603 0.06414097 0.0045531066
000160 0e 8b 1c bd 6a 86 37 be ea 38 67 bd 9f f1 5d bd
       -0.03821855 -0.17922369 -0.05645076 -0.054185506
000170 7a 3c d9 bc b8 34 21 bd 69 a7 f0 3d aa 29 07 be
       -0.026518095 -0.039356917 0.11750681 -0.13199487
000180 2b ee c8 3d f7 17 1a be 3e 75 c3 3d 58 ba 0c 3e
       0.09811052 -0.15048204 0.095438465 0.1374296
000190 3d 7e 12 be 8c 29 c8 3c a5 53 a9 3c a0 e1 fe bd
       -0.14305969 0.024433874 0.020669768 -0.12445378
0001a0 3e 36 6f 3d a5 9f c0 bd 82 dc 40 3e 9c 65 2d bd
       0.05840134 -0.0940545 0.18834117 -0.04233323
0001b0 6e f4 f3 3d 51 b0 8e 3d fa ba b1 3d da 20 db 3d
       0.11911856 0.069672234 0.08678241 0.10699625
0001c0 a8 46 1d 3e dc f3 23 be 95 28 1c 3d 0e bb 68 3d
       0.15358984 -0.16010994 0.03812464 0.056819014
0001d0 a4 8d 07 3e 00 db 9d bd bc 2d 98 3d 6f bf e6 bd
       0.13237625 -0.077077866 0.07430598 -0.11266982
0001e0 93 34 c4 bd d6 62 98 bb 0a 91 31 3d 8b eb 17 3e
       -0.0958034 -0.004650454 0.04335121 0.14835946
0001f0 2b b4 3e 3e b9 ec b6 3d 60 49 3c bd 9b a2 35 bd
       0.18623416 0.0893187 -0.045968413 -0.044344526

norm1.weight f4 [128]
000000 56 34 80 3f 54 26 80 3f b5 2e 7e 3f ae 4d 7e 3f
       1.0015972 1.0011697 0.9929002 0.9933728
000010 d6 bf 7e 3f 8c cb 80 3f 8f b2 80 3f 15 cd 7e 3f
       0.9951147 1.0062118 1.0054492 0.9953168
000020 d9 89 7e 3f b9 19 7f 3f 8f 1f 7f 3f 6c 2f 80 3f
       0.9942909 0.99648625 0.9965753 1.0014472
000030 52 f4 7d 3f 7f 67 7f 3f cf 1b 7f 3f 45 48 7e 3f
       0.9920093 0.997673 0.9965181 0.99329025
000040 7e 03 7e 3f c7 4d 7d 3f 63 cd 7f 3f ce ae 80 3f
       0.9922408 0.98946804 0.9992277 1.0053346
000050 ee 56 7f 3f 26 86 7e 3f 45 e8 7d 3f c1 f0 7f 3f
       0.9974202 0.99423444 0.9918254 0.99976736
000060 79 f3 80 3f 56 d1 80 3f 9d 3d 80 3f 53 1d 7f 3f
       1.0074302 1.0063884 1.0018803 0.9965412
000070 7d 0b 80 3f 71 06 7f 3f 8f 20 7f 3f c2 71 7f 3f
       1.0003506 0.99619204 0.99659055 0.99782956
000080 90 c6 7e 3f 19 5e 81 3f 7f ae 80 3f 08 fb 7e 3f
       0.9952173 1.0106841 1.0053252 0.99601793
000090 67 4c 80 3f 38 3b 7f 3f 7b a2 80 3f a2 b3 7d 3f
       1.0023316 0.99699736 1.0049585 0.9910222
0000a0 e8 95 7f 3f 73 4c 7f 3f 9c f4 7e 3f 00 5b 7f 3f
       0.99838114 0.9972603 0.99591994 0.9974823
0000b0 31 f9 7d 3f dd 83 80 3f 6e 5a 80 3f 64 a6 7e 3f
       0.9920836 1.0040241 1.0027597 0.9947264
0000c0 8f 7a 7f 3f c0 d3 7f 3f 2d 2f 7e 3f 5d eb 7e 3f
       0.99796385 0.9993248 0.99290735 0.99577886
0000d0 b8 3d 7f 3f 56 59 80 3f 08 2a 81 3f 05 bd 7d 3f
       0.9970355 1.0027263 1.0090952 0.99116546
0000e0 25 40 80 3f de a0 7e 3f 0f db 7f 3f 1d f8 7f 3f
       1.0019575 0.99464214 0.9994363 0.99987966
0000f0 78 27 81 3f a3 9a 7f 3f d3 d8 7e 3f 48 1b 7d 3f
       1.009017 0.9984533 0.995496 0.9886975
000100 27 81 80 3f 15 1d 81 3f 58 a7 7e 3f de 05 80 3f
       1.0039414 1.0087 0.99474096 1.000179
000110 1b 04 7f 3f c9 6a 80 3f 24 fc 80 3f 0f 1d 80 3f
       0.9961564 1.0032588 1.0076947 1.0008868
000120 1d 08 81 3f 28 63 7f 3f 45 b9 7f 3f f6 6a 7e 3f
       1.0080601 0.99760675 0.99892074 0.9938196
000130 6f 77 7e 3f fe 74 7e 3f 16 6f 7e 3f f9 09 80 3f
       0.9940099 0.99397266 0.99388254 1.0003043
000140 5d cd 80 3f 43 72 7f 3f 2c 75 80 3f b2 da 7e 3f
       1.0062672 0.99783725 1.0035758 0.9955245
000150 02 94 7e 3f 1e 44 7f 3f e5 33 80 3f 2f 6a 80 3f
       0.9944459 0.99713314 1.0015837 1.0032405
000160 1b 9c 7f 3f 0c 32 7f 3f 73 a4 7f 3f 1b 46 7f 3f
       0.99847573 0.9968574 0.99860305 0.9971635
000170 74 62 7f 3f c1 44 7f 3f 88 ca 7f 3f 37 90 80 3f
       0.997596 0.99714285 0.99918413 1.0044011
000180 54 cd 7e 3f a7 9f 7d 3f a3 84 80 3f 91 44 7e 3f
       0.99532056 0.99071735 1.0040478 0.99323374
000190 59 d0 7f 3f 28 45 7f 3f 56 3d 80 3f b4 b7 7d 3f
       0.9992729 0.997149 1.0018718 0.99108434
0001a0 79 c2 7f 3f eb d4 80 3f 8e 23 81 3f 99 97 80 3f
       0.99906117 1.0064977 1.0088975 1.0046264
0001b0 53 23 81 3f 06 dc 7f 3f ee 09 7d 3f 4b 74 7e 3f
       1.0088905 0.99945104 0.98843277 0.993962
0001c0 c8 ae 7f 3f b0 99 80 3f 06 89 7e 3f 59 7c 7e 3f
       0.9987607 1.0046902 0.9942783 0.9940849
0001d0 a9 90 7d 3f 5e 6e 7f 3f 18 81 7e 3f 2f 1a 7f 3f
       0.9904886 0.9977778 0.9941573 0.9964933
0001e0 4f 58 80 3f 84 ac 7f 3f 44 10 80 3f 17 af 7d 3f
       1.002695 0.9987261 1.0004964 0.9909529
0001f0 16 81 80 3f 1b ed 7e 3f f5 89 81 3f 0d 85 7e 3f
       1.0039394 0.99580544 1.0120226 0.9942177

norm1.bias f4 [128]
000000 73 c6 d6 39 c3 6a a1 3b 1f fb 20 3a 1d 09 4a 3a
       0.00040965117 0.004926057 0.00061409356 0.00077070465
000010 a4 2d 42 bb 0e 56 d7 3b a3 8b 6a 3b 62 02 29 ba
       -0.0029629255 0.006571538 0.0035788796 -0.00064471934
000020 e8 94 5b bb 38 e6 90 bb 66 19 9e bb 2f af 13 3b
       -0.0033505503 -0.0044219755 -0.004824805 0.0022534837
000030 4c 68 7d bb be e3 e3 ba 61 0d 72 3b d7 7c 53 bb
       -0.0038666902 -0.0017386598 0.0036934244 -0.0032270455
000040 dc 7a ad ba 5c 2b f4 bb a7 94 af 3a d4 48 94 3a
       -0.0013235467 -0.007451458 0.0013395742 0.0011313208
000050 49 da 05 bc 26 49 93 bb 62 31 f4 bb 9a b3 a4 3b
       -0.008169719 -0.004494804 -0.007452176 0.005026293
000060 fe 73 f0 39 c9 97 21 3c 34 c5 7f 3a 0a 17 9d ba
       0.00045862788 0.009862849 0.00097568636 -0.0011985016
000070 f9 e5 8f 3b 6c c3 86 bb f8 29 c6 3a d0 cc 89 3a
       0.0043914285 -0.0041126516 0.0015118709 0.0010513309
000080 56 13 f3 ba f8 3d 1b 3c 64 d9 ef 3b 68 7d b1 ba
       -0.0018545191 0.009475224 0.007319616 -0.0013541402
000090 6c 27 a9 3a 59 2a f0 bb a3 7f ed 3b b7 16 a6 bb
       0.0012905425 -0.007329267 0.0072478815 -0.005068626
0000a0 2e 05 b7 bb bc 2b 2f b7 10 f5 8d bb 70 c2 18 bb
       -0.0055853343 -1.04409955e-05 -0.0043321922 -0.0023309253
0000b0 38 d0 f1 bb ff c1 86 3b 61 03 c4 39 a0 c3 8c bb
       -0.007379558 0.0041124816 0.0003738655 -0.0042957813
0000c0 29 03 99 bb ca 9c 3a bb 0f ca bf bb 1e b4 02 bc
       -0.004669566 -0.0028474801 -0.0058529447 -0.007977514
0000d0 e4 e7 76 ba c0 16 85 3b 28 36 80 bb 48 fa 22 ba
       -0.00094187097 0.00406155 -0.003912706 -0.00062171044
0000e0 16 49 b8 ba 90 12 76 bb ac 04 a1 39 0a 9c 88 39
       -0.0014059867 -0.0037547685 0.00030711794 0.000260562
0000f0 f8 67 e5 3b 24 b4 c1 3b 71 8a e7 bb 63 86 1b bc
       0.0070009194 0.005911367 -0.007066064 -0.0094924895
000100 f3 da b2 3b 50 35 e2 3b ff b6 b7 bb 15 14 00 3b
       0.0054582297 0.006903328 -0.0056065316 0.001954322
000110 f0 72 c8 ba 01 65 81 3b 13 85 c7 3b 8b 84 53 3b
       -0.0015293043 0.003948808 0.0060888617 0.0032275047
000120 91 d0 3d 3c ae e9 49 bb e2 28 79 3b b3 b6 dd bb
       0.011585371 -0.003080945 0.0038018753 -0.006766164
000130 00 ce e4 ba 16 4a 8c bb 54 85 d1 bb ef a2 b3 bb
       -0.0017456412 -0.0042812927 -0.006394068 -0.0054820697
000140 35 9b 3a 3c ba 1a e9 bb 3b e4 6b 3b e8 30 ea 3a
       0.011389543 -0.0071137818 0.003599419 0.0017867358
000150 7c e5 a6 bb dc 19 ca bb db da ec 38 5d ea 41 3b
       -0.0050932746 -0.0061676335 0.00011294122 0.0029589154
000160 a4 c7 90 3b 31 bf e2 ba df 63 a6 bb 89 d3 37 bb
       0.0044183303 -0.0017299411 -0.0050778235 -0.0028049669
000170 ed ce bd bb 4c c8 c1 3b 39 8b 78 39 7f 24 b7 3b
       -0.0057924897 0.00591377 0.00023702988 0.0055890675
000180 98 ee d7 3a 42 b6 2e bc b9 d7 c9 3a 6f 1c 96 3b
       0.0016474305 -0.010663571 0.0015399373 0.0045810263
000190 f4 a0 46 ba 3c 58 66 bb cd 57 2a bb da b4 37 bc
       -0.00075770845 -0.0035147807 -0.0025992275 -0.011212552
0001a0 5b 61 ae 3b 2d 3e 9a 3b 68 d9 d2 3b 98 bb 19 3c
       0.0053216643 0.004707119 0.0064346083 0.009383105
0001b0 ef 1e 3a 3c b7 78 d5 ba ae 13 c3 bb d1 c2 a9 bb
       0.011359914 -0.0016286586 -0.0059532737 -0.0051806946
0001c0 37 26 09 3b 15 19 2d 3b 9d ca 0b bc 14 da 1e bc
       0.002092732 0.0026412655 -0.0085321935 -0.009695549
0001d0 26 74 00 bc f8 bc 93 bb 5f 84 5c bc 80 0a 89 3b
       -0.007840192 -0.004508611 -0.013459294 0.00418216
0001e0 38 15 ff b7 06 8b 9b bb dd e5 6c 3b e7 8f eb bb
       -3.040825e-05 -0.0047467975 0.0036147751 -0.0071887854
0001f0 c2 f3 19 3b ec d7 87 bb 79 8f 5e 3c be 27 0d 3b
       0.0023491238 -0.004145613 0.013584011 0.002153858

norm1.running_mean f4 [128]
000000 bd 1e e8 bd d7 df a9 3d 89 13 b0 bd 23 14 c9 3d
       -0.11333988 0.08294647 -0.08597476 0.09818294
000010 fd c8 51 be f3 0e 07 3f 8d 39 f5 bd 93 15 06 bb
       -0.20486827 0.52757186 -0.119738676 -0.0020459637
000020 69 a1 17 3e a0 c3 1f be 98 3b 81 bd b2 9e 04 be
       0.14807667 -0.15601969 -0.06310195 -0.12951162
000030 7f d3 43 3d 2f ef 15 bc d7 55 fc be 09 95 9d 3d
       0.04780912 -0.009151264 -0.4928424 0.07694442
000040 c9 f8 e3 3c 9b ab 58 be 3c e7 f5 3d 63 ae e1 3a
       0.027828591 -0.21159212 0.12006995 0.0017218109
000050 57 48 52 bc 5d d8 7c be 55 c3 2a bc 8f 1e 45 3d
       -0.01283463 -0.24691911 -0.010422547 0.048124846
000060 42 81 6c 3e ae 40 78 3d 90 63 91 bd 80 34 01 be
       0.23096183 0.06060856 -0.07099068 -0.12617683
000070 69 9a 27 be 57 05 cc 3b 8f 75 3b bd 4a 7c 7c 3e
       -0.16367497 0.0062262225 -0.04576641 0.24656788
000080 71 11 f7 3e d5 0d a3 3e 53 3a f6 3d c5 5b 5f 3d
       0.48255494 0.3184649 0.12022843 0.054530878
000090 2c a9 fb bd 0d ce 14 3d 12 7d 18 bd 21 6a 04 be
       -0.12288126 0.036329318 -0.03722865 -0.1293111
0000a0 9a b6 47 bd 18 06 b2 bd 85 87 e5 3d 41 70 3b bd
       -0.048758127 -0.086925685 0.11207489 -0.04576135
0000b0 58 5a 9f 3d be 72 a3 3e fe 0a 1d 3e 44 02 21 3c
       0.077809036 0.3192348 0.15336224 0.0098272
0000c0 88 1e c9 bd b0 a7 45 be 34 b2 02 be 60 2c a9 3c
       -0.098202765 -0.19302249 -0.12763292 0.020651042
0000d0 de b4 a6 bd 67 11 51 3e ab 23 8b be 56 4e ab bd
       -0.081399664 0.20416795 -0.2717565 -0.08364551
0000e0 24 9e 85 be 2c a7 9f bb 8a 65 07 bd ed 2e 6f 3e
       -0.26097214 -0.0048722234 -0.03305582 0.23357745
0000f0 54 49 1b be d7 ee 31 be dc 00 fc 3d fe 99 fe 3e
       -0.15164691 -0.17376266 0.123048514 0.49726862
000100 ec 5f a8 3e 7f cd 22 3e ca f8 fa be f5 0f c5 3e
       0.32885683 0.15898703 -0.49017936 0.38488737
000110 00 8c 0d 3e a2 a3 65 3c 17 80 a3 3d a2 0a 39 3d
       0.13822937 0.014016064 0.079834156 0.045176156
000120 7d 79 a9 3e 9e 36 1c 3e 1b 36 27 3e 57 13 2b be
       0.331005 0.1525521 0.16329233 -0.16706596
000130 80 63 96 be fa aa 27 3e 1f 65 e0 3c 3c 6f fe 3c
       -0.29372787 0.16373816 0.027391968 0.0310589
000140 9c 1d bb be 8b 94 bf 3c f6 a3 20 be d8 d7 36 3e
       -0.36546028 0.02338626 -0.15687546 0.17855775
000150 5b 52 c4 3d 9a 9a 8d 3b 51 a8 93 3d a5 f7 aa 3c
       0.095860206 0.0043214085 0.07209838 0.02087004
000160 19 f6 2b bd a9 31 3b be 9c e2 06 bd 6e 6f e9 bd
       -0.041982744 -0.18280663 -0.032930955 -0.11398207
000170 e7 76 37 bc eb 8f 7a 3d 29 dc 92 3e 3c ba b3 3a
       -0.011197782 0.061172407 0.28683594 0.0013712118
000180 1c 0c d2 3c c9 f5 2f be 30 a9 b4 3b 05 e4 83 3d
       0.02564054 -0.17183603 0.005513333 0.06439976
000190 4e 95 28 be ac dc 11 3c 9f 1e bf 3e c9 45 2c 3d
       -0.16463205 0.00890271 0.3732805 0.04205874
0001a0 63 b1 bb 3e 05 b4 19 be 19 59 43 3e f6 2f 68 3e
       0.36658773 -0.15010078 0.19076957 0.22674546
0001b0 8c f4 fe 3d 93 e1 36 bd 3e 9f 58 3e ea 8d 0a 3d
       0.12448987 -0.044648718 0.21154496 0.033826746
0001c0 4c 4a ca 3c 09 25 17 be 87 0b 64 bd 20 9f 67 be
       0.02469363 -0.14760222 -0.055675056 -0.22619295
0001d0 98 9d 85 3e f8 c1 c2 3d 66 b8 91 3e 65 cc a4 bc
       0.26096797 0.09509653 0.28460997 -0.020116994
0001e0 65 78 63 be 6b 31 e5 3c 1c aa 07 be a6 57 da bd
       -0.22213896 0.027977666 -0.13248485 -0.10661249
0001f0 6f de 19 3e fa f2 93 3e b8 70 8d 3c 8f c3 34 be
       0.15026258 0.28896314 0.017265663 -0.17652725

norm1.running_var f4 [128]
000000 a7 9c 5b 3c ad 49 27 3c f0 9e fc 3c 8a d4 78 3c
       0.013404048 0.010210437 0.030837506 0.015187392
000010 1f ae 19 3d 7a 8d 86 3c 63 f0 06 3c 57 ee 12 3c
       0.03751957 0.016424883 0.008236024 0.008967957
000020 92 87 1b 3d eb 09 3d 3d 7a 33 82 3d d1 6a 18 3d
       0.037971087 0.046152037 0.063574746 0.037211243
000030 a7 97 8d 3c 6c 7c 0a 3d fb c8 96 3d eb 5c 66 3c
       0.017284228 0.033810064 0.07362553 0.014060239
000040 f1 92 4d 3c c2 0c 5d 3d 5d 63 11 3c 6d f3 d1 3c
       0.012547241 0.053967245 0.008873788 0.02562877
000050 9c 9d 3a 3c ed 93 86 3c b7 50 78 3c 48 e1 81 3c
       0.011390116 0.016427958 0.015155963 0.015854493
000060 2b 3a f2 3c 9f 7f 3d 3c 18 0e bb 3c b1 ac 84 3c
       0.029568752 0.011566072 0.022833869 0.016195627
000070 9a 26 04 3d 72 5d 05 3d 64 eb 3e 3c f2 85 49 3d
       0.032263376 0.03255982 0.011652801 0.049200006
000080 2e 67 a9 3c 54 ae 9a 3c c8 cd b3 3c 8b e1 0e 3d
       0.020679083 0.018881954 0.02194871 0.034883063
000090 ac 51 fc 3c 1c cd 36 3c 9a 09 95 3c a0 0e 41 3c
       0.030800663 0.0111573 0.018193055 0.011783272
0000a0 c4 b0 07 3d 27 d5 12 3c b0 60 b6 3c 58 31 25 3d
       0.03312756 0.008961952 0.022262901 0.04033026
0000b0 e0 b9 0a 3c 37 22 12 3d 3c 61 58 3c ee d4 cd 3b
       0.008467168 0.03567716 0.013206776 0.0062814867
0000c0 7c 8c 81 3c e2 e2 1a 3c ed 27 bb 3c 81 c2 8f 3c
       0.015814058 0.009453507 0.022846187 0.017548801
0000d0 79 40 02 3d 86 64 08 3c 13 09 e5 3c 50 1d 51 3c
       0.031799767 0.008324748 0.027958428 0.012763336
0000e0 e3 e6 1c 3d 59 92 06 3c 8b ed e1 3b 9e 07 2a 3d
       0.03830613 0.008213603 0.0068947724 0.04151117
0000f0 58 e6 9a 3c dc a2 51 3d 45 a6 ec 3b 7b 9d 0d 3d
       0.018908665 0.051180705 0.0072219693 0.034574013
000100 67 f1 e6 3c 94 76 8d 3c a2 a1 8a 3d bd 43 df 3d
       0.028191281 0.017268457 0.0676911 0.10901592
000110 3c 65 15 3d 00 0b 80 3c e4 cf 2a 3d 59 d1 31 3c
       0.036473498 0.015630245 0.041702166 0.010853135
000120 d9 ea 91 3c 77 1a 24 3d be ea 2b 3d 6c 09 24 3d
       0.01781218 0.0400643 0.041971914 0.040048048
000130 4c 96 a9 3c 8b 70 81 3c b2 c8 8a 3c 01 ec 80 3c
       0.02070155 0.015800735 0.016941402 0.015737535
000140 a5 5f a1 3c ce 59 29 3c db d2 2b 3d 31 66 bc 3b
       0.019698927 0.0103363525 0.041949134 0.005749487
000150 84 c0 be 3c 0d 00 4d 3c dc 13 c9 3c 8d 87 a8 3c
       0.023285158 0.012512219 0.024545603 0.020572448
000160 34 17 80 3c d6 24 e1 3b 84 ff c6 3b 7c c0 0c 3d
       0.015636064 0.0068708463 0.0060729403 0.034363255
000170 14 df cd 3c d9 18 50 3d 18 2f c7 3c d1 a0 17 3d
       0.025130786 0.050804947 0.024314448 0.0370186
000180 f3 75 0a 3d 35 4c 59 3c a4 43 fb 3c 26 0b ac 3c
       0.03380389 0.013262798 0.030671902 0.02100141
000190 8f 36 75 3c ae 72 a5 3c de f0 55 3d 48 35 14 3d
       0.014966621 0.020196285 0.052231662 0.036183625
0001a0 d6 d0 6a 3c 72 43 42 3c d0 58 90 3c ed d1 33 3d
       0.014332017 0.0118569005 0.017620474 0.043901373
0001b0 a7 92 84 3c 69 ad 7e 3c 48 fa dd 3c 08 8d 95 3c
       0.01618321 0.015544274 0.027096882 0.018255726
0001c0 4f ba 3c 3d e3 2c ba 3c d0 8f 12 3d 39 b6 a4 3c
       0.046076115 0.022726482 0.03578168 0.020106422
0001d0 2a 58 4b 3d 9c 56 51 3c 9e c8 2a 3c af 6a 0a 3d
       0.049644627 0.012776997 0.010423807 0.033793148
0001e0 89 aa 31 3d 07 82 9a 3b 3e d1 1f 3d be 7e 90 3d
       0.043375526 0.0047152075 0.03901791 0.07055424
0001f0 d0 1b 9d 3c 2d be 4f 3d 80 cc 9e 3c fb e8 e8 3c
       0.019178301 0.050718475 0.019384623 0.028431406

convs.0.bases_weight f4 [128, 64]
000000 1a 7a c2 bd 29 76 6b bd a3 c8 29 be f6 ae 50 bd
       -0.09495945 -0.057485733 -0.16580443 -0.050948106
000010 d6 e8 90 bd bb da 83 3d 40 0f 04 3c ca bd 43 bd
       -0.0707566 0.06438204 0.0080602765 -0.04778842
000020 be 3a 2a be 8b b7 62 3d f4 98 e4 bd c6 c3 4e 3d
       -0.16623971 0.05535082 -0.11161986 0.050479673
000030 cb 32 36 3e 94 59 f1 bd 1f 11 bb 3d fd c1 82 3d
       0.17792813 -0.11784664 0.09134125 0.063846566
000040 7e 43 d0 bd 7d 57 a3 3d 36 69 1d 3c fd 8d cf bd
       -0.10169123 0.079756714 0.009607604 -0.10134504
000050 7e 6b 2b 3e 7e c5 91 3d 42 64 03 bd 42 78 af bb
       0.16740224 0.07117747 -0.032078035 -0.005354912
000060 73 0f b9 3d 3b 0d 58 3d 4f b3 5b 3d 58 8a 92 3c
       0.0903615 0.052746993 0.0536378 0.017888233
000070 b5 0d 08 3e d1 6e 0b be 1d 38 72 bb 10 6b 18 3e
       0.13286479 -0.13616492 -0.0036959716 0.14884591
000080 9a b2 de 3b ed a3 22 3e 2c e9 15 3e c6 28 f6 bb
       0.0067961933 0.15882845 0.1463973 -0.007512185
000090 cd 16 13 bd 7f 90 77 3d 3c 1e 6f 3c 65 eb bb 3d
       -0.035910416 0.060440537 0.014594611 0.09175757
0000a0 dd 2b bd bd 5b 4b 22 3e 52 8d 39 bd af ef 99 3d
       -0.09236882 0.15849058 -0.04530079 0.07516419
0000b0 7b ba 98 bb d5 4f c8 3d 83 fe e2 3d 69 3f 83 bd
       -0.004660902 0.09780852 0.110837005 -0.06408579
0000c0 a7 53 33 be 33 a0 2f 3e 38 7f ce 3d e9 e1 03 bc
       -0.1751238 0.17150955 0.10082859 -0.008049467
0000d0 75 51 03 3e 25 40 d2 3d c3 c2 23 be be 01 ca 3c
       0.12824042 0.10266141 -0.15992264 0.024659034
0000e0 01 30 30 bc 3c 51 fc bd d0 2f 32 3e 66 2c e7 3d
       -0.0107536325 -0.12320182 0.17401052 0.11287765
0000f0 ac 71 24 be ac 96 1d 3e ca c4 d6 bd 05 ea 30 3e
       -0.16058987 0.15389508 -0.10486753 0.17276771
000100 d3 e6 01 bd 21 00 c2 bd a6 66 10 3e 7e 94 76 3d
       -0.03171427 -0.09472681 0.14101657 0.060200207
000110 b5 63 0f be af b2 2a bd b3 a9 4a 3d 6c 80 2f 3e
       -0.14002879 -0.041674312 0.049478244 0.17138833
000120 f8 f8 1c be 0d 34 2b be 63 52 19 ba f2 52 1a be
       -0.15329349 -0.16719075 -0.00058487634 -0.15070704
000130 1c 57 2c 3e a4 05 f0 3d 6c e0 10 3c 5c 7f 17 3e
       0.16830105 0.11719826 0.008842569 0.14794677
000140 0b 09 69 bd 8a 78 0b 3e c0 01 37 3e 66 09 b5 bd
       -0.05689339 0.13620201 0.17871761 -0.08839683
000150 bb 99 63 3c ff 5a 71 3d dc 83 d1 bd 25 78 83 3d
       0.013891633 0.05892467 -0.10230228 0.064194
000160 b1 33 70 3d 42 1b ad bd bf 76 bb 3d 57 d8 08 3c
       0.058643047 -0.08452465 0.091535084 0.008352361
000170 bf 5d aa bd be 11 b0 3d 69 05 1b bc 75 c7 01 3e
       -0.08318662 0.08597134 -0.009461739 0.12673743
000180 4f ad 91 3d 51 a6 37 be e5 cb e6 bd 6b fc f1 3d
       0.07113134 -0.17934538 -0.112693585 0.11815723
000190 60 ca 71 3d 34 1a 19 bd 28 1b 2d be 73 b4 38 bd
       0.05903089 -0.037378505 -0.1690489 -0.045093965
0001a0 ec 7c d9 bc 23 40 c9 bb 70 eb 25 3e ee f0 83 bc
       -0.026548825 -0.006141679 0.16203094 -0.016106095
0001b0 8c 12 2d 3e 08 d0 ed 3d 77 ef 04 3e eb 4d 8a 3d
       0.16901606 0.116119444 0.12981974 0.06753143
0001c0 0f 03 38 3c cf ce 3f be 42 55 19 3e d1 cf fb 3d
       0.011231198 -0.18731235 0.1497393 0.12295497
0001d0 ff 59 01 be e5 e2 80 3d 96 56 b3 bc ad 9c f5 3c
       -0.12631987 0.06293277 -0.021891873 0.029981935
0001e0 15 c1 e6 bd 19 d4 cc bd 81 67 8f bd 82 33 95 bb
       -0.11267296 -0.10001392 -0.07002164 -0.0045532594
0001f0 f4 8e 88 3d 69 40 13 3d 41 62 68 3d 39 3c 7b bc
       0.06667891 0.0359501 0.056734327 -0.015334182
000200 1f 2d 08 be 8c 8c ec 3d 8f fb 17 be 2b 80 97 bd
       -0.13298462 0.11550245 -0.14842056 -0.07397493
000210 06 7d 23 be c5 14 e6 3c 1a 88 07 3b 85 00 a3 3d
       -0.15965661 0.028086076 0.0020680488 0.079590835
000220 5e 17 1f 3e 3b 51 84 3d 62 5a ec 3d f2 69 b3 3d
       0.15536258 0.06460806 0.11540677 0.08760442
000230 ab fc 9f 3d 6c f6 23 be 01 05 77 3c 40 ff e4 3d
       0.078118645 -0.16011971 0.015076877 0.111814976
000240 93 8f 3f bd 26 6f 0e be c9 cd 1c be 48 9c da bd
       -0.046767782 -0.13909587 -0.15312876 -0.106743395
000250 a1 60 13 3d 2f e4 2a be 75 84 c9 bc e0 7b e3 bd
       0.035980824 -0.16688608 -0.024599293 -0.11107612
000260 84 86 05 3e 8f b4 3d 3d b3 95 09 3d 01 a4 8a 3b
       0.13039595 0.046314772 0.03359003 0.0042309766
000270 cb 49 9c bc b4 94 15 be 2b c4 02 3d 2b 61 8d bc
       -0.019078156 -0.14607507 0.03192536 -0.017258247
000280 69 22 68 bd f5 09 30 3d e2 1b 1e 3e f4 d1 f3 3d
       -0.05667344 0.042978246 0.15440324 0.1190528
000290 80 0c 38 be 84 97 28 be 93 4b 45 bd c8 40 28 3e
       -0.17973518 -0.16464049 -0.048167776 0.16430962
0002a0 f4 ff 90 bd b8 80 c8 bd 37 b5 b7 3d 4a 6c e7 3d
       -0.07080069 -0.09790176 0.08970111 0.112999514
0002b0 e3 1e e7 3d b3 1b 86 bd 19 76 5f bd 63 1e 12 3e
       0.11285188 -0.06548252 -0.054555986 0.14269404
0002c0 fd f2 07 be 11 b3 7b 3d 3b 52 eb 3d 91 11 6e 3d
       -0.13276286 0.061450068 0.114902936 0.05812222
0002d0 aa 11 f3 bd ab d1 eb 3d 2f d7 8d bc d3 a6 99 bd
       -0.118686035 0.115146 -0.017314522 -0.07502522
0002e0 42 29 de 3d 29 98 d2 3d 09 65 9b 3d 78 66 4d bd
       0.10847713 0.102829285 0.0758763 -0.05014655
0002f0 0b 8b 03 3e cf 1d 25 3e 07 2c 08 be d9 66 ac 3d
       0.1284601 0.16124652 -0.13298045 0.08418054
000300 28 8f 90 3d a3 0f d7 bd f8 36 87 bd 40 26 61 bd
       0.07058555 -0.10501029 -0.06602281 -0.05496812
000310 34 74 4b 3c d2 0e 85 bc 39 15 e8 bb 29 89 d8 3d
       0.012417842 -0.016242418 -0.007082608 0.10573036
000320 d4 b5 03 be 45 f5 dd bd 38 86 83 bd d4 25 18 3e
       -0.1286233 -0.10837797 -0.064220846 0.1485818
000330 96 14 b1 bd 25 07 cb bd f0 8c c8 3d 7b 93 f5 3d
       -0.086465046 -0.09913472 0.09792507 0.1199102
000340 ec 42 da bc ad c9 26 3e a8 69 17 bc e0 ab 09 3e
       -0.026643239 0.1628787 -0.009241499 0.13444471
000350 84 d4 2b be fa 0b 18 be cf e4 4f 3d 05 8a ec bd
       -0.16780287 -0.14848319 0.05075532 -0.11549763
000360 12 b8 08 be dc 7c 16 be 57 ca 19 3e b0 00 23 3e
       -0.13351467 -0.14696068 0.15018593 0.15918231
000370 dc 14 17 be 3a 7b cc 3c 3d 5e 83 3d 8c e3 7b 3c
       -0.14754051 0.024961103 0.06414459 0.015374076
000380 12 88 8f bd ac 86 eb bd 1a 54 ce bc 56 ba 19 be
       -0.07008375 -0.11500296 -0.025186587 -0.15012488
000390 1d fa 20 3e 16 ef 1c 3e 47 c3 1d 3e ea a7 43 3d
       0.1572041 0.15325579 0.15406524 0.047767557
0003a0 96 17 b0 bd 42 5f 37 3d a9 8d f5 ba a2 38 00 3e
       -0.08598249 0.04476858 -0.0018734235 0.12521604
0003b0 14 fb 96 bd 39 2f 81 3d 0a de cf 3d b7 dd df bb
       -0.07372108 0.06307835 0.101497725 -0.0068318504
0003c0 43 67 c8 3d 3e f3 ef 3d e6 36 fe bd 85 6f cc bd
       0.097853206 0.11716317 -0.12412815 -0.09982208
0003d0 fe 74 31 3c 2e cc bc bd 63 7f 7b 3d 12 8f bc 3d
       0.010831116 -0.09218632 0.061400782 0.09206976
0003e0 a8 b3 fd 3d 01 43 03 be ca ae 82 3d 23 d9 01 3e
       0.12387782 -0.12818529 0.063809946 0.12680487
0003f0 d6 a3 e1 bd dc bf f8 bd d4 1f ea bd b3 5d b3 bd
       -0.11017577 -0.12145969 -0.11431852 -0.08758106

convs.0.bias f4 [128]
000000 d8 64 ae b9 83 65 25 b9 31 a4 33 b9 04 70 67 b9
       -0.00033263 -0.00015773442 -0.00017131936 -0.00022071606
000010 63 ff e4 38 83 b6 3b ba 3e 68 36 39 db 52 fe b8
       0.00010919457 -0.000716068 0.00017395706 -0.00012127097
000020 94 ad 9b b9 8d f7 82 38 33 36 4a b9 ca f3 9e 39
       -0.0002969323 6.244993e-05 -0.00019284412 0.00030317745
000030 7a 8e 4c b9 e9 a9 85 b9 dc aa ab 39 7d 05 1e ba
       -0.00019508033 -0.0002549433 0.00032742962 -0.00060280395
000040 cd 31 3a 38 61 d6 f7 39 42 34 c8 b8 2c f8 9d b9
       4.4392236e-05 0.00047271236 -9.546477e-05 -0.00030130276
000050 ee 33 cd b8 a8 91 ef b9 92 07 99 b9 83 88 a9 37
       -9.7848344e-05 -0.00045694155 -0.00029188074 2.0209938e-05
000060 e1 f9 5a 39 4c 89 8f b8 bc 84 b6 b9 c3 68 e6 b9
       0.00020883187 -6.844345e-05 -0.0003481264 -0.00043947072
000070 42 db dd b7 1a 32 8e b8 f5 3f 12 38 60 bf c2 b6
       -2.6447353e-05 -6.78042e-05 3.4868677e-05 -5.8039295e-06
000080 47 7c 95 39 00 96 b4 b9 81 48 b2 b9 b5 59 35 b8
       0.00028512088 -0.00034444034 -0.00034004825 -4.323731e-05
000090 9e 3b db 37 0c 1c ee 39 d9 67 1f 39 17 ea cc 39
       2.6134596e-05 0.00045415794 0.00015202108 0.00039084323
0000a0 f1 bd ed b8 33 a9 bf b8 96 9a 81 39 c6 6a 30 b9
       -0.0001133642 -9.1391055e-05 0.00024719973 -0.00016824444
0000b0 62 73 75 38 f2 c0 e3 b8 6e f2 ab 37 e6 6b 30 b8
       5.852001e-05 -0.00010860142 2.0497679e-05 -4.2062158e-05
0000c0 a7 c3 8c 39 fd 10 19 39 12 15 73 b9 24 d6 36 39
       0.00026848653 0.00014597546 -0.00023182135 0.00017436646
0000d0 dd e5 9c b6 ff 8c 3d b9 61 a8 81 39 60 3c 03 38
       -4.675922e-06 -0.0001807697 0.0002473025 3.1289062e-05
0000e0 aa 2b f7 38 e5 f8 ef b9 b6 9b 13 39 9d 12 15 39
       0.00011786011 -0.00045771073 0.0001407702 0.00014216681
0000f0 56 22 58 37 21 8f 05 3a b0 2b 11 b9 7e f7 18 b9
       1.2882598e-05 0.0005094875 -0.00013844552 -0.00014588048
000100 02 85 86 b9 c0 8d 50 b6 ac b4 f2 36 eb 46 f8 38
       -0.0002565757 -3.1076925e-06 7.233195e-06 0.00011838771
000110 89 02 9b b9 e5 2e 56 b9 64 8a 86 b8 11 c8 c3 b8
       -0.00029565793 -0.000204261 -6.415395e-05 -9.33559e-05
000120 45 09 2b ba 4b 51 81 39 c0 66 48 b9 4e 27 7b b9
       -0.00065245136 0.00024665365 -0.00019111764 -0.00023951867
000130 fa 15 f1 39 b2 df 00 38 98 7f 31 ba 53 13 2e b9
       0.00045983476 3.072591e-05 -0.0006771027 -0.00016601132
000140 8f dc ec b8 ea 7c d8 39 01 84 d6 b9 25 c4 fb b8
       -0.00011294439 0.000412918 -0.0004091561 -0.000120051474
000150 1e 0e 89 39 67 20 2f 38 a2 80 32 b9 58 36 f8 39
       0.00026141194 4.175343e-05 -0.00017023322 0.00047342735
000160 30 7c 0d 39 e2 a8 97 b9 d1 22 ff b8 06 16 c3 b9
       0.00013493071 -0.00028926792 -0.000121658326 -0.00037209707
000170 8a 2e 22 39 b8 9e 95 b9 99 f8 5a b9 00 33 28 39
       0.00015466861 -0.0002853775 -0.0002088271 0.00016040727
000180 8a e6 8f b9 0b 34 3e 39 40 a4 9a 39 12 40 d7 b9
       -0.0002744685 0.000181392 0.00029495545 -0.00041055732
000190 aa bf 1d ba ba e7 3d 39 60 1c 8b b9 88 5e 0b 3a
       -0.0006017635 0.0001811077 -0.00026533287 0.00053165155
0001a0 79 23 17 39 32 da cd 39 50 bb 22 b8 1c 65 b5 38
       0.00014413697 0.00039263215 -3.8798258e-05 8.649586e-05
0001b0 cd fb 97 b9 b9 e1 2e b8 8d 92 47 39 a4 50 4d b8
       -0.0002898857 -4.1695053e-05 0.00019032713 -4.895091e-05
0001c0 87 e2 4c b7 cf c7 39 b8 48 cd 73 39 95 9c 71 39
       -1.221209e-05 -4.4293523e-05 0.00023250759 0.00023041882
0001d0 44 e9 01 39 cd f5 66 39 32 03 68 38 9b 33 b3 b9
       0.00012389297 0.00022026077 5.5316086e-05 -0.0003417999
0001e0 4b 63 f0 b8 e4 6e df b8 07 ae 41 39 3d 8a e2 b9
       -0.000114625866 -0.000106541236 0.00018470745 -0.00043209075
0001f0 ec 96 77 38 be 62 aa b8 29 30 18 b8 23 70 32 38
       5.9029946e-05 -8.124624e-05 -3.6284477e-05 4.2542943e-05

convs.0.comb_weight.weight f4 [384, 128]
000000 00 b3 f3 3c 38 06 0c bd dd 73 7f bc ac 3d a2 3d
       0.02974844 -0.03418562 -0.015591589 0.07921919
000010 01 a2 a0 3d d1 b1 5a bc eb f4 80 bd 2d a9 10 bd
       0.078434 -0.013348059 -0.062967144 -0.03531759
000020 b7 33 31 3b a4 09 1a 3d 3b eb 6e bc d4 a1 1a bd
       0.002703888 0.03760685 -0.0145824505 -0.037751988
000030 e9 39 9a 3c 29 28 94 3d 31 87 3d 3d d2 a0 8d bd
       0.018826442 0.072342224 0.046271507 -0.0691544
000040 68 9f 75 bd 63 fa 12 3d 94 7c 3b 3d d7 01 53 bd
       -0.059966475 0.03588332 0.045773104 -0.051515426
000050 1f 5d 33 3c a8 86 1e bd 2d 9b d8 3c 26 83 a4 bd
       0.010947495 -0.038702637 0.026441181 -0.08032827
000060 24 68 75 b9 0a 87 02 bb e6 9e 94 bd 3e 7d a2 bd
       -0.00023403816 -0.0019916915 -0.0725687 -0.07934044
000070 ae 08 5a bd ae 5d 96 3d dd 91 0c ba 21 1b 8b bd
       -0.053230934 0.07342087 -0.00053623115 -0.06792284
000080 48 4d 5f 3d d7 00 90 3d 8c 32 76 3d ca 4d 5a 3b
       0.05451706 0.0703141 0.0601068 0.0033310526
000090 a0 55 b4 bd 41 5b 9b bd 9c be c4 3c cd d4 51 bd
       -0.08805394 -0.07585765 0.02401667 -0.051228333
0000a0 8a 31 00 3b 5c 19 f7 bc 3f 3a 61 bd 7e 65 a6 bd
       0.0019560778 -0.03016346 -0.05498719 -0.08124827
0000b0 a2 ee 42 bc 35 00 34 bd a8 69 93 bd b2 b5 51 3d
       -0.011897715 -0.04394551 -0.07197887 0.05119867
0000c0 c1 ea 0d 3d f8 f2 aa bd 30 a8 1e 3d 01 2d 4f 3d
       0.034647707 -0.08347124 0.038734615 0.05058003
0000d0 63 ef af bd 68 cb de 3c 42 f8 84 3d 35 75 97 bd
       -0.08590581 0.027196601 0.06492664 -0.07395402
0000e0 c8 1a 54 bd a1 df 21 3c ee c1 82 3d cb 7b 93 bc
       -0.051783353 0.009879977 0.063846454 -0.018003365
0000f0 9b 5c 27 3d 4e 86 2b 3c 34 49 44 3d d8 a3 69 bd
       0.0408598 0.010469032 0.047921374 -0.05704102
000100 fd ab b5 bd 49 27 6d bd e4 d3 a3 bd d8 39 35 3d
       -0.08870695 -0.057898793 -0.07999399 0.044244617
000110 eb 68 3d 3c 14 eb d4 3c ec 6f c9 3c 9a d5 05 bd
       0.011560659 0.025991 0.024589501 -0.03267441
000120 b8 f8 1f bc 93 13 8e 3c 3a 9d a9 3d ec a1 a6 bd
       -0.009763889 0.017343318 0.08281942 -0.08136353
000130 4d 8b 9f bc 82 d9 48 bd 48 43 b7 bb c3 c5 a7 3c
       -0.019475603 -0.049035557 -0.0055927373 0.020480042
000140 99 cf 97 3d 21 73 a4 bd 8b d0 96 3d 05 8e b1 bb
       0.07412643 -0.080297716 0.07363995 -0.0054185414
000150 11 f0 7f bd 83 13 21 3d fe 46 98 bd c5 d8 64 bd
       -0.062484805 0.03932525 -0.07435416 -0.05587079
000160 61 cd 2f bc a9 58 c1 3c 38 2f 1a 3d b2 ed e3 3c
       -0.0107301185 0.023601847 0.037642688 0.027823303
000170 63 f8 17 bc 90 d8 d2 bc e5 14 b9 3d 09 ce 87 3d
       -0.009275529 -0.02573803 0.090371884 0.06631095
000180 99 0c 42 3d fa db 94 3d 21 c2 96 3d 81 90 94 3c
       0.047375295 0.0726852 0.07361246 0.018135311
000190 6f 55 35 bb 8c e8 00 bb 93 64 71 bd 7c ed 11 bd
       -0.002766933 -0.0019669859 -0.058933806 -0.035626873
0001a0 12 48 75 3d 67 4d 40 3d d4 dc ae 3d 88 b6 bb bd
       0.059883185 0.046948817 0.08538213 -0.091656744
0001b0 1f bd 83 bd 4e 72 4f bd 93 fc d7 3c 3d 9c b3 bd
       -0.06432556 -0.05064612 0.026365554 -0.087700345
0001c0 70 2e 6b bb 3f c8 a6 3d b7 72 84 3d 81 24 a4 3d
       -0.0035885833 0.08143663 0.064671926 0.08014775
0001d0 6c 8c 8a bd 86 67 6b bd ef 20 b8 3d 1f 73 af bd
       -0.067650646 -0.057471775 0.089906566 -0.085668795
0001e0 12 fc 57 bc 93 a0 60 bd 01 e0 f7 bc a0 5b 98 3d
       -0.013182657 -0.054840636 -0.03025818 0.07439351
0001f0 bc 4e e7 3b d3 22 8a 3d 87 a6 cf bc 1b 4e 97 3d
       0.0070589464 0.067449234 -0.025347961 0.07387944
000200 e6 d5 98 bd e9 79 81 3d 61 96 28 3b 0f 8e cc 3c
       -0.07462673 0.06322081 0.0025724398 0.024970083
000210 ce d8 33 3d b5 7b 8d 3d 07 61 28 bc c4 c1 9a 3d
       0.043907933 0.06908361 -0.010277039 0.07556489
000220 ab dd f7 bc d7 fa 42 3d b5 36 e7 3c a4 dd a0 bd
       -0.030257067 0.0476025 0.028224329 -0.078547746
000230 fd fd 75 3d 92 5d 81 3c 61 3a 64 3d 5d fc 1f bd
       0.060056675 0.015791688 0.055719737 -0.03905903
000240 13 2d 73 3d 8f 28 b9 3c ff 6b 8f 3d 5d 2a f3 bc
       0.059369158 0.022602348 0.070030205 -0.029683286
000250 83 3d 17 bd 3e ae 90 3d 9b 53 60 bd 78 27 6f bd
       -0.036923897 0.07064484 -0.054767232 -0.05838725
000260 60 93 a4 bd 0d 92 ae bd 98 10 72 bd c7 d0 90 3c
       -0.08035922 -0.08523951 -0.059097856 0.017677678
000270 89 62 94 3c 27 ef 37 3d 91 11 10 bd ac 0e 81 bd
       0.018113391 0.044905808 -0.035173003 -0.063016266
000280 ae 11 43 bc f2 77 11 3b 75 30 1b 3d a2 9f a8 bd
       -0.011906071 0.0022196737 0.03788801 -0.082335725
000290 dc 68 63 3d 66 79 72 3d 60 46 66 bc 06 06 ae 3d
       0.055519924 0.059197806 -0.014054865 0.08497243
0002a0 d7 a3 a2 3d 4f 0a 91 3d 1b e4 4b bc cd e5 5d bd
       0.07941406 0.07082044 -0.012444521 -0.054174233
0002b0 15 86 af bd 98 3a fb bc 61 73 07 bd db df 62 3d
       -0.08570496 -0.030667588 -0.03306902 0.055389266
0002c0 0d 66 53 3d 01 fe 44 3b a6 20 6e bd 49 b2 d5 bc
       0.051610995 0.0030058625 -0.058136605 -0.02608599
0002d0 54 9d 97 bc 2f d1 1e 3d c5 ba a6 3d c5 29 7d 3d
       -0.018507637 0.03877371 0.08141092 0.061807413
0002e0 22 00 9e 3d 3b 6b 47 3d 8b 6b 7a bd c2 20 c0 3c
       0.07714869 0.048686247 -0.061137717 0.02345312
0002f0 08 a9 9a bd 38 22 00 3d 5f e9 39 3c 98 76 22 3d
       -0.075517714 0.031282634 0.011347144 0.03966388
000300 f9 38 72 3d 3b 78 e5 3c 11 7a 82 3d 94 63 ab bd
       0.059136365 0.028011432 0.063709386 -0.083686024
000310 f7 a3 10 bb a0 4b c3 bc d9 59 f0 bb 41 c9 1e 3d
       -0.0022070387 -0.023839772 -0.0073349294 0.03876615
000320 ab a1 31 bd 4d a3 43 3d 51 f6 83 bd 03 14 8d bd
       -0.04336707 0.047763158 -0.064434655 -0.068885826
000330 59 87 aa bd e2 e9 6c bd 56 79 99 3d de 71 9d bd
       -0.08326597 -0.057840236 0.07493846 -0.07687734
000340 87 51 9c 3d 17 1d a7 bc cf 6f 4a bc 5b 01 95 bc
       0.076327376 -0.020399613 -0.012355759 -0.018189123
000350 65 5d 97 3d 4b 24 eb 3b de 51 93 3d e1 75 a1 bd
       0.073908605 0.0071759573 0.07193349 -0.07883812
000360 14 60 d0 3b 34 45 a3 3d 1a d0 aa bd 09 73 8c bd
       0.0063591097 0.07972184 -0.083404735 -0.06857879
000370 9d 67 7f 3c 9a 03 6b 3d 9e b5 8f b7 53 e0 7a bc
       0.015588668 0.05737648 -1.71315e-05 -0.015312272
000380 35 bc 8d 3d 3d 26 9b 3d d0 4e 91 3c aa 66 8a bc
       0.06920663 0.07575653 0.017737776 -0.016894657
000390 dc 11 c4 3c ca ef 82 39 c0 1f 6d 3c 5b 7b 90 3d
       0.023934297 0.0002497419 0.014472902 0.07054778
0003a0 ba 25 70 bd be 9c ad bd 01 23 84 bd 78 ec 6e bd
       -0.05862973 -0.08477162 -0.06451989 -0.058330983
0003b0 28 38 91 bd ac e1 a3 bc 32 9e 9b 3c 48 f1 18 3c
       -0.07090789 -0.02000507 0.018996332 0.00933487
0003c0 99 55 1e bc 96 49 2d bd 54 e4 56 3d b5 94 9c bd
       -0.009663963 -0.042306505 0.052463844 -0.07645551
0003d0 c5 19 6e 3d ff 47 9a 3d 40 33 62 3d 8e 1a a7 bd
       0.058130044 0.075332634 0.055224657 -0.08159362
0003e0 3a 21 da bc 99 0b 33 bd 8f d3 92 bd 34 b8 61 bd
       -0.026627172 -0.043712232 -0.07169258 -0.05510731
0003f0 4e 60 18 bd ca 02 4e 3d 63 26 86 ba f1 b0 a5 3d
       -0.03720122 0.05029563 -0.0010234829 0.080903895

convs.0.comb_weight.bias f4 [384]
000000 92 58 d2 3c 30 5b 50 bd 15 fc ed bc 6a 7a 74 bc
       0.025677 -0.050868213 -0.029050866 -0.014921764
000010 1a 85 21 3d a2 69 8d bd c8 4e 90 bd 1e f6 4e bd
       0.039433576 -0.069049135 -0.07046276 -0.050527684
000020 30 89 6c bd df 78 09 bd 53 70 03 3d c8 fc a7 3d
       -0.05774802 -0.033562537 0.032089543 0.08202511
000030 a5 de 2f bd 93 0c 98 bd dc 2a 80 bd f0 99 9f 3d
       -0.04293694 -0.07424273 -0.06258175 0.07793033
000040 45 20 59 bd 4e a9 a1 bd da 44 50 bd 0f da ed 3c
       -0.05300929 -0.078936204 -0.050846912 0.029034643
000050 14 63 a5 bd 6a 4c 25 3d 21 55 9c 3d 91 f3 64 3d
       -0.08075538 0.040356077 0.076334246 0.055896346
000060 d0 e8 b4 3d 10 09 11 3d 48 a8 7a 3d 63 66 a9 3d
       0.08833468 0.035409033 0.06119564 0.08271482
000070 a0 6c 35 3d e4 4c 91 3d c2 21 92 3d fb 69 70 3c
       0.044293046 0.07094744 0.07135345 0.014673705
000080 71 fd 8b 3c a3 b6 15 3d 28 89 73 bd 91 3e 9f bd
       0.017088624 0.03655113 -0.059456974 -0.077756055
000090 81 be 83 bc 53 2a 9a 3d 4d 66 ff bb 77 a0 97 bd
       -0.01608205 0.07527604 -0.0077941776 -0.07403653
0000a0 f9 62 b6 3c 92 95 81 3c 45 3f 80 3d 8f f0 a3 3d
       0.02226399 0.015818391 0.06262068 0.08004867
0000b0 45 e8 56 bd a4 d0 f3 3c ad 1d ad bc 72 70 a2 3c
       -0.052467603 0.029762574 -0.021132315 0.019829009
0000c0 75 63 80 bd 1f 35 ef 3c 5f 19 34 bd ff 7b a5 bc
       -0.0626897 0.029200135 -0.04396951 -0.020200728
0000d0 3b 27 8f 3c 6b c6 85 3d 21 55 7b bd e3 c5 98 3d
       0.017474761 0.06531986 -0.061360482 0.07459619
0000e0 79 59 75 bc 2b 22 22 bd 08 7a bb bd dc 93 42 bd
       -0.014974945 -0.039583366 -0.09154135 -0.04750429
0000f0 2f 0a 0f bd 7c 95 94 3d 40 0d 80 bc 5d 56 64 bd
       -0.03492182 0.072550744 -0.015631318 -0.055746425
000100 70 82 22 bc 2c 74 39 bd fc 22 8d bd 99 90 aa bc
       -0.009918794 -0.045276806 -0.06891438 -0.020820903
000110 bb 78 5d 3d bc 66 22 bd 69 1e a4 3d 78 47 ac 3d
       0.054070216 -0.039648756 0.08013613 0.08412069
000120 8c 60 ad 3d a7 fe 8c bd 7d 24 b4 3d b6 bb 18 3c
       0.084656805 -0.068845086 0.08796022 0.0093220975
000130 b8 9f a0 bd b6 17 bb 3c 77 49 7c bd 2e 20 01 3d
       -0.07842964 0.022838455 -0.0615935 0.03152483
000140 54 1e 9a 3d 0a 25 08 bc 33 e5 35 3d 2c d8 46 3d
       0.07525316 -0.008309612 0.044408035 0.048546
000150 67 ed ae bd 63 6a 45 bd e9 77 97 bd 02 0d b7 3c
       -0.08541375 -0.04819716 -0.07395918 0.02234507
000160 b9 a6 52 3d d7 f5 77 bd fb e8 0a bd 08 8c 9f 3c
       0.05142853 -0.060537186 -0.033913594 0.019475952
000170 c4 54 8d bd fc a3 1c 3d f9 a1 bc bd 1f f7 37 3d
       -0.069009334 0.038242325 -0.09210581 0.044913407
000180 b1 ff 1d bd a8 9f 22 3d e8 af 74 bd 1b 49 b9 3d
       -0.038573924 0.03970304 -0.05973807 0.09047147
000190 2c b5 a4 3d 96 ce 65 bd fc c2 fa 3c 99 7e 9e bd
       0.08042368 -0.05610522 0.030610554 -0.0773899
0001a0 08 7a 5b 3d cd 53 07 bd c5 3b d9 bc 8d cd 54 3d
       0.053583175 -0.033038903 -0.026517758 0.05195384
0001b0 4a f6 b5 3d 9d 92 ae bd 6b 03 9c bc 18 27 e1 3c
       0.088848665 -0.08524058 -0.019044599 0.027484462
0001c0 d6 fa 07 3c 85 ab 37 bd 96 c9 93 bc 5e cb 31 3d
       0.00829955 -0.04484131 -0.01804046 0.043406837
0001d0 ae e2 44 bd 9a 0c a1 bd ca 7c 66 3a cb fd 8f bd
       -0.04806774 -0.07863732 0.0008792399 -0.07030829
0001e0 df fd a6 3d 3f 95 7c bc c3 6d bc 3c 55 8b 26 bd
       0.08153891 -0.015416442 0.023001557 -0.04066022
0001f0 6a c5 bf bc 38 72 5a bc 06 72 a0 3d 1c 56 56 bd
       -0.023409564 -0.013332896 0.07834248 -0.052328214
000200 05 bf 9b bd 97 9f 9b 3d f6 1c 94 3d 53 40 4f 3c
       -0.076047935 0.07598799 0.07232086 0.012649613
000210 21 7b 31 3d b0 69 33 bd 91 69 8d 3c 7d 69 ec 3c
       0.043330316 -0.043801963 0.017262252 0.028858894
000220 af 72 0c bd a2 bc 61 3d bc c9 d0 bc 6f de 08 bc
       -0.03428906 0.055111535 -0.02548682 -0.008353814
000230 3a 30 8c bd f8 9e 1f bd b9 ae 9d bc cd da 51 bd
       -0.06845136 -0.038969964 -0.019248353 -0.051234055
000240 2f f9 44 bd 6d ab 3a 3d 5a 9c 94 bd 13 6f 11 3d
       -0.048089202 0.04557364 -0.07256384 0.03550632
000250 aa 1a 53 3c 5f ea 84 bc 76 c6 5a 3d 2d 6d 57 3d
       0.012884775 -0.016225038 0.053411923 0.052594353
000260 48 0c 6d 3d c2 7e 61 bb b5 d1 33 bd ac 99 c3 3c
       0.05787304 -0.003440783 -0.043901164 0.023876987
000270 0a a4 3e bc 23 7c 82 3d 5b a0 a7 bd ad 64 1e bd
       -0.01163579 0.063713335 -0.08184882 -0.03867023
000280 40 97 ab 3c 55 cb e4 3c 64 35 ac 3d 98 7d 99 3d
       0.020946145 0.027928988 0.08408621 0.07494658
000290 43 b8 0f 3d 4e f0 df bc e8 3a 9a 3d db 94 31 3d
       0.035087835 -0.027336266 0.07530767 0.04335485
0002a0 78 d6 42 bc 3a f1 9a 3c 80 56 19 bd e1 9c 13 bd
       -0.011891954 0.018913854 -0.03743601 -0.036038283
0002b0 55 1b 81 bd 43 6b 1f bc 3f 7a 18 3d 41 73 90 3d
       -0.06304041 -0.009730163 0.037225958 0.07053233
0002c0 7b 14 82 b9 ce 4b 94 3d c7 c0 90 bd f4 e3 1d 3d
       -0.0002481079 0.07241021 -0.07068019 0.03854747
0002d0 e3 36 98 bd 8f 47 9d bd a4 37 88 3c 7d 52 07 bd
       -0.07432344 -0.07679664 0.016628094 -0.03303765
0002e0 c6 4f 14 bd 3d 88 97 bd af 82 a2 bd 8f 89 96 3d
       -0.03620889 -0.07399032 -0.07935082 0.07350456
0002f0 04 4f 01 3d 39 13 22 3d c9 c0 23 bd 07 72 c1 3c
       0.031569496 0.039569113 -0.039978776 0.023613943
000300 cb ab 7a bd 25 38 39 bd bd b1 75 3d e5 39 13 bd
       -0.06119899 -0.04521956 0.059983958 -0.035943884
000310 06 2a 93 3d 4c 81 8c bd 1c 63 78 bd 6a 60 47 bd
       0.0718575 -0.06860599 -0.060641393 -0.048675932
000320 b8 38 a9 3d ca 4f 4a bd 7b 2c 5f 3d b3 4a 8d 3d
       0.08262771 -0.0493925 0.05448578 0.06899013
000330 2e 88 32 bd 5e 55 8d 3d bc e6 d5 bc cc bd 59 bd
       -0.043586902 0.06901048 -0.026111 -0.05315952
000340 bb 46 8c bc 5d 8b a1 bd fb 2d 0f bd c8 48 7d 3d
       -0.01712357 -0.078879096 -0.03495596 0.061836988
000350 2e 4a b2 bc f0 9c 2c 3d 5b 21 81 bd a4 d7 a7 bb
       -0.021763887 0.042141855 -0.0630519 -0.005122142
000360 d4 90 35 bd 67 05 c7 b9 40 05 5a bd d9 80 17 bd
       -0.044327572 -0.00037960263 -0.053227663 -0.036988113
000370 9b d1 52 3d a7 19 1f 3b e6 0d af 3b e4 c1 a0 3c
       0.051469427 0.0024276765 0.005342233 0.019623704
000380 c8 06 77 3b 30 de 48 3d c0 8b 41 bd 8c 19 35 bd
       0.003769325 0.04904002 -0.047252417 -0.044213817
000390 b6 7b 25 bd d8 62 5d bd 66 b0 aa bd 1d 84 a8 3c
       -0.040401183 -0.054049343 -0.083344266 0.020570809
0003a0 59 14 95 3d 9c 56 9a bd 4f 35 13 3b 64 8f a7 bd
       0.07279272 -0.07536051 0.0022462194 -0.081816465
0003b0 f7 ec b0 bc 9c f0 df bc cc cc 55 3d d6 c4 85 3d
       -0.021597369 -0.027336411 0.052197263 0.06531684
0003c0 ea 6c 74 bd cc 61 3f bc 43 07 6b bd 4e ce 23 3c
       -0.05967418 -0.011681031 -0.057379972 0.009997917
0003d0 f8 1b 68 3d 2f e3 52 bd b2 83 97 3c 4f 40 32 bc
       0.056667298 -0.05148619 0.018495414 -0.01087959
0003e0 88 09 c6 3c bb 49 8a bc 8f e7 8c 3d 55 b7 73 bc
       0.024174467 -0.01688086 0.06880104 -0.014875253
0003f0 c9 da 8b 3d 86 dc 62 3c e9 a8 c8 bb 7b ab 98 bb
       0.06828839 0.013846522 -0.0061236513 -0.004659114
