production/TDC/Pgp_Broccatelli/checkpoint/state_dict.pt (torch, 930527 bytes, 57 tensors)

lin1.weight f4 [256, 27]
0	0x3df3c266	0.11902313
1	0x3e3d0de4	0.1846233
2	0xbdef6153	-0.11688485
3	0xbe20e309	-0.15711607
4	0xbdd543ae	-0.104132995
5	0x3d84c439	0.06482739
6	0x3df25447	0.11832481
7	0xbdfdf0cc	-0.12399444
8	0xbc4cfa93	-0.012510913
9	0x3cb4bdde	0.022063192
10	0xbcabc58c	-0.020968221
11	0x3c564c83	0.013079765
12	0x3c938509	0.018007772
13	0x3cb0467b	0.021517983
14	0x3dd12e40	0.102138996
15	0x3d899886	0.06718545
16	0x398990d4	0.00026238582
17	0xbe3bc4c9	-0.18336786
18	0xbd564aa5	-0.05231728
19	0x3df094ee	0.11747156
20	0x3b8fc080	0.0043869615
21	0x3d6f926e	0.058489256
22	0xbd6d72e7	-0.057970908
23	0x3dd24f19	0.10268993
24	0xbe06aca6	-0.13151798
25	0x3cf7b115	0.030235806
26	0x3db19ad2	0.08672108
27	0xbcc02523	-0.023455208
28	0xbe41b779	-0.18917646
29	0x3d341f87	0.04397538
30	0xbd9ed035	-0.07754556
31	0x3e1cd605	0.15316017
32	0xbe163946	-0.14670286
33	0x3ca38628	0.019961432
34	0xbe0264bb	-0.12733738
35	0xbd50ade8	-0.0509471
36	0x3df47638	0.11936611
37	0xbe1d9a92	-0.15390995
38	0xbd2548b2	-0.04035253
39	0xbe3dffdc	-0.18554634
40	0xbd00de3e	-0.031461947
41	0xbe39765d	-0.18111558
42	0xbe11c578	-0.14235485
43	0x3de2a93e	0.11067437
44	0xbe301189	-0.17194189
45	0xbe093bae	-0.13401672
46	0xbd2824b5	-0.04105063
47	0x3e2b7f71	0.16747834
48	0xbe0e552f	-0.13899682
49	0xbd35b215	-0.044359285
50	0xbe0aa28f	-0.13538574
51	0x3e2dc769	0.169706
52	0x3d3f42d7	0.046694603
53	0x3e069cd4	0.13145763
54	0x3c086233	0.008324194
55	0xbe18462a	-0.14870515
56	0xbd66cb90	-0.056346476
57	0xbdb117d2	-0.086471215
58	0x3e2a7c6f	0.1664903
59	0x3e29e49e	0.16591117
60	0x3d8c723d	0.06857727
61	0x3e266f13	0.16253309
62	0xbde71f0a	-0.11285217
63	0xbdf6665f	-0.120312445
64	0x3e35aa98	0.17740858
65	0x3d0ad466	0.033893965
66	0x3db7a1d4	0.08966413
67	0x3da13c3a	0.078728154
68	0x3d0e467f	0.0347352
69	0x3dc5a00a	0.09649666
70	0x3e1fc4ea	0.1560246
71	0xbd77e8e1	-0.060524825
72	0xbe3bc168	-0.18335497
73	0xbe40625a	-0.18787518
74	0x3da69bba	0.08135171
75	0x3cf27890	0.029598504
76	0xbe3d33c0	-0.18476772
77	0xbe1e68af	-0.15469621
78	0x3e40201d	0.1876225
79	0x3ded71e7	0.11593991
80	0x3dcaa460	0.09894633
81	0x3d902a62	0.07039334
82	0x3e23e381	0.16004755
83	0xbd65742e	-0.056019
84	0x3d1160f6	0.03549286
85	0x3d8d9a08	0.06914145
86	0x3e3f7811	0.18698145
87	0xbe34e82e	-0.17666695
88	0x3dc02a7d	0.09383104
89	0x3e25d858	0.1619581
90	0x3cb56058	0.022140667
91	0x3da82d5c	0.082117766
92	0x3ddbd20e	0.10733424
93	0x3d26328e	0.040575556
94	0xbe0c2adb	-0.13688223
95	0xbdc7274e	-0.09724294
96	0x3e2a1640	0.1661005
97	0xbddaec42	-0.10689594
98	0x3d0483c5	0.032352228
99	0x3e3978e5	0.18112524
100	0x3e0554a1	0.13020565
101	0x3dd19ebc	0.10235354
102	0x3dd8774b	0.10569628
103	0xbe188846	-0.14895734
104	0x3e1436f2	0.14474085
105	0x3d3f8862	0.046760924
106	0x3df05da2	0.11736609
107	0xbdd0b5f7	-0.10190957
108	0x3cad2dd0	0.02114001
109	0x3cefe74e	0.0292851
110	0xbe27f375	-0.16401465
111	0xbe1fe13d	-0.15613265
112	0x3e05d224	0.13068444
113	0xbe2f8fd3	-0.17144708
114	0x3db8034b	0.08985003
115	0xbddedb36	-0.10881655
116	0xbc9683f6	-0.01837347
117	0x3e1ee54d	0.15517159
118	0xbd4ada47	-0.04952457
119	0xbd1d7ac0	-0.03844714
120	0xbe0b78e7	-0.1362034
121	0x3e2f6d27	0.17131482
122	0xbe361f2d	-0.1778533
123	0x3dc8364e	0.09775983
124	0x3e29fa2b	0.16599338
125	0x3e2fbb09	0.17161192
126	0x3db34927	0.08754187
127	0x3d439e22	0.04775823
128	0xbe1273c5	-0.14301975
129	0x3e085114	0.13312179
130	0x3d9884f6	0.07447235
131	0xbd8458e6	-0.064622685
132	0x3d909143	0.070589565
133	0x3c827393	0.01592425
134	0xbd38a0b8	-0.04507515
135	0x3c910651	0.017703207
136	0x3daf6fa4	0.08566216
137	0x3e0784f7	0.13234316
138	0x3e01ae8a	0.12664238
139	0xbd264ef8	-0.040602654
140	0xbce95eec	-0.028487645
141	0xbdb18d87	-0.08669572
142	0xbc35c164	-0.011093471
143	0x3e05a31e	0.13050506
144	0xbbac8f35	-0.005266095
145	0xbdb8bfd3	-0.090209626
146	0xbe381f33	-0.17980652
147	0xbe3698a7	-0.1783167
148	0xbdc1cdbb	-0.09463068
149	0x3e2d38f0	0.16916251
150	0x3d390814	0.04517372
151	0x3cf2b813	0.029628789
152	0xbe436f1c	-0.19085354
153	0xbc38e102	-0.011284115
154	0x3d2fbc43	0.04290415
155	0xbe341111	-0.17584635
156	0x3cfdc2a3	0.0309766
157	0x3e32c6c6	0.17458639
158	0xbc960f44	-0.018317826
159	0xbdce671d	-0.10078261
160	0xbd2f5065	-0.04280128
161	0xbd4d0f91	-0.050063673
162	0x3e1a8041	0.15087987
163	0x3e087560	0.13326025
164	0x3e0f71f5	0.14008315
165	0xbe18f2e7	-0.1493641
166	0xbb6867bf	-0.0035462228
167	0xbe14f679	-0.14547147
168	0x3e369593	0.17830496
169	0xbe2de7c4	-0.16982943
170	0xbb077771	-0.0020670558
171	0x3e22c746	0.1589633
172	0xbdd396d9	-0.10331506
173	0x3d10e285	0.035372276
174	0xbd8eb79d	-0.06968615
175	0x3cb2e49c	0.021837525
176	0x3da701dc	0.081546515
177	0x3da30b68	0.0796116
178	0xbd83f430	-0.064430594
179	0x3e2fe665	0.17177732
180	0x3d939475	0.0720605
181	0x3dd95e4f	0.10613691
182	0x3e0322d2	0.12806252
183	0x3d98943c	0.074501485
184	0x3dbdca43	0.09267094
185	0x3ba0713e	0.004896312
186	0xbcb8bf3a	-0.022552121
187	0xbdfb45fc	-0.12269208
188	0x3da834a2	0.08213164
189	0xbcfd65d3	-0.030932343
190	0x3e450cff	0.19243239
191	0x3d7f7d9b	0.062375646
192	0xbe2b90f0	-0.16754508
193	0x3e2b9cd7	0.16759048
194	0xbda629d2	-0.08113445
195	0x3df8965c	0.12138054
196	0x3c70f789	0.0147074545
197	0xbe02de33	-0.12780075
198	0x3ca94a3d	0.020665282
199	0x3e3c11e8	0.18366206
200	0xbdb19deb	-0.086726986
201	0x3e086de6	0.13323173
202	0xbdcf0e4e	-0.1011015
203	0x3bf4439d	0.007454349
204	0xbdf43762	-0.11924626
205	0x3d9ff678	0.07810682
206	0x3d3360b5	0.0437934
207	0x3dfa0368	0.12207681
208	0x3e02d466	0.12776336
209	0xbd41ba63	-0.047296893
210	0xbd87eaa4	-0.06636551
211	0xbdcab6f3	-0.09898176
212	0x3d452c88	0.04813817
213	0x3e195bb4	0.14976388
214	0x3dbb064d	0.09132061
215	0x3e1ccd00	0.15312576
216	0xbdc20e77	-0.09475415
217	0x3e175909	0.14780058
218	0xbe344ec0	-0.17608166
219	0xbd7b2878	-0.06131789
220	0x3e18669f	0.14882897
221	0x3c0ffdac	0.008788507
222	0x3dde08b1	0.108415015
223	0x3ce3519f	0.02774888
224	0x3e2553ee	0.16145298
225	0xbd164762	-0.03668917
226	0x3bd88bd3	0.006608465
227	0xbe25ab1b	-0.16178553
228	0xbdad8e3e	-0.08474396
229	0xbd54bf3b	-0.051940184
230	0xbe151eb8	-0.145625
231	0xbe4056e3	-0.18783145
232	0x3ccbd830	0.02488336
233	0x3d93401a	0.07189961
234	0xbd3d38e6	-0.04619684
235	0x3e3f329d	0.18671651
236	0xbdbe9e8c	-0.09307584
237	0xbd86157f	-0.06547069
238	0x3b11fa58	0.002227446
239	0x3d58d502	0.052937515
240	0xbe0978dd	-0.13425012
241	0x3e077e90	0.13231874
242	0x3d83fe49	0.064449854
243	0x3d09b418	0.033619016
244	0x3df29d38	0.11846393
245	0xbe378073	-0.17920093
246	0xbe25e95a	-0.16202298
247	0xbdf62f4e	-0.120207414
248	0xbd7f5180	-0.062333584
249	0xbe04b695	-0.12960275
250	0xbe26f2d4	-0.16303569
251	0xbdfee9c8	-0.12446934
252	0xbdae73d5	-0.08518187
253	0x3daf126d	0.08548436
254	0x3dad6ae8	0.084676564
255	0x3d91fb4d	0.0712801

lin1.bias f4 [256]
0	0x3e2e19e4	0.17002064
1	0xbd15d8eb	-0.036583822
2	0xbd00c97a	-0.031442143
3	0xbd7a090e	-0.06104379
4	0x3d10bd9a	0.03533707
5	0x3d40900a	0.047012366
6	0xbd1ba650	-0.038000405
7	0x3db0bb0f	0.086294286
8	0x3e39a261	0.18128349
9	0x3d89af06	0.06722836
10	0x3af98e6e	0.001903964
11	0xbe3e2ea4	-0.1857248
12	0xbe223ad3	-0.15842752
13	0xbe0ae35e	-0.13563296
14	0xbd86960f	-0.0657159
15	0xbd64b337	-0.055834975
16	0x3de53964	0.11192587
17	0x3df2409a	0.11828728
18	0x3e1babc1	0.15202238
19	0xbce0e1a9	-0.027451353
20	0xbdd23e5c	-0.102658
21	0xbdbe1e42	-0.09283115
22	0xbdf9aa36	-0.12190668
23	0x3d53d6b5	0.051718432
24	0x3d4dd7f3	0.050254773
25	0x3ddf74da	0.109109595
26	0x3c59decd	0.013297749
27	0xbae06b89	-0.0017121892
28	0x3e19e28f	0.15027831
29	0x3d78dabc	0.060755476
30	0x3d025fcf	0.03182965
31	0xbe2c9875	-0.16855033
32	0xbdcc1e8e	-0.09966765
33	0x3dab772e	0.08372341
34	0xbd92b969	-0.071642704
35	0x3e0c2d23	0.13689093
36	0xbbaadaa1	-0.005214051
37	0x3cf7f27c	0.030266993
38	0x3e16d575	0.14729865
39	0xbe077255	-0.13227208
40	0x3dc9ea2f	0.0985912
41	0x3d584e22	0.05280889
42	0xbde432ed	-0.11142526
43	0x3e1be71e	0.15224883
44	0x3aa64524	0.00126854
45	0xbe2e3c63	-0.17015223
46	0x3db50775	0.08839313
47	0xbd8f340b	-0.06992348
48	0xbd155eaf	-0.03646725
49	0x3e378512	0.17921856
50	0x3deeb234	0.11655083
51	0xbe0c8113	-0.13721113
52	0x3df4ecfe	0.11959265
53	0x3c818e38	0.015814885
54	0xbda98be2	-0.08278634
55	0xbd65e0b9	-0.056122515
56	0xbd2c0dfd	-0.042005528
57	0x3e0fa03e	0.14025971
58	0x3d99711b	0.07492276
59	0x3e087d96	0.13329157
60	0xbe4212a2	-0.1895242
61	0x3e2466cd	0.1605484
62	0x3e445c97	0.19175945
63	0x3e22fb5b	0.15916197
64	0x3dca0d9c	0.09865877
65	0x3d95d0bb	0.07315203
66	0x3de2c4d5	0.11072699
67	0x3dd50ddb	0.10403033
68	0x3de6507c	0.1124582
69	0xbc1a6bc0	-0.009425104
70	0xbcef0056	-0.029174965
71	0x3c5184dc	0.012788024
72	0x3ddee892	0.10884203
73	0xbd62df3c	-0.055388674
74	0xbe32ca46	-0.17459974
75	0x3dd0275b	0.101637565
76	0x3e2d49b1	0.16922642
77	0x3e2e902c	0.17047185
78	0x3d605d28	0.05477634
79	0xbe092b62	-0.13395455
80	0x3e198247	0.14991103
81	0x3da8ee57	0.08248585
82	0xbe026579	-0.12734021
83	0x3e283d8b	0.16429727
84	0xbe039818	-0.12850988
85	0xbd666999	-0.05625305
86	0x3d683075	0.056686837
87	0xbd9c6218	-0.076358974
88	0x3d8d84c3	0.06910088
89	0xbe14587b	-0.14486878
90	0x3e29259f	0.16518258
91	0x3e40919f	0.1880555
92	0xbd97bd7f	-0.074091904
93	0x3e20a790	0.1568892
94	0xbd883a63	-0.066517614
95	0x3e14f2ab	0.14545695
96	0xbe2bc487	-0.16774188
97	0x3e42f6d2	0.19039467
98	0xbd1e38db	-0.03862844
99	0xbe188a30	-0.14896464
100	0x3e232616	0.15932497
101	0x3d65ba2c	0.05608575
102	0x3e058614	0.13039428
103	0xbdcd97f5	-0.10038749
104	0xbdb12cff	-0.086511604
105	0xbd6b27be	-0.057410948
106	0xbcf743c2	-0.030183677
107	0x3d30ce41	0.04316545
108	0x3df39af1	0.11894787
109	0x3d948600	0.07252121
110	0xbe24d29f	-0.1609597
111	0xbdbccc01	-0.09218598
112	0x3d7eca88	0.062204868
113	0x3e21803d	0.15771575
114	0x3dcc08dc	0.09962627
115	0x3d8977e2	0.06712319
116	0x3cdd857d	0.027041191
117	0xbe343cc4	-0.17601305
118	0xbd925b9f	-0.071463816
119	0x3e0efa82	0.13962749
120	0x3cbdeccd	0.023184204
121	0x3ba27250	0.004957475
122	0xbdf145d5	-0.117808975
123	0x3d6c532a	0.0576965
124	0xbd3cfd51	-0.04614002
125	0x3d87a8a5	0.06623963
126	0x3d6c62d7	0.05771145
127	0xbdf5fdb8	-0.12011284
128	0xbd8c669c	-0.06855509
129	0x3e34332d	0.17597647
130	0x3dc4333e	0.09580086
131	0xbdaf9c21	-0.08574701
132	0x3da9ee0b	0.08297356
133	0xbd81bac4	-0.06334451
134	0xbd25569c	-0.0403658
135	0xbe1c8adc	-0.15287346
136	0xbcd8191c	-0.02637916
137	0xbd5e32d6	-0.0542477
138	0x3e0177bf	0.12643336
139	0xbc3ab9dd	-0.011396852
140	0xbe30ddf5	-0.1727217
141	0x3d19ae98	0.03752002
142	0x3dcd018e	0.10010062
143	0xbdcb35ca	-0.09922369
144	0xbd7adfc2	-0.06124855
145	0xbe01cae2	-0.1267505
146	0xbe0a07e0	-0.13479567
147	0xbe211ca6	-0.15733585
148	0x3e150b79	0.14555158
149	0x3d0920b2	0.033478446
150	0xbc09bb09	-0.008406409
151	0x3deb3ad6	0.114858314
152	0x3cb2606a	0.02177449
153	0x3d8689f2	0.0656928
154	0xbe2fc9b6	-0.1716679
155	0x3e0322e0	0.12806273
156	0xbe2be9c1	-0.16788389
157	0x3e25658e	0.16152021
158	0xbd3c0bdf	-0.04590976
159	0x3dd02932	0.101641074
160	0x3d69c834	0.057075694
161	0x3d2ddb36	0.042445384
162	0xbd378bdd	-0.04481112
163	0xbcbad537	-0.022806747
164	0x3e286885	0.16446121
165	0xbe2c554b	-0.16829412
166	0xbd1567a7	-0.036475804
167	0x3d0daa9e	0.03458654
168	0xbdd08849	-0.10182244
169	0x3dc01214	0.09378448
170	0xbd6da8bb	-0.058022242
171	0xbce58f38	-0.028022394
172	0x3dfef4f8	0.12449068
173	0x3e0b5ae4	0.13608891
174	0x3e15e430	0.14637828
175	0xbcb2daf5	-0.021832922
176	0x3cece2b9	0.028916704
177	0xbe13d9ca	-0.14438549
178	0xbe2e177d	-0.17001148
179	0xbe167cc0	-0.14696026
180	0xbe3999f6	-0.18125138
181	0x3d93576c	0.07194409
182	0xbd1a0259	-0.037599895
183	0xbe36da33	-0.17856674
184	0x3cf4279f	0.029804049
185	0xbe2eca04	-0.1706925
186	0x3c8203ec	0.01587101
187	0x3ccb5f61	0.024825754
188	0x3d769638	0.060201854
189	0x3ce40c1b	0.027837804
190	0xbddf0837	-0.10890239
191	0xbd9251bd	-0.071444966
192	0xbe40bca7	-0.18821965
193	0xb9c1fc4b	-0.00036999802
194	0xbc26d0cb	-0.010181616
195	0xbe2a4cc4	-0.16630846
196	0x3d8e90a4	0.06961182
197	0x3e174c8a	0.14775291
198	0x3e379385	0.17927368
199	0x3e4165f2	0.18886545
200	0xbc2b8288	-0.010468133
201	0xbe0816a7	-0.13289891
202	0xbe0458e7	-0.12924539
203	0x3d498201	0.049196247
204	0xbdb0f008	-0.08639532
205	0x3c851272	0.016244147
206	0xbe3b0341	-0.1826296
207	0x3d2096ea	0.039206423
208	0xbcba8191	-0.02276686
209	0xbe014fc1	-0.1262808
210	0xbcc0dd7b	-0.02354311
211	0xbd5d2791	-0.05399281
212	0x3ce6d2d0	0.028176695
213	0xbe431c7a	-0.19053832
214	0xbab8e878	-0.0014107367
215	0x3e1fd9b9	0.15610398
216	0xbd8c22f7	-0.068426065
217	0xbda7e3af	-0.08197724
218	0xbceea4c6	-0.029131304
219	0xbbf3a1d4	-0.007435063
220	0xbe149664	-0.14510494
221	0xbe1e55b2	-0.15462378
222	0x3e190705	0.14944084
223	0xbe3cbcad	-0.18431349
224	0xbd82a2f2	-0.063787356
225	0xbd7961df	-0.060884353
226	0x3d1e9298	0.03871402
227	0x3dc9d2ad	0.09854636
228	0xbdd85a29	-0.10564072
229	0x3ccd84e1	0.025087776
230	0xbded1bd5	-0.11577574
231	0xbdbef4fb	-0.0932407
232	0xbd5b1e68	-0.053495795
233	0xbdbb0076	-0.09130947
234	0x3d020498	0.031742662
235	0x3de02bc2	0.10945846
236	0xbd5654f9	-0.05232713
237	0x3e057912	0.13034466
238	0xbd69fbf2	-0.05712504
239	0x3e147c19	0.14500464
240	0x3e14e2c1	0.14539625
241	0x3e01be89	0.1267034
242	0xbe31ba5a	-0.17356244
243	0x3e326e6e	0.17424938
244	0xbc9cce2d	-0.019141281
245	0xbdf4398b	-0.11925038
246	0x3df6e63a	0.12055631
247	0xbe333806	-0.1750184
248	0x3cff1aa9	0.031140642
249	0xb9f9498e	-0.00047547783
250	0x3d3332da	0.043749668
251	0x3e36c5fa	0.1784896
252	0xbde065df	-0.1095693
253	0xbde0facb	-0.10985335
254	0x3c8ebd1d	0.01742416
255	0x3d3b5c4f	0.04574233

norm1.weight f4 [256]
0	0x3f7fda73	0.999427
1	0x3f7f6307	0.9976048
2	0x3f801760	1.0007133
3	0x3f7ff3b5	0.9998124
4	0x3f800127	1.0000352
5	0x3f80032b	1.0000967
6	0x3f7f7b31	0.9979735
7	0x3f7f3902	0.9969636
8	0x3f7f8455	0.998113
9	0x3f8008a9	1.0002643
10	0x3f802f25	1.0014387
11	0x3f7ff91c	0.99989486
12	0x3f7fd8e9	0.99940354
13	0x3f800ffa	1.0004876
14	0x3f802cff	1.0013732
15	0x3f80501b	1.0024446
16	0x3f800ef6	1.0004566
17	0x3f8006c8	1.000207
18	0x3f7f508e	0.9973229
19	0x3f800a25	1.0003096
20	0x3f7fceb5	0.99924785
21	0x3f8020a2	1.0009959
22	0x3f7fae55	0.99875385
23	0x3f8091a8	1.0044451
24	0x3f7fb826	0.99890363
25	0x3f804c17	1.0023221
26	0x3f80320d	1.0015274
27	0x3f800f77	1.000472
28	0x3f806f3b	1.0033945
29	0x3f80146a	1.000623
30	0x3f7fcde6	0.9992355
31	0x3f806d44	1.0033345
32	0x3f801770	1.0007153
33	0x3f7f01c2	0.9961206
34	0x3f7f743e	0.99786747
35	0x3f801b71	1.0008374
36	0x3f7fe601	0.99960333
37	0x3f7fccce	0.9992188
38	0x3f8071d9	1.0034744
39	0x3f804454	1.0020852
40	0x3f7f62e4	0.9976027
41	0x3f80296f	1.0012645
42	0x3f8040d9	1.001979
43	0x3f7f87f2	0.9981681
44	0x3f809a5e	1.0047109
45	0x3f7fe9d8	0.9996619
46	0x3f803c69	1.0018436
47	0x3f807dbb	1.003837
48	0x3f7fd6e0	0.9993725
49	0x3f7f8524	0.9981253
50	0x3f800d85	1.0004126
51	0x3f8051ad	1.0024925
52	0x3f7f5254	0.99735
53	0x3f7f80ac	0.9980571
54	0x3f7fca01	0.9991761
55	0x3f806201	1.0029908
56	0x3f7fd249	0.99930245
57	0x3f801e73	1.0009292
58	0x3f7fb48d	0.99884874
59	0x3f7ff554	0.99983716
60	0x3f7f512c	0.99733233
61	0x3f8013a1	1.000599
62	0x3f7f5c81	0.99750525
63	0x3f803994	1.0017571
64	0x3f801d33	1.0008911
65	0x3f7fae24	0.9987509
66	0x3f803af8	1.0017996
67	0x3f800c75	1.0003802
68	0x3f801246	1.0005577
69	0x3f7fc32d	0.9990719
70	0x3f8013c3	1.0006031
71	0x3f7f45b5	0.9971574
72	0x3f7ff460	0.9998226
73	0x3f8013c3	1.0006031
74	0x3f7f7726	0.9979118
75	0x3f80ac07	1.0052499
76	0x3f7fafce	0.9987763
77	0x3f8034e5	1.0016142
78	0x3f7ffad6	0.9999212
79	0x3f801f8c	1.0009627
80	0x3f7fcb14	0.9991925
81	0x3f80100c	1.0004897
82	0x3f807369	1.003522
83	0x3f803e0c	1.0018935
84	0x3f7f6a3c	0.99771476
85	0x3f7fd523	0.99934596
86	0x3f801833	1.0007385
87	0x3f7ec6c8	0.99522066
88	0x3f802610	1.0011616
89	0x3f7f8427	0.99811023
90	0x3f8062b1	1.0030118
91	0x3f7fd59f	0.99935335
92	0x3f801547	1.0006493
93	0x3f806660	1.0031242
94	0x3f8008b5	1.0002657
95	0x3f7fbd1c	0.99897933
96	0x3f800dbe	1.0004194
97	0x3f800565	1.0001646
98	0x3f7f43e6	0.9971298
99	0x3f801be4	1.0008512
100	0x3f7fea97	0.9996733
101	0x3f7fbb8b	0.9989554
102	0x3f805a40	1.0027542
103	0x3f803c85	1.0018469
104	0x3f7f89be	0.9981955
105	0x3f7f75b7	0.99788994
106	0x3f801bb2	1.0008452
107	0x3f7f5e14	0.99752927
108	0x3f801bb8	1.0008459
109	0x3f7fe965	0.99965507
110	0x3f7fdc2b	0.99945325
111	0x3f809f0c	1.0048537
112	0x3f7fc0bd	0.9990347
113	0x3f7fc6db	0.99912804
114	0x3f7ec916	0.9952558
115	0x3f8009f2	1.0003035
116	0x3f802413	1.0011009
117	0x3f7fe9cf	0.9996614
118	0x3f800b04	1.0003362
119	0x3f803d34	1.0018678
120	0x3f7f96b9	0.9983936
121	0x3f7fba1d	0.9989336
122	0x3f7fe825	0.999636
123	0x3f7fbe80	0.99900055
124	0x3f80088b	1.0002607
125	0x3f80027e	1.000076
126	0x3f801728	1.0007067
127	0x3f7fcf6e	0.9992589
128	0x3f801d9f	1.000904
129	0x3f7ee999	0.9957519
130	0x3f800187	1.0000466
131	0x3f804706	1.0021675
132	0x3f7ffe6c	0.9999759
133	0x3f7fd5bc	0.9993551
134	0x3f7fff64	0.9999907
135	0x3f7ff9ad	0.9999035
136	0x3f8018ee	1.0007608
137	0x3f809715	1.0046107
138	0x3f7f6cbc	0.9977529
139	0x3f7fa5ae	0.9986218
140	0x3f806510	1.0030842
141	0x3f7fc9a8	0.9991708
142	0x3f7fc044	0.9990275
143	0x3f7ff5ab	0.99984235
144	0x3f7f7fd6	0.9980444
145	0x3f80170d	1.0007035
146	0x3f806bd3	1.0032905
147	0x3f7f7ab3	0.997966
148	0x3f803470	1.0016003
149	0x3f8007e7	1.0002412
150	0x3f7ff312	0.9998027
151	0x3f7f5516	0.99739206
152	0x3f7fe2b7	0.99955314
153	0x3f7fa382	0.9985887
154	0x3f801e68	1.0009279
155	0x3f7f5330	0.9973631
156	0x3f7fcb95	0.99920017
157	0x3f803021	1.0014688
158	0x3f8004ca	1.0001462
159	0x3f7fa308	0.9985814
160	0x3f7fe508	0.9995885
161	0x3f800e90	1.0004444
162	0x3f8036a7	1.0016679
163	0x3f8024bd	1.0011212
164	0x3f804716	1.0021694
165	0x3f805d31	1.002844
166	0x3f7f0e86	0.99631536
167	0x3f7f8aee	0.99821365
168	0x3f806fb3	1.0034088
169	0x3f80a149	1.004922
170	0x3f7f149b	0.99640816
171	0x3f806a91	1.0032521
172	0x3f7fe8a4	0.99964356
173	0x3f80567d	1.0026394
174	0x3f7fb711	0.9988871
175	0x3f7f71cb	0.9978301
176	0x3f7f61b2	0.99758446
177	0x3f8057d7	1.0026807
178	0x3f803ffc	1.0019526
179	0x3f7fe131	0.9995299
180	0x3f7fd051	0.9992724
181	0x3f7ff7bc	0.9998739
182	0x3f805f50	1.0029087
183	0x3f7fad4c	0.99873805
184	0x3f800847	1.0002526
185	0x3f7fa266	0.99857175
186	0x3f8033f2	1.0015852
187	0x3f7ffd07	0.99995464
188	0x3f80104c	1.0004973
189	0x3f7f9bd9	0.9984718
190	0x3f806f84	1.0034032
191	0x3f8036ff	1.0016783
192	0x3f7fd501	0.99934393
193	0x3f803564	1.0016294
194	0x3f80639d	1.00304
195	0x3f7edb20	0.9955311
196	0x3f7fea4c	0.99966884
197	0x3f7f3f5a	0.9970604
198	0x3f7f806b	0.99805325
199	0x3f8008c9	1.0002681
200	0x3f7f869d	0.9981478
201	0x3f800999	1.0002929
202	0x3f7f61f1	0.9975882
203	0x3f803470	1.0016003
204	0x3f80112d	1.0005242
205	0x3f801c41	1.0008622
206	0x3f7feaaf	0.99967474
207	0x3f7f1fc1	0.9965783
208	0x3f800824	1.0002484
209	0x3f7ff9b6	0.99990404
210	0x3f801910	1.0007648
211	0x3f7f5cb2	0.99750817
212	0x3f7f0135	0.99611217
213	0x3f809b08	1.0047312
214	0x3f800149	1.0000392
215	0x3f80108b	1.0005049
216	0x3f803341	1.0015641
217	0x3f80665d	1.0031239
218	0x3f7fea87	0.99967235
219	0x3f7f3b5a	0.9969994
220	0x3f803750	1.001688
221	0x3f7f59d4	0.9974644
222	0x3f7fc30c	0.9990699
223	0x3f7ee15e	0.99562633
224	0x3f7fded3	0.9994938
225	0x3f800df7	1.0004262
226	0x3f7ff2c7	0.99979824
227	0x3f7ff087	0.9997639
228	0x3f7f826d	0.9980839
229	0x3f800cf9	1.0003959
230	0x3f80085a	1.0002549
231	0x3f7fe4b3	0.9995834
232	0x3f7fd01d	0.9992693
233	0x3f7fdfd6	0.9995092
234	0x3f7fca41	0.9991799
235	0x3f80406f	1.0019664
236	0x3f7ee2e0	0.99564934
237	0x3f7f80a0	0.9980564
238	0x3f7f8f3a	0.9982792
239	0x3f7f6a78	0.99771833
240	0x3f800ea0	1.0004463
241	0x3f804da8	1.0023699
242	0x3f802654	1.0011697
243	0x3f7fb9f5	0.9989312
244	0x3f7fa5bd	0.9986227
245	0x3f7f79ef	0.9979543
246	0x3f801783	1.0007175
247	0x3f7f4333	0.9971191
248	0x3f80949c	1.0045352
249	0x3f7fc50a	0.9991003
250	0x3f800f1f	1.0004615
251	0x3f801948	1.0007715
252	0x3f7f8685	0.99814636
253	0x3f801057	1.0004987
254	0x3f802b87	1.0013283
255	0x3f7fd4ba	0.9993397

norm1.bias f4 [256]
0	0x3a770524	0.0009423068
1	0x39c1a375	0.00036933614
2	0x38251a31	3.936346e-05
3	0xba8d378d	-0.0010774002
4	0x3b814996	0.0039455397
5	0x3acff36f	0.0015865396
6	0xb95cea0e	-0.00021068027
7	0xbb101e34	-0.0021990659
8	0xb9d0ccb2	-0.0003982536
9	0xbb7cbb65	-0.0038563844
10	0x3aec9c64	0.0018051979
11	0x3ad0b4c0	0.0015923008
12	0xbb067808	-0.0020518322
13	0xbad0b985	-0.001592443
14	0x3b51ed01	0.0032032134
15	0x3ab0f9f1	0.0013502223
16	0x3b1ae3d2	0.0023634327
17	0x3a5f4fa2	0.0008518641
18	0xbb01d229	-0.0019809103
19	0x3b2bb8b3	0.0026202619
20	0xbac1cc12	-0.0014785549
21	0x3b006667	0.0019592287
22	0xb9ce95ec	-0.00039403082
23	0x3ae21089	0.001724736
24	0xba7bfc20	-0.00096124597
25	0xb9e8f43e	-0.00044432463
26	0x3aa3bda9	0.0012492436
27	0x3a89587b	0.001047864
28	0x3b911ac4	0.0044282395
29	0x39fb749e	0.00047961337
30	0xbb02a2b8	-0.0019933414
31	0x3b479132	0.0030451533
32	0x3a07523e	0.00051620963
33	0xbb731a1f	-0.0037094427
34	0xba838601	-0.0010034443
35	0x3ab1c191	0.0013561716
36	0x392acf72	0.00016289743
37	0x3ad5162c	0.0016257218
38	0x3a9a1134	0.0011754395
39	0x3ad03327	0.0015884385
40	0x3ab94510	0.0014134962
41	0x3a35ad19	0.00069303956
42	0x3ac4324c	0.0014968603
43	0xbb2955ae	-0.0025838423
44	0x3b84feb1	0.004058682
45	0xbb0cbdf9	-0.0021475537
46	0x3b241d1a	0.002504176
47	0x3b7026c8	0.003664421
48	0xbab1b70a	-0.0013558578
49	0xba6737c7	-0.0008820262
50	0x3a0d933d	0.00054006634
51	0x3b10fc63	0.002212309
52	0xbb8eec42	-0.00436166
53	0xbb466ded	-0.0030277923
54	0x3b332fc4	0.0027341703
55	0x3a0cb86b	0.00053680566
56	0xbb0c7e22	-0.0021437486
57	0xb82d346d	-4.129524e-05
58	0xbaabfe1a	-0.0013121993
59	0xba39ddbf	-0.00070902327
60	0xbb179120	-0.0023127273
61	0x3b357602	0.0027688746
62	0xbaaf1cef	-0.0013360063
63	0x3b087c61	0.0020826089
64	0x3a36aaed	0.0006968219
65	0xb8bddc63	-9.0532725e-05
66	0x3b125104	0.002232612
67	0x3abef457	0.0014568669
68	0xb9047385	-0.00012631535
69	0x3aa2a55d	0.0012408901
70	0xba074ced	-0.0005161304
71	0xbabd5953	-0.0014446176
72	0xb9916177	-0.00027729172
73	0xb9d43098	-0.00040471996
74	0x392ac9b2	0.00016287601
75	0x3ba0f71a	0.0049122693
76	0xbadaeb4a	-0.0016702202
77	0x3b452a3f	0.0030084995
78	0x3a859507	0.0010191508
79	0x3b108dc1	0.0022057148
80	0xbb2376a6	-0.0024942546
81	0x3abc0da0	0.0014347322
82	0x3aca5238	0.001543588
83	0x3ae28957	0.0017283362
84	0xbad5e54b	-0.0016318945
85	0x3a79c8d3	0.00095285213
86	0x3b37c33e	0.0028039957
87	0xbb69e567	-0.0035689713
88	0x3885d395	6.3813444e-05
89	0xb9f8631f	-0.00047376097
90	0x3b2ef667	0.002669716
91	0xb8b6fa0f	-8.725013e-05
92	0xba7d413b	-0.0009660904
93	0x3b54f22d	0.003249298
94	0x39d02054	0.00039696938
95	0xba0d1f74	-0.000538341
96	0x3ae7b68b	0.0017678303
97	0x3ac5ef95	0.0015101308
98	0xbaa972a0	-0.0012927838
99	0xbb202b43	-0.0024439848
100	0xbab1baec	-0.0013559735
101	0xbad2d4e9	-0.0016085181
102	0x39935dac	0.00028107816
103	0x3a67e5f5	0.0008846217
104	0x3b880587	0.0041510495
105	0xba404f62	-0.0007336048
106	0x39d72b31	0.00041040176
107	0xbae670e3	-0.001758125
108	0x3b02ebdb	0.0019977007
109	0xb73379c0	-1.0697579e-05
110	0x3afb6f2f	0.0019182916
111	0x3ba91c66	0.005160856
112	0xb9ff9488	-0.00048748055
113	0x3a248273	0.0006275542
114	0xbb4373c6	-0.0029823645
115	0x3a83ab63	0.0010045584
116	0x3a4a5a21	0.0007719119
117	0xba94e782	-0.0011360499
118	0x3a89b461	0.0010506028
119	0x3b1f00f4	0.0024262043
120	0xbaef49b0	-0.0018256214
121	0xba741be6	-0.00093120185
122	0xb9e42354	-0.0004351387
123	0xbb14720a	-0.002265098
124	0x3ab057e9	0.0013453934
125	0xbac420a5	-0.0014963342
126	0xbaf36ed1	-0.0018572455
127	0xb9f5dc7b	-0.00046894312
128	0xba92eb16	-0.0011208977
129	0x399c70a9	0.00029838577
130	0x3a3354f0	0.0006840965
131	0x39d07803	0.00039762267
132	0x3b0d0de2	0.0021523167
133	0xbb613df3	-0.00343692
134	0xbad4f799	-0.0016248106
135	0xb55d4f41	-8.2444245e-07
136	0xbaaa216a	-0.0012979929
137	0x3aeb912e	0.0017972344
138	0xba04a779	-0.0005060356
139	0xba4f9659	-0.0007918827
140	0x3b723dec	0.0036963178
141	0xba84d80a	-0.0010135185
142	0xbab03676	-0.0013443965
143	0x39c2bd80	0.00037143752
144	0xbb5c0afa	-0.0033575878
145	0xba2d5e7d	-0.0006613506
146	0x3aa2f7a1	0.0012433418
147	0xbb7827cf	-0.0037865525
148	0xbb4d8b72	-0.0031363633
149	0x3a44123e	0.0007479525
150	0xbac447cb	-0.0014975009
151	0xba2b3886	-0.0006531555
152	0x3b37a854	0.0028023915
153	0xbafb1aab	-0.0019157728
154	0x3aa6a18a	0.0012712937
155	0xbac9d2b2	-0.0015397875
156	0xba8a5714	-0.0010554516
157	0xbae1d30f	-0.0017229038
158	0xb9259ccd	-0.00015794039
159	0xbadc2663	-0.0016796108
160	0x39240862	0.00015643382
161	0x3a620517	0.0008621974
162	0x3a67897d	0.0008832438
163	0x3a944fc6	0.0011315278
164	0x3ab8e55d	0.0014106442
165	0x3b80ca50	0.0039303675
166	0xbb130ff9	-0.002243994
167	0xbb2e548b	-0.0026600685
168	0x3b865d61	0.004100487
169	0x3b86fae0	0.004119262
170	0xbb686fe5	-0.0035467085
171	0xbaa678f3	-0.0012700841
172	0xbb2545ac	-0.002521853
173	0x3ae39644	0.0017363508
174	0x3b30b004	0.0026960382
175	0xba99f81a	-0.0011746914
176	0xbb23654e	-0.0024932208
177	0x3a6b14e1	0.000896765
178	0xbacaa31b	-0.0015459986
179	0x3a074ff5	0.0005161756
180	0x3aa4ad48	0.0012563849
181	0x3b286dc2	0.0025700186
182	0x3b3df414	0.0028984593
183	0xb974cf56	-0.00023346892
184	0xb9d2643d	-0.00040129005
185	0xbaa91703	-0.0012900535
186	0x37fc33f0	3.0064926e-05
187	0x3b6e82ee	0.0036393958
188	0x378f4e6c	1.7083446e-05
189	0xba816294	-0.0009871298
190	0x3ad701f7	0.0016403784
191	0xba090dc6	-0.00052281877
192	0xb9aa3596	-0.0003246485
193	0x3b7616aa	0.003755013
194	0x3ad7bc67	0.0016459347
195	0xbb884375	-0.004158432
196	0xba03bd17	-0.000502543
197	0xbb9ad322	-0.004724876
198	0xbb620c31	-0.003449213
199	0xbad951c2	-0.0016580152
200	0xbac8929f	-0.0015302486
201	0x3aec49e7	0.0018027396
202	0xba6764d3	-0.00088269747
203	0xba8d8787	-0.0010797837
204	0x3a29e2ee	0.00064806535
205	0xbae04904	-0.0017111604
206	0x3a31a62c	0.00067767757
207	0xbb7cbbdf	-0.0038564128
208	0xba4ddb7a	-0.0007852834
209	0xba498a8e	-0.0007688188
210	0xba577438	-0.0008218917
211	0xbae5938b	-0.0017515285
212	0xbb2e098c	-0.0026555983
213	0x39144f55	0.00014143933
214	0x3a180758	0.0005799434
215	0x3a48f38f	0.00076656876
216	0x3a8480d6	0.0010109197
217	0x3b6be6c8	0.003599571
218	0xba58727c	-0.00082568056
219	0xbb29ad35	-0.0025890593
220	0xb9526c01	-0.00020067395
221	0xba974501	-0.001154095
222	0xb98f7f6f	-0.0002737003
223	0xb7a6183b	-1.9800025e-05
224	0xbaf54983	-0.0018713925
225	0x3acdb846	0.0015695177
226	0xb9a13e33	-0.00030754655
227	0xbad6a9ed	-0.0016377546
228	0xbae89e73	-0.0017747417
229	0x39281637	0.00016030004
230	0xb9cbd85f	-0.00038880386
231	0x3aa601a3	0.0012665283
232	0xba62ce8a	-0.00086519925
233	0xba8bba86	-0.0010660447
234	0xbac5f383	-0.0015102479
235	0x3b839573	0.0040156185
236	0xbb72a201	-0.0037022831
237	0xbb77bdba	-0.0037802295
238	0xba90aa3e	-0.0011037064
239	0xbac971b6	-0.0015368972
240	0xbae26a20	-0.0017274059
241	0x3a3ead34	0.0007273734
242	0x3ac94220	0.001535479
243	0x3a4c260e	0.0007787653
244	0xb9e25c1e	-0.00043174712
245	0xbaa5098e	-0.0012591348
246	0xb9fc34d8	-0.00048104557
247	0xbae59dcd	-0.0017518342
248	0x3b877dec	0.004134884
249	0xbae1b0fc	-0.0017218883
250	0x39d507fc	0.00040632475
251	0x3a2f4af6	0.000668689
252	0xbb806b97	-0.0039190757
253	0xb8bce01b	-9.0062815e-05
254	0x3a36da6a	0.0006975295
255	0x3a257a38	0.00063124625

norm1.running_mean f4 [256]
0	0x3ead69d2	0.33869797
1	0xbec58661	-0.38579085
2	0xbe91fc40	-0.28512764
3	0x3eb428ae	0.35187286
4	0x3d214b08	0.039378196
5	0xbd68c1a1	-0.056825284
6	0x3e16284c	0.1466381
7	0x3eee5abe	0.46553606
8	0x3e425704	0.18978506
9	0x3d42cb9f	0.04755747
10	0x3e68042b	0.2265784
11	0xbe01c3bf	-0.12672327
12	0xbe523446	-0.20527753
13	0xbd576dbd	-0.05259489
14	0xbf19c28d	-0.60062486
15	0xbe0c4144	-0.13696772
16	0xbe151e0a	-0.1456224
17	0x3da6c7b7	0.08143561
18	0x3e8682f5	0.26271787
19	0x3d5343ef	0.05157846
20	0xbe9ad5f5	-0.3024136
21	0x3e23f3f7	0.16011034
22	0xbc2fc91a	-0.010729099
23	0x3e29864c	0.16555136
24	0x3d891ae9	0.06694586
25	0xbddf829a	-0.10913582
26	0x3def3294	0.11679569
27	0x3d57f0bc	0.052719817
28	0x3d9cbbc0	0.07652998
29	0x3d736e16	0.059431158
30	0x3e63146e	0.22175762
31	0xbd2e7ff4	-0.042602494
32	0xbe1f3845	-0.15548809
33	0x3da12750	0.078688264
34	0x3954387a	0.00020238935
35	0x3dd6ee06	0.10494618
36	0x3e82e471	0.25564912
37	0x3eabbf09	0.33544186
38	0x3eb8a925	0.36066547
39	0xbe110b54	-0.14164478
40	0xbe416c10	-0.18888879
41	0xbe3cf6e2	-0.18453553
42	0xbe922255	-0.28541818
43	0x3e31bc76	0.17357048
44	0xbca4d14e	-0.020119336
45	0xbe3ddf17	-0.18542133
46	0x3d3e06dc	0.04639326
47	0xbe3df7be	-0.18551537
48	0x3d1d41fa	0.038393
49	0x3e5cdf6f	0.21569608
50	0x3d15561f	0.036459085
51	0xbe6c667d	-0.23085971
52	0x3e0e15a2	0.1387544
53	0xbde63e5c	-0.11242363
54	0x3dd565b5	0.1041979
55	0xbee55ded	-0.44798222
56	0xbec83448	-0.39102387
57	0x3ebd2c02	0.36947638
58	0x3e422bcf	0.18962024
59	0x3e2c634f	0.16834758
60	0xbeb39efe	-0.3508224
61	0xbde68a5b	-0.11256858
62	0x3f14da16	0.5814527
63	0x3ef5cf8c	0.48009908
64	0xbe4ce393	-0.20008688
65	0x3ca05427	0.019571377
66	0x3e33fef6	0.17577729
67	0x3e26b497	0.16279827
68	0x3edb3445	0.42813316
69	0xbd989d84	-0.07451919
70	0x3e25e6bc	0.162013
71	0x3e9fda44	0.3122121
72	0x3d484e75	0.048902947
73	0x3e2f9e4e	0.17150232
74	0xbe36dc2c	-0.17857426
75	0x3e524182	0.20532802
76	0x3ee8c0c7	0.45459577
77	0x3ed6a1ce	0.41920322
78	0x3e7fc794	0.24978477
79	0xbe8b18c7	-0.2716734
80	0x3e99e4b7	0.30057308
81	0x3e0ae8b3	0.1356533
82	0x3e36026d	0.17774363
83	0x3ee0f341	0.43935588
84	0x3d5f6c5c	0.0545467
85	0xbd98a9fa	-0.074542955
86	0x3e3ff4de	0.18745753
87	0xbdf3fc88	-0.11913401
88	0x3dd146f1	0.10218609
89	0xbe93d1ae	-0.2887091
90	0x3e358f99	0.1773056
91	0xbd5e6d31	-0.05430335
92	0xbeea020d	-0.4570469
93	0xbe13a612	-0.1441882
94	0x3d707658	0.05870661
95	0x3cafb0e9	0.021446662
96	0x3d9a1406	0.075233504
97	0x3e760c1f	0.24028061
98	0x3e200f11	0.15630747
99	0xbe6a6a69	-0.22892155
100	0x3ee6914c	0.45032728
101	0x3d4a5f77	0.04940745
102	0x3dec1350	0.11527121
103	0xbeef4f6c	-0.46740282
104	0xbe0586fa	-0.1303977
105	0xbdf492f7	-0.11942094
106	0x3a0881cb	0.0005207329
107	0xbc9d2fa7	-0.019187761
108	0x3dfdbe59	0.123898216
109	0xbe095fbc	-0.13415426
110	0xbeab262a	-0.33427554
111	0x3e1f9f6c	0.15588158
112	0xbe0eddc4	-0.13951784
113	0x3e1526ce	0.14565584
114	0x3ea81239	0.32826403
115	0x3ecd50f7	0.40100834
116	0xbe81d494	-0.25357497
117	0xbe424e8a	-0.18975273
118	0x3d1c2d95	0.038129408
119	0x3e025bc9	0.12730326
120	0xbd7713ca	-0.060321607
121	0x3e4dd73d	0.20101638
122	0xbda1d816	-0.07902543
123	0x3e00c7c2	0.12576202
124	0x3e6ed421	0.23323108
125	0xbd9bd4ab	-0.076089226
126	0x3e95072f	0.29107043
127	0xbea1836a	-0.31545573
128	0xbe337ae1	-0.17527343
129	0x3d9ea8a1	0.07747007
130	0x3e6d143a	0.23152247
131	0xbe4fad7f	-0.20281027
132	0xbd8eeb44	-0.06978467
133	0xbe481a54	-0.19541293
134	0xbdb720cd	-0.08941803
135	0xbe7076e8	-0.23482859
136	0xbe33cb50	-0.17558026
137	0xbd82c418	-0.06385058
138	0x3df99d00	0.121881485
139	0x3e2eacb9	0.17058076
140	0xbecf7d0d	-0.40525094
141	0x3e1ac0d4	0.1511262
142	0xbe523546	-0.20528135
143	0xbe0a1913	-0.13486128
144	0x3d267c0a	0.040645637
145	0xbd9c8207	-0.07641988
146	0xbe16dfaf	-0.14733766
147	0x3b859fb6	0.004077877
148	0x3ddce6e7	0.107862286
149	0x3dc6fa29	0.09715683
150	0xbe8f978b	-0.28045306
151	0x3d998335	0.07495729
152	0xbd542b3c	-0.051799044
153	0x3ea0d08c	0.3140911
154	0xbef44415	-0.47708192
155	0x3e3489c7	0.17630683
156	0xbed8ee42	-0.42369276
157	0x3c4361a5	0.011925136
158	0xb9944e72	-0.00028287206
159	0x3e0fedcc	0.14055556
160	0x3cba5e00	0.0227499
161	0xbd7b4958	-0.061349243
162	0xbd65160b	-0.055929225
163	0x3dd11be3	0.10210397
164	0x3ec47652	0.3837152
165	0xbeb4bbb4	-0.35299456
166	0xbd3b7bb9	-0.045772288
167	0x3d9c7fca	0.07641561
168	0xbe0b2d20	-0.13591433
169	0xbda1d695	-0.079022564
170	0x3dde31e3	0.10849359
171	0xbdcf4bf3	-0.10121908
172	0xbd74eb13	-0.059794497
173	0x3ed549f0	0.41657972
174	0x3dd94eb1	0.10610712
175	0x3dbfbf71	0.093626864
176	0x3d6d7007	0.057968166
177	0xbe29a524	-0.16566902
178	0x3e67abb5	0.22624095
179	0xbda82e0b	-0.08211907
180	0xbe2caf30	-0.16863704
181	0x3d83e10b	0.06439408
182	0x3d2946e0	0.041327357
183	0xbea3775c	-0.31927
184	0x3e4b6e21	0.1986623
185	0xbe6647d4	-0.22488338
186	0x3e638079	0.22216977
187	0x3d98adcd	0.07455025
188	0xbea7ec5b	-0.32797512
189	0xbd8dfe1c	-0.06933233
190	0xbdc138be	-0.09434651
191	0xbdb38096	-0.0876476
192	0x3d03bfd8	0.03216538
193	0x3dbad03c	0.09121749
194	0x3e2f66d1	0.17129065
195	0xbd91b41d	-0.07114432
196	0xbddb6a08	-0.10713583
197	0xbd9946ee	-0.07484232
198	0x3e3b7b6a	0.18308797
199	0x3e86037b	0.2617453
200	0xbd2ef73b	-0.042716246
201	0xbd9bf2dc	-0.07614681
202	0xbe4f54a3	-0.2024713
203	0x3b23ba89	0.002498301
204	0x3deab9da	0.114612296
205	0x3db2b264	0.087254316
206	0x3c6d244d	0.014473987
207	0xbe35bcda	-0.17747822
208	0x3dc91d23	0.098200105
209	0xbe12d105	-0.14337547
210	0xbc8720b5	-0.016495088
211	0xbd2b55df	-0.04182994
212	0xbdd3fbe9	-0.103507824
213	0xbe584dd0	-0.21123433
214	0x3ea30913	0.3184286
215	0x3d975912	0.07390036
216	0xbd6285af	-0.05530327
217	0xbe94b76c	-0.2904619
218	0x3e2d9b81	0.16953851
219	0x3e56054f	0.20900463
220	0xbd57e697	-0.052710142
221	0xbebcfcb3	-0.36911544
222	0x3b8dd5e1	0.004328475
223	0xbe30c9a8	-0.17264426
224	0x3d2ae515	0.041722376
225	0x3d507170	0.050889432
226	0x3c9c1d0e	0.019056823
227	0xbe93cd10	-0.28867388
228	0xbe816b11	-0.25276998
229	0x3e1982cc	0.14991301
230	0xbe935232	-0.28773648
231	0xbd4a5c94	-0.049404696
232	0x3dd73e9a	0.10509987
233	0xbd8adced	-0.067804195
234	0xbdb507c1	-0.088393696
235	0x3db65008	0.089019835
236	0xbe95d924	-0.29267228
237	0xbd3bfeb3	-0.045897197
238	0x3ca3ce83	0.019995933
239	0xbe0da253	-0.13831453
240	0x3e113bda	0.14182988
241	0x3d785c52	0.06063492
242	0xbe4002a7	-0.18751012
243	0x3df0c091	0.11755479
244	0xbc50a20f	-0.01273395
245	0x3bffdee4	0.007808553
246	0xbdea1c4b	-0.11431178
247	0xbb882c22	-0.0041556517
248	0x3df5d477	0.12003415
249	0x3e8f8255	0.28029123
250	0x3e02e4a1	0.12782528
251	0x3e9b95be	0.30387682
252	0xbed83738	-0.4222963
253	0x3d0f0283	0.034914505
254	0x3dd39026	0.103302285
255	0x3e38be80	0.1804142

norm1.running_var f4 [256]
0	0x3cebed09	0.02879955
1	0x3c980b15	0.018559972
2	0x3c1019ca	0.008795211
3	0x3d0f3abd	0.034968127
4	0x3c9a76fe	0.018855568
5	0x3cab1ee9	0.020888763
6	0x3c09d0b5	0.008411576
7	0x3d207719	0.03917608
8	0x3d26a1a2	0.04068149
9	0x3c656b72	0.014002668
10	0x3c13048a	0.00897325
11	0x3cdfe9a9	0.027333098
12	0x3d374345	0.044741888
13	0x3c68b181	0.0142024765
14	0x3d4e51f0	0.05037111
15	0x3c77a85e	0.015115825
16	0x3d198743	0.03748251
17	0x3c39fc5c	0.011351671
18	0x3d90d60e	0.07072078
19	0x3ccc9a11	0.024975808
20	0x3d6c0bd6	0.057628475
21	0x3d3b7cef	0.045773443
22	0x3ce5e83b	0.028064838
23	0x3c8089e4	0.015690751
24	0x3c4c6500	0.012475252
25	0x3d008a09	0.03138164
26	0x3be7d824	0.0070753265
27	0x3c56830e	0.013092769
28	0x3c860be0	0.016363084
29	0x3d0d2d39	0.034466956
30	0x3d806625	0.062694825
31	0x3cad249a	0.021135617
32	0x3c939b86	0.018018495
33	0x3ca84c93	0.020544326
34	0x3c0672e9	0.008206108
35	0x3d13783e	0.036003344
36	0x3ca0c5f2	0.019625638
37	0x3c5042b6	0.012711218
38	0x3c2f26b4	0.01069038
39	0x3d25bfb2	0.040466018
40	0x3c7466ca	0.014917085
41	0x3cf83a25	0.030301163
42	0x3c258798	0.010103129
43	0x3d71ea71	0.05906147
44	0x3c5a6dfe	0.013331888
45	0x3be873ce	0.007093883
46	0x3c939ff3	0.018020606
47	0x3dd058ec	0.101732105
48	0x3bad891f	0.005295887
49	0x3baa6117	0.0051995623
50	0x3ce94d08	0.028479114
51	0x3c2ef16b	0.010677676
52	0x3be67817	0.007033359
53	0x3cc66a0e	0.024220493
54	0x3d023e30	0.031797588
55	0x3cf3c9ff	0.029759405
56	0x3ca353ae	0.019937363
57	0x3d4523e2	0.048129924
58	0x3caf4de0	0.021399438
59	0x3c51a24e	0.012795044
60	0x3cb0d043	0.021583682
61	0x3d77af4c	0.06046991
62	0x3cc09f84	0.023513563
63	0x3d0e7079	0.03477523
64	0x3d2ee7d7	0.04270157
65	0x3cbe9dd4	0.023268618
66	0x3c4ca155	0.012489636
67	0x3c64143f	0.013920843
68	0x3cd218a4	0.025646515
69	0x3c2de6f8	0.010614149
70	0x3c20dd51	0.009818391
71	0x3d466081	0.048431877
72	0x3c1ee795	0.009698768
73	0x3ca48bca	0.020086188
74	0x3cbbe154	0.022934593
75	0x3ca72358	0.020402595
76	0x3cdf29ac	0.02724155
77	0x3ceef6aa	0.029170353
78	0x3bc69b57	0.0060609984
79	0x3cafeec0	0.02147615
80	0x3c109820	0.008825332
81	0x3d6948c3	0.056954157
82	0x3d881097	0.06643789
83	0x3c45276b	0.012033324
84	0x3d980123	0.07422092
85	0x3d0463dd	0.0323218
86	0x3c1312f4	0.008976687
87	0x3d101abc	0.035181746
88	0x3d186766	0.037207983
89	0x3d02f1e0	0.03196895
90	0x3d0b26bd	0.03397249
91	0x3c0266e0	0.007959098
92	0x3d28e699	0.04123554
93	0x3d63a592	0.055577822
94	0x3c90ba02	0.01766682
95	0x3ccd1f04	0.025039203
96	0x3c9dfc94	0.019285478
97	0x3bef2bfe	0.0072989454
98	0x3c8a5192	0.016884599
99	0x3c2f6667	0.010705567
100	0x3cfbc7b9	0.030734884
101	0x3cf1bb21	0.029508175
102	0x3cc64547	0.024202956
103	0x3cdc2f14	0.026877917
104	0x3c9965f6	0.018725377
105	0x3cd0f64d	0.02550807
106	0x3d1c67f4	0.038185075
107	0x3c52a653	0.012857038
108	0x3ca2e001	0.019882204
109	0x3d7209c2	0.059091337
110	0x3c70fd73	0.0147088645
111	0x3cf61b62	0.030042354
112	0x3d10b885	0.03533222
113	0x3b80e89f	0.0039339806
114	0x3c5609f3	0.0130638955
115	0x3d08f2d9	0.033434723
116	0x3de674f6	0.11252777
117	0x3ca6b14b	0.020348212
118	0x3ca68e64	0.020331569
119	0x3d072bae	0.03300064
120	0x3cb4e405	0.022081384
121	0x3cdd50aa	0.027016003
122	0x3cb94816	0.022617381
123	0x3d1f3802	0.038871773
124	0x3c615d45	0.013755147
125	0x3cbf9060	0.023384273
126	0x3bb35a33	0.005473399
127	0x3caa67a1	0.020801367
128	0x3c84b770	0.016200751
129	0x3c934d3b	0.017981162
130	0x3d964ba1	0.07338644
131	0x3ca0bff2	0.019622777
132	0x3cf1abcd	0.029500866
133	0x3c58486e	0.013200862
134	0x3cc10486	0.023561727
135	0x3d78dade	0.060755603
136	0x3d168354	0.036746338
137	0x3c141338	0.009037785
138	0x3c8fcec4	0.017554648
139	0x3cb3152a	0.021860678
140	0x3cffda7d	0.031232113
141	0x3cc70553	0.024294531
142	0x3c99256a	0.018694598
143	0x3cc1103a	0.023567308
144	0x3c1a4897	0.009416721
145	0x3cacfe22	0.021117274
146	0x3c94ee0f	0.018179921
147	0x3c54780f	0.012968077
148	0x3cc61e9d	0.02418452
149	0x3ca3648f	0.019945411
150	0x3d18387e	0.03716325
151	0x3c91eca8	0.017813042
152	0x3d331f45	0.043730993
153	0x3d80b906	0.062852904
154	0x3d853699	0.06504554
155	0x3c0ff106	0.008785492
156	0x3d24a334	0.040194705
157	0x3ce50cde	0.027960237
158	0x3c2d4264	0.010574911
159	0x3c5785ba	0.0131544415
160	0x3d49caf7	0.049265828
161	0x3c96d454	0.018411793
162	0x3c97f94d	0.018551493
163	0x3cafad97	0.021445079
164	0x3cb08913	0.021549737
165	0x3d375818	0.044761747
166	0x3c319c83	0.010840538
167	0x3c7eb0ad	0.0155450525
168	0x3c3672d6	0.011135777
169	0x3ca8586b	0.020549973
170	0x3d8bfdff	0.06835555
171	0x3c4d2d73	0.012523043
172	0x3d4a18da	0.049340107
173	0x3c8a345f	0.016870676
174	0x3c84fbbc	0.016233318
175	0x3cbcad92	0.023031984
176	0x3ca0d38e	0.019632127
177	0x3d0289f4	0.031869844
178	0x3ca9925b	0.02069967
179	0x3cae0b74	0.021245696
180	0x3bd2eb4b	0.0064367405
181	0x3ca6f961	0.020382585
182	0x3c74902b	0.01492695
183	0x3cbfc312	0.023408446
184	0x3c0bfb53	0.008543807
185	0x3cadc91e	0.021214064
186	0x3d47d36c	0.048785612
187	0x3c0c8cdf	0.008578508
188	0x3ca38d3f	0.019964812
189	0x3cb0a7ef	0.021564452
190	0x3ccb318b	0.024803897
191	0x3c586db7	0.013209752
192	0x3c5f2845	0.013620441
193	0x3d5dff4a	0.05419854
194	0x3c51d219	0.012806439
195	0x3c47ccc6	0.012194818
196	0x3d109ea1	0.03530753
197	0x3bd9a8ba	0.006642428
198	0x3ce69040	0.028144956
199	0x3b6a9e85	0.0035800051
200	0x3c604cba	0.013690168
201	0x3cd274da	0.025690485
202	0x3d001f82	0.03128005
203	0x3c14422d	0.009048981
204	0x3c53f619	0.012937092
205	0x3c30fcb5	0.010802438
206	0x3d5826c1	0.052771334
207	0x3bdcae2d	0.0067346306
208	0x3d26cd44	0.0407231
209	0x3cca8886	0.024723303
210	0x3c8cfb2c	0.017209612
211	0x3d3727ec	0.044715807
212	0x3d5e1dad	0.05422752
213	0x3ceedc38	0.029157743
214	0x3c22c5d8	0.009934865
215	0x3cefdb5e	0.029279407
216	0x3d1bff19	0.038085077
217	0x3c2cdae5	0.010550235
218	0x3d04a15d	0.03238045
219	0x3cbfb5ce	0.02340212
220	0x3d0ed32b	0.034869354
221	0x3c275cfe	0.010215042
222	0x3cdb8a16	0.026799243
223	0x3c67cbf3	0.014147746
224	0x3c28835d	0.010285226
225	0x3cfb16c6	0.030650508
226	0x3ce07682	0.027400259
227	0x3d4bec9c	0.049786195
228	0x3d1c7e70	0.038206518
229	0x3c555365	0.013020371
230	0x3c8a147e	0.016855475
231	0x3d4dc134	0.05023308
232	0x3cf8ce8c	0.030371927
233	0x3c99d71d	0.018779332
234	0x3cf5156d	0.029917443
235	0x3d2ab241	0.041673902
236	0x3cabecf6	0.020987015
237	0x3c2a511c	0.010395315
238	0x3ca9185c	0.020641498
239	0x3c2a0658	0.010377489
240	0x3c0bdc6b	0.008536438
241	0x3cbbdf29	0.02293356
242	0x3c02566d	0.007955176
243	0x3c87b5fc	0.01656627
244	0x3cc0675a	0.023486782
245	0x3cda9fb6	0.026687484
246	0x3b9ac1a1	0.0047227894
247	0x3d3a6577	0.04550692
248	0x3cdc9eee	0.026931252
249	0x3d7518fa	0.059838273
250	0x3c85aa46	0.016316544
251	0x3d7b88d9	0.061409805
252	0x3c4cebc9	0.012507387
253	0x3cdc906a	0.02692433
254	0x3c7105c6	0.014710849
255	0x3c2b429e	0.0104528945

convs.0.bases_weight f4 [256, 128]
0	0x3c7fe2ca	0.015618036
1	0x3d0eaad5	0.034830887
2	0xbdb18051	-0.086670525
3	0x3de1c934	0.110247046
4	0x3d38167b	0.044943314
5	0x3c88f5f8	0.01671885
6	0x3df62eaf	0.12020623
7	0x3c449f67	0.012000895
8	0xbdee333b	-0.11630865
9	0xbdfd30d4	-0.12362829
10	0xbca86df2	-0.020560239
11	0x3d9c8b58	0.07643765
12	0x3d30f4c6	0.043202184
13	0xbd7004c7	-0.058598306
14	0xbde5954b	-0.11210116
15	0xbdaf4731	-0.085585006
16	0x3b990b54	0.00467054
17	0x3cf0217b	0.02931284
18	0xbde86f1b	-0.11349317
19	0x3d298284	0.041384235
20	0x3d10bfa4	0.035339013
21	0xbda85a7c	-0.082203835
22	0x3de209f9	0.110370584
23	0xbe022804	-0.12710577
24	0x3ddcee4b	0.10787638
25	0xbdc2fdec	-0.09521088
26	0x3dd1041a	0.102058604
27	0xbdca3b2f	-0.098745696
28	0xbd09fd0e	-0.033688597
29	0xbd5f8983	-0.0545745
30	0xbd1d0587	-0.03833535
31	0x3de7534b	0.11295184
32	0xbd655f2d	-0.05599897
33	0xbdfe3c05	-0.124137916
34	0x3d9f6867	0.07783585
35	0x3dc8bca6	0.09801607
36	0xbd5eeab3	-0.054423045
37	0xbdaa94f5	-0.083291925
38	0xbc76859e	-0.015046505
39	0x3d2843a1	0.04108012
40	0xbd801802	-0.06254579
41	0xbd19cff1	-0.037551824
42	0xbd1991a2	-0.037492402
43	0xbd852484	-0.065011054
44	0xbd87c02a	-0.06628449
45	0x3d3344b5	0.043766696
46	0x3d744385	0.059634704
47	0x3d060d8a	0.032727756
48	0xbd832b28	-0.06404716
49	0xbd1e15c7	-0.038594987
50	0x3d2360d5	0.039887268
51	0xbd53e363	-0.051730525
52	0x3c062a1d	0.0081887515
53	0x3c98bf17	0.018645806
54	0xbde8d01d	-0.113678195
55	0xbd535004	-0.05158998
56	0x3de3fe31	0.111324675
57	0x3d121a9a	0.0356699
58	0xbcf4f79a	-0.029903222
59	0x3bd0f8d2	0.006377318
60	0xbdefec2b	-0.11714967
61	0x3d99dbce	0.075126275
62	0x3d7bce83	0.06147624
63	0xbd586a3a	-0.05283568
64	0xbd3ec93c	-0.04657863
65	0xbd90f5b1	-0.07078112
66	0xbc7d8360	-0.015473217
67	0x3d5bf461	0.053699855
68	0x3d45bea0	0.048277497
69	0x3dc6db5c	0.09709808
70	0x3c8a90fc	0.016914837
71	0x3deded33	0.11617508
72	0x3da4eb0c	0.08052644
73	0xbddf59eb	-0.10905822
74	0xbb2ca493	-0.002634321
75	0x3dc5d121	0.09659029
76	0x3d94e1b6	0.072696134
77	0x3d7a813f	0.061158415
78	0x3df8faf6	0.12157242
79	0x3a344a42	0.00068775204
80	0x3d76c121	0.060242776
81	0x3d8bf9ef	0.068347804
82	0x3cf5c72c	0.0300022
83	0x3db1a06a	0.08673175
84	0x3cdd353d	0.027002925
85	0xbded8e61	-0.11599422
86	0x3de42d10	0.111414075
87	0x3c781092	0.015140669
88	0x3dc825aa	0.09772809
89	0x3d80da6b	0.0629166
90	0xbc98c22e	-0.01864728
91	0xbce54127	-0.027985169
92	0xbd354d33	-0.044263076
93	0x3d865a25	0.065601625
94	0xbd7d246f	-0.061802324
95	0x3d9ae712	0.075636044
96	0x3c2980c3	0.010345641
97	0x3cd02760	0.0254094
98	0x3dfd7b49	0.123770304
99	0x3b01111a	0.0019694031
100	0x3d02eba2	0.031963
101	0xbdd9b4aa	-0.10630162
102	0xbdaf504b	-0.085602365
103	0xbba515ed	-0.005038014
104	0x3d34ce99	0.04414234
105	0x3d4ec35c	0.050479278
106	0x3d5fe44a	0.054661073
107	0x3da416a7	0.08012133
108	0xbd0a28e3	-0.0337304
109	0xbd8700c9	-0.06591947
110	0x3d5002af	0.05078381
111	0xbd762154	-0.060090378
112	0x3db42562	0.08796193
113	0x3d0a73d8	0.033801883
114	0xbcbb6610	-0.022875816
115	0xbd183c70	-0.037167013
116	0xbd6c88f0	-0.05774778
117	0x3dc06709	0.093946524
118	0xbb8cac62	-0.0042930106
119	0xbd1b71ab	-0.0379502
120	0x3d8bac77	0.068200044
121	0x3b14c1c2	0.0022698496
122	0xbb86ead6	-0.00411735
123	0x3da61e16	0.08111207
124	0xbdcbd1e0	-0.0995214
125	0x3dd4e062	0.1039436
126	0xbb3bf31c	-0.002867884
127	0xbd954099	-0.07287712
128	0xbdab15b7	-0.08353751
129	0xbda0e9d3	-0.078570984
130	0xbd36c5b7	-0.04462215
131	0xbd532917	-0.05155286
132	0x3dc6ad31	0.097010024
133	0xbb958720	-0.0045632273
134	0xbd87b58c	-0.06626424
135	0xbb83ef00	-0.0040262938
136	0x3b61f7db	0.0034480009
137	0x3c8555c3	0.016276246
138	0x3cf45ea2	0.02983028
139	0xbdfb8933	-0.12282028
140	0xbddedb10	-0.108816266
141	0x3d55e772	0.052222677
142	0x3dede998	0.1161682
143	0x3de7c6b6	0.11317198
144	0xbc9a3c23	-0.018827504
145	0xbcae215b	-0.02125614
146	0xbdf3db27	-0.11907034
147	0x3db71a9d	0.08940623
148	0x3da7c954	0.08192697
149	0xbc093ff1	-0.008377061
150	0xbbb10e18	-0.0054032914
151	0x3d44b1e4	0.048021212
152	0xbdb6125b	-0.0889022
153	0xbdebd804	-0.11515811
154	0x3d76d6d0	0.060263455
155	0x3da05e70	0.078305125
156	0xbd84e092	-0.06488146
157	0xbddeea9e	-0.108845934
158	0x3d0f3b45	0.034968633
159	0xbc9d1c19	-0.019178437
160	0xbcfdd31a	-0.03098445
161	0xbd9173cd	-0.07102165
162	0x3dabfb97	0.08397596
163	0x3d70e738	0.058814257
164	0xbdaec401	-0.085334785
165	0xbd0cedc9	-0.034406457
166	0x3c076efd	0.008266208
167	0xbd1c9e57	-0.038236942
168	0x3b92022b	0.004455825
169	0x3df2927f	0.11844348
170	0xbb947f56	-0.004531781
171	0x3d4ab9ba	0.04949353
172	0x3d49bafe	0.049250595
173	0xbd95435a	-0.07288237
174	0xbc4b8976	-0.01242291
175	0x3d474602	0.04865075
176	0x3dc00c45	0.0937734
177	0xbdb438cb	-0.08799895
178	0xbd99484c	-0.07484493
179	0x3b139746	0.0022520586
180	0xbd817c22	-0.063225046
181	0xbd0790a5	-0.03309693
182	0x3d9f5468	0.07779771
183	0xbc85a309	-0.016313093
184	0x3c743a5d	0.014906493
185	0x3dea8115	0.11450402
186	0x3d81bf08	0.063352644
187	0x3da9e502	0.08295633
188	0xbd8b8fa9	-0.068145104
189	0x3d53caf0	0.05170721
190	0x3d513bb2	0.05108232
191	0x3da40610	0.08008969
192	0x3df6ec40	0.1205678
193	0x3ddfec97	0.10933798
194	0xbddc56f6	-0.10758774
195	0xbdfd5024	-0.12368801
196	0x3de3ff04	0.11132625
197	0x3d44eb6a	0.04807607
198	0x3d0cfa77	0.03441855
199	0xbd0813a2	-0.03322185
200	0xbdc68a29	-0.09694321
201	0xbdbcb287	-0.09213739
202	0xbdae0224	-0.08496502
203	0xbd3c4b32	-0.04597015
204	0x3d91164d	0.07084332
205	0xbddc191f	-0.10746979
206	0x3e018e51	0.12651946
207	0x3dddce17	0.10830324
208	0x3dee26be	0.11628483
209	0x3cd68e11	0.02619079
210	0x3d9a8ae7	0.07546025
211	0x3d16820c	0.036745116
212	0xbc7e0e44	-0.015506331
213	0xbce3f6aa	-0.02782758
214	0xbd9e7363	-0.07736852
215	0x3dbc6150	0.091982484
216	0x3d7faa4b	0.062418263
217	0x3de29e75	0.110653795
218	0x3c578975	0.013155331
219	0x3dace447	0.08441978
220	0xbd9d84c9	-0.076913424
221	0xbda82977	-0.08211034
222	0x3cd3164b	0.025767466
223	0x3d0a151f	0.03371155
224	0x3d9e2df1	0.077236064
225	0xbd34f61b	-0.044180017
226	0xbd382306	-0.044955276
227	0x3dd678d5	0.10472266
228	0xbc959eac	-0.018264137
229	0xbdf868d6	-0.12129371
230	0xbdf3c8a7	-0.11903506
231	0x3bff5d12	0.0077930773
232	0x3dedf47d	0.11618898
233	0xbd8fbfd9	-0.07019014
234	0x3d08bf96	0.033385836
235	0xbdf0a427	-0.117500596
236	0x3dce6281	0.10077382
237	0x3d3c84ee	0.04602521
238	0x3c884e51	0.016638907
239	0x3da75618	0.08170718
240	0x3dfdd361	0.12393833
241	0xbb8ce32e	-0.004299543
242	0xbdfa33b8	-0.12216896
243	0x3de55a59	0.11198873
244	0x3ca63600	0.020289421
245	0xbda388ca	-0.07985075
246	0x3daeb8bc	0.08531329
247	0xbda19201	-0.07889176
248	0x3d9df550	0.07712805
249	0x3dc9cb8f	0.09853279
250	0x3d76330a	0.06010727
251	0x3ce1eae6	0.027577829
252	0x3d19e8fb	0.037575703
253	0xbcfa61a2	-0.030564133
254	0xbd726519	-0.059178445
255	0x3de66ea4	0.11251572
