production/TDC/sr-p53/checkpoint/state_dict.pt (torch, 623509 bytes, 41 tensors)

lin1.weight f4 [256, 27]
00000000: 3d41 a23d 0876 303e 6a4d 9e3d 43bf d3bd
00000010: fcb4 e63d b2ca 3abc 982e 83bc fca1 203e
00000020: 9de3 bdbb 9fda e8bd d9c7 b4bd 342b aebd
00000030: bd12 1dbe 4a91 363e edf4 21be 2bd7 443e
00000040: ad1f 353e 63f3 1ebe 17cf 0e3d 150e 8f3d
00000050: 6d3c c2bd 4c1f 163e af20 603b c75e aebd
00000060: 64b5 9b3c 18ef 24bd c0cb 09be b241 82bd
00000070: 8b13 163e b5c0 10be 1e94 3abe 12c7 7dbd
00000080: 608d 5a3d 8870 a63c f00d f93d 5603 c33d
00000090: fce6 25be 48d7 b9bd 6b05 d93d 381c 363d
000000a0: 3875 883d a77a 0dbc 573b f73d cb85 2b3e
000000b0: 86ae 0fbd fb17 0c3d 5643 493e 553e e53d
000000c0: c1fd 90bc 2352 adbd abea c7bd 29aa 7f3d
000000d0: 3f3e fabd 8b64 9ebd 981e 26be 2abc 7d3d
000000e0: c01d 3ebe 8298 38be fc64 05be c2bf 7abd
000000f0: 0524 45be 3701 fa3d 66ee fcbd f26c 563c
00000100: d9a5 3a3e 5cfb 383e 71d3 b93c c897 e23d
00000110: 66c5 33be ed62 a2bd 5b1b 7ebc e8fc 99bc
00000120: 9a07 c2bc a044 35bc 175e 3fbe 4668 0fbe
00000130: af1b c23d b3e8 3abe 64d9 e5bc 83c3 0fbe
00000140: 71ca 1b3e 59f8 423e 7426 2abe f2ee 1dbe
00000150: 3c2e 8e3d ae12 14be a294 07be 5346 183e
00000160: ade8 2b3e e46c 15be 40fb 183e a912 b4bd
00000170: e7b6 a3bd 6680 ef3d aaa9 9b3c c7e7 23bd
00000180: 7009 5bbd f47e 353e 3aaf 29be 8d81 0bbe
00000190: 6efe 3f3d 5019 39be 4f62 083e ab1b ccbd
000001a0: 06c3 fc3d 35ec cfbd 5232 15bd 5913 a7bc
000001b0: 2f9f cc3d c90f 023e b371 aa3d 2080 a23d
000001c0: e5c9 0f3e 861c 34be 1fad c7bd c5f3 433d
000001d0: 15f1 33bd 3e18 b23d dfc1 353d dc5a f7bd
000001e0: 2fed 74bd 8523 103e d5fe 483d bf8d bb3c
000001f0: bfe5 3a3e 4350 d2bc 3e34 313d ea71 ee3d
00000200: 6d05 18bd d126 75bd ce74 263d 85bd 3cbe
00000210: 5f2a 3ebd 41da f73d 523a ae3d d9e8 27be
00000220: a164 12be 7f9a 9cbd 6b08 bcbd 29bc 213e
00000230: 9418 bebc 2e37 31be a872 b9bc 0cc6 4fbd
00000240: 53c2 983d 0806 c5bd 9e49 06be 6272 12bd
00000250: eb34 10be 6690 d9bd 732a d33d 1c7c 413d
00000260: 5e4a e53d 4f90 24be fef0 163e bf01 413e
00000270: 70e1 3a3e 74fe 22bc 5bba 013e 526b 8b3d
00000280: a634 37be 6d43 b939 c1cb dfbd 2181 37be
00000290: 4234 ad3d dfa2 d6bd 636d f9bd a43e 013e
000002a0: 66b5 13be 3c26 1b3e a8a4 713d ab74 223e
000002b0: 7b98 16be 367c cabd 522a 20bd 1f52 54bc
000002c0: de66 82bd 248d 29be f515 32bd 104d 22be
000002d0: 31cf 2d3e 7180 2fbe 220c dfbb e7d3 febd
000002e0: 402e 86bd 9513 36be 19ec ebbd 4c0e 423c
000002f0: bd65 2c3e 9c60 26be bde9 c43d 5104 5ebd
00000300: fe7e 263e d364 e4bd 74cc ef3c ad40 183e
00000310: fe48 40bd efcd cb3d 2ae1 31be 0578 363e
00000320: 2e65 053e 4946 143e 04a6 b43d 6a66 16be
00000330: c595 11be b746 cfbd 0852 5fbd eecb 843d
00000340: 89ec eabc 7b35 2c3d 3831 173e 76bc d5bd
00000350: cf98 c8bd fc6e 0cbe 66fa a0bd 099e 633b
00000360: 53b5 cf3d 5666 1bbe 854a a0bd b1cb d63d
00000370: a142 603d 0d45 8abd afe8 3d3e 4a22 2c3d
00000380: 53ff 72bd 4682 84bb 6ed1 d43d ab60 f23d
00000390: 95cd a5bd 91f7 be3d 0db4 35be a5cd 07be
000003a0: 45be ce3a ec0a 0e3d 9166 453e b62a d5bd
000003b0: 6b13 34be bdfd a7bd dc57 c0bd ad72 873d
000003c0: bd8d c73c cb2d 23be c8b3 a03c 0d95 cf3b
000003d0: 1098 e43c a6ad e13d 4a28 24be b1fc 32be
000003e0: 6678 d1bd c885 1e3e bfd3 c03d fbff 153e
000003f0: 2804 a93d 8fd7 28be 9e69 2c3e a7d9 333d
0.079225995 0.17232525 0.07729609 -0.10339215 0.11264989 -0.011400865 -0.016013429 0.15686792
-0.005794956 -0.11369824 -0.088271804 -0.08504334 -0.1533918 0.17828861 -0.15816088 0.19222705
0.17687865 -0.15522532 0.034865465 0.06985108 -0.094841816 0.14660376 0.0034199168 -0.08514171
0.019007392 -0.04026708 -0.1345663 -0.06360187 0.14655893 -0.14136012 -0.18220565 -0.061957426
0.053357482 0.020317331 0.121608615 0.09522121 -0.16201395 -0.09074265 0.105967365 0.044460505
0.06662983 -0.0086352 0.12071865 0.16750257 -0.035078548 0.034202557 0.19654593 0.111935295
-0.017699124 -0.08462932 -0.09761556 0.062418137 -0.12218904 -0.07734021 -0.16222608 0.061947025
-0.18566036 -0.18026927 -0.13026804 -0.06121803 -0.19252022 0.12207263 -0.123501584 0.013087498
0.18227328 0.18064636 0.022683831 0.11064106 -0.1755577 -0.07929025 -0.015509452 -0.018797353
-0.023685265 -0.011063725 -0.18688236 -0.14004621 0.094779365 -0.1825283 -0.028057761 -0.14039426
0.15213944 0.1904005 -0.16616231 -0.15423182 0.06942412 -0.1446025 -0.13240293 0.14870577
0.16787978 -0.1459232 0.14939594 -0.08792622 -0.0799387 0.11694412 0.0190018 -0.040015962
-0.053475797 0.1772421 -0.1657075 -0.13623638 0.046873502 -0.18076062 0.13318752 -0.09966215
0.12341885 -0.10152475 -0.036424942 -0.020394968 0.09991299 0.12701334 0.08322468 0.07934594
0.1404186 -0.17589006 -0.09749817 0.0478399 -0.043931086 0.0869603 0.044374343 -0.12077877
-0.05979651 0.1407605 0.04907115 0.022894738 0.18251704 -0.025673037 0.043262713 0.11642821
-0.03711455 -0.05985147 0.040638737 -0.18431671 -0.046427127 0.121021755 0.085072175 -0.16397418
-0.142962 -0.07646655 -0.09181293 0.15794434 -0.02320508 -0.17306206 -0.02263768 -0.05072598
0.074589394 -0.09620291 -0.1311402 -0.035753615 -0.14082687 -0.10623245 0.10310831 0.0472375
0.11195825 -0.16070674 0.14740369 0.18848322 0.1825006 -0.009948362 0.12668745 0.06807579
-0.17891178 0.00035336186 -0.10927535 -0.17920353 0.08457233 -0.10480284 -0.12179067 0.12621552
-0.14424667 0.15151304 0.05899492 0.15864818 -0.14706604 -0.098869726 -0.03910286 -0.012959032
-0.063672766 -0.16557747 -0.04347797 -0.1584971 0.16973568 -0.1713884 -0.0068068663 -0.12442761
-0.0655179 -0.17780907 -0.115196414 0.011844229 0.16835685 -0.16247791 0.096148945 -0.054203335
0.16259381 -0.11152043 0.029272296 0.14868422 -0.04694461 0.09951388 -0.1737105 0.17819221
0.13026878 0.14479937 0.088207275 -0.14687505 -0.14217289 -0.1012091 -0.05452159 0.06484209
-0.028677242 0.04204319 0.14764869 -0.10436337 -0.09794771 -0.13714212 -0.0786026 0.0034731647
0.10142007 -0.15175757 -0.078267135 0.1048807 0.054751042 -0.06751452 0.18545793 0.042024888
-0.059325527 -0.00404385 0.10391508 0.11834844 -0.08095852 0.09324563 -0.17744465 -0.13262041
0.0015773257 0.034678385 0.19277407 -0.10408537 -0.17585532 -0.082026936 -0.09391758 0.066136695
0.024359578 -0.15935437 0.019616976 0.006334907 0.02790454 0.11019449 -0.16030994 -0.17479207
-0.10228042 0.15480721 0.09415387 0.1464843 0.08252746 -0.16488479 0.16837165 0.04390874

lin1.bias f4 [256]
00000000: 9cf2 d93c cd3c 2b3e f4f0 053d ce32 a8bb
00000010: cb83 efbd 1fc9 b13d 3551 1cbe 13f5 71bc
00000020: 089c 3d3e c864 96bd efce eabd f592 e83d
00000030: de60 6dbd f695 18bd 4bc2 95bd 97aa dabd
00000040: 4411 333d cf53 d43c e961 8cbd c570 2cbe
00000050: f81b 203e 21a1 1d3e e165 eebc 8f05 b93d
00000060: 2fff 1abd aef4 103e aa69 d9bd 5a32 1bbd
00000070: d34c 443e 175c 21be 824f 3dbc 859a 993d
00000080: 100b 433e 4923 8abc fca7 c3bd 6737 a13d
00000090: 3f98 cfbd 1a30 803d 6426 323e cd88 053e
000000a0: 1e41 f53d 120a 62bd 95ea 07be 0111 e1bd
000000b0: 5867 e0bd 1308 0c3e 244b ec3d f386 dcbd
000000c0: 454f 453e d925 293e 4cfc e3ba 2266 573d
000000d0: 28c6 813d f1e8 323e 1d47 143e 17f0 cdbc
000000e0: 2f12 be3d 2416 303e 8ff1 6abc 4e9f 123d
000000f0: d1a7 b63d fb1a cbbd 16d9 363e 0b7e 8f3d
00000100: 1b4c 31be 61f4 453d c887 07be 8d4f ca3c
00000110: 29cb 2e3e e0bc e93c e52c eb3d 8997 5f3d
00000120: f4d9 3a3e 1b8c fcbc 254d 89bd 153b ecba
00000130: 043a 213e 6c6b 2e3e c567 c33c 9635 46be
00000140: d147 f4bd d582 0cbd 2b2a e03c 43c1 1cbe
00000150: 8f45 fcbd e31e 2b3e ac7c 103d 98f6 2d3e
00000160: c548 a8bd 4e70 aebd 49ab 05be a9d7 f53d
00000170: 02da 5a3c e5b6 b2bd 57cc 0a3e bc01 6f3c
00000180: 8e50 34be 5070 453e 9f8e 35be 2d65 a8bc
00000190: f5f8 d5bd caf3 023e cd11 98bc cfaa ee3c
000001a0: 5edb 243e 07fd 953d b8a0 8dbd 645c 043e
000001b0: 9860 01be 002a 983c 3628 df3d 86e4 22be
000001c0: 599f 173d e7fa fcbd 571f 95bc 268b d33c
000001d0: 5bb5 4d3d 64b1 113e c78b 343d b25c 413e
000001e0: 62b1 0bbe ac72 3fbd 8905 33be f0dd 1c3e
000001f0: 4f80 efbd aa61 333d 5e54 053e 3575 3dbe
00000200: ffb3 b53d 2f01 203e 7910 503c 6c92 1d3e
00000210: c95f f2bc ca35 663d fb75 3cbe 6ccf 90bd
00000220: 73fd c4bd c887 38be ca0d 0e3c 8da5 f43d
00000230: a0a8 b8bd 70c8 44be 2884 f1bd ce60 0dbe
00000240: e8ae 563d 5c65 8f3d 03f8 13be 7ba1 9b3c
00000250: 59da 6dbd 3e36 103e a1cf c63d 47c7 be3c
00000260: e58b bd3d b666 11be 0a37 d73a 4fef 5abc
00000270: 3c2d 343e b31e 59bd 374f 85bd b408 a6bd
00000280: 252f a4bb 1c23 00be 317b 0e3d 41c4 b4bd
00000290: 0b7c 7cbc c25c 1ebe 84f7 023e 35e2 e2bd
000002a0: c10e c83c 4dda 863d 59cb 2d3d ce34 2fbe
000002b0: 196d ef3c 7e76 233d d938 453d 5d24 4b3d
000002c0: 203c 37be 5c40 36bd a4b0 2c3e 5ce4 1cbd
000002d0: fa52 0dbe f9b8 093e 0d73 0e3e 0e9a f6bd
000002e0: a90e 423e 30f3 4e3d a448 a73d c1c8 97bd
000002f0: 49d5 07be 75d7 8d3d ce96 3cbd 6629 513d
00000300: e370 323e 06c9 103e 097b 043d ed0f 873d
00000310: a43e 3c3e 9d18 09be da51 03be 3ae5 0d3e
00000320: 831f cabd 3525 25be b8d2 193e 4624 e03b
00000330: 37b3 2fbe 3daa adbd 3ac7 2bbe 9c94 6b3c
00000340: f7d8 91bc 72dd 2d3e edf2 373e bcd8 e3bd
00000350: 1486 87bd 31d0 583a ea67 81bc 4f7e 8ebc
00000360: fa9e 723d bbb3 c9bc 1bda 23be 7f46 cabd
00000370: de08 0ebe 934d 5abd 92ae 28be 207b 0cbe
00000380: 5395 203d a910 cc3a 4085 96bd 2d98 28be
00000390: fdfa c6bc 4166 993d 28ee 183e 58fc 083e
000003a0: d0af 9f3c fba7 1ebe 452b 463e ce7f 013e
000003b0: accc 113e 274a 803d 23d0 0fbe 38dd 2abb
000003c0: 2345 97bd 2122 1fbe ad4d a7bd 54e3 48bd
000003d0: 2980 12be 96c9 c03d 44e6 103e fa6c 9abd
000003e0: 87b4 473d fdc9 533d 81c6 1bbd 039d aebd
000003f0: 2cf7 d63d e90a fe3d a91f 2b3e 7135 d93d
0.026604943 0.16722412 0.032700494 -0.0051330095 -0.116950594 0.08680939 -0.15265353 -0.014767903
0.18516552 -0.07343441 -0.11465251 0.11356155 -0.057953708 -0.03725239 -0.07312449 -0.10677069
0.043717638 0.02591887 -0.068546124 -0.16839893 0.15635669 0.15393497 -0.029101314 0.09034263
-0.03784102 0.14155838 -0.10615857 -0.037889816 0.19169931 -0.15757786 -0.011554601 0.075001754
0.19047189 -0.016862528 -0.09553525 0.07871895 -0.101364605 0.06259175 0.17397457 0.13040467
0.11975311 -0.055185385 -0.1327308 -0.10989571 -0.10957211 0.13674955 0.115377694 -0.10767927
0.1926852 0.16518344 -0.0017393916 0.052587636 0.063366234 0.17471673 0.14480253 -0.025138898
0.09280812 0.17195946 -0.014339819 0.035796456 0.08918727 -0.099172555 0.17856249 0.07006463
-0.17314188 0.04832876 -0.1323539 0.024696136 0.17069687 0.028532445 0.11483172 0.054587875
0.18247205 -0.030828526 -0.06704167 -0.0018022979 0.15744787 0.17033166 0.023853192 -0.19356379
-0.119277604 -0.03430446 0.027363857 -0.15308098 -0.12317955 0.16711001 0.035275146 0.169886
-0.08217005 -0.08517514 -0.13053621 0.120040245 0.013357641 -0.087262906 0.13554512 0.014587816
-0.17608854 0.19281125 -0.17730187 -0.020556057 -0.104478754 0.1278831 -0.018563176 0.029134182
0.16099307 0.07323652 -0.0691542 0.12925869 -0.12634504 0.018574715 0.108963415 -0.15907487
0.0370172 -0.12352543 -0.01820342 0.025823187 0.050221782 0.14227825 0.044078615 0.18883017
-0.13641885 -0.04674022 -0.1748258 0.15319037 -0.11694395 0.04379431 0.13020465 -0.18501742
0.08872222 0.15625452 0.01269924 0.15387887 -0.02958669 0.05620364 -0.18404381 -0.070708126
-0.09618654 -0.18020546 0.00867028 0.11945639 -0.09016538 -0.19217086 -0.11792785 -0.1380646
0.052412897 0.07001755 -0.14450078 0.018997898 -0.05806956 0.14083192 0.09707571 0.023288382
0.092551984 -0.14199337 0.0016419601 -0.01336272 0.1759538 -0.053007793 -0.0650925 -0.08107129
-0.005010503 -0.12513393 0.034785453 -0.08826495 -0.0154104335 -0.15465072 0.12789732 -0.11078302
0.024421098 0.06584606 0.042430256 -0.17109987 0.029226827 0.039907925 0.048149917 0.049595226
-0.1789403 -0.04449497 0.16864258 -0.038303718 -0.13801184 0.13449468 0.13911076 -0.12041102
0.18950905 0.05052489 0.08168152 -0.07411338 -0.13264956 0.06925861 -0.046042256 0.05106487
0.17425875 0.14139184 0.032343898 0.065948345 0.1838327 -0.13388295 -0.12824193 0.13856974
-0.09869292 -0.16127475 0.15021789 0.0068402616 -0.17158209 -0.08479736 -0.16775218 0.014378693
-0.017803652 0.16979006 0.17963763 -0.11125323 -0.0661737 0.0008270769 -0.01579662 -0.017394213
0.059233643 -0.024621835 -0.1600117 -0.09876727 -0.1387057 -0.053296637 -0.16472843 -0.13718843
0.039204907 0.001556893 -0.07349634 -0.164643 -0.024289602 0.074902065 0.149346 0.13377512
0.019493014 -0.15493767 0.19352444 0.1264641 0.14238232 0.062641434 -0.14044242 -0.0026071798
-0.07386234 -0.15540363 -0.08169112 -0.049044922 -0.14306702 0.094134495 0.1415034 -0.07540317
0.04875615 0.051706303 -0.038031105 -0.08526041 0.10496363 0.12404425 0.16711296 0.10605896

norm1.weight f4 [256]
00000000: 7d37 7f3f e571 803f f13f 803f 9a2a 7f3f
00000010: 8b84 7e3f 3b42 7f3f 0f71 803f a49a 803f
00000020: 4acd 7f3f 3f1c 7e3f 0b5a 803f 6606 7f3f
00000030: 3f1c 803f 152a 7f3f 236f 803f cf38 7f3f
00000040: 4c6f 803f 77e7 7f3f 1495 803f a031 7e3f
00000050: 7d0c 7f3f 30ec 7f3f 3897 7f3f 4900 803f
00000060: 78c2 803f 7635 803f dfb6 7f3f ce74 7e3f
00000070: f0fe 7f3f 894e 803f f020 803f 9ecc 7f3f
00000080: b02d 803f 521d 803f 3752 7e3f 85c0 7d3f
00000090: 60d9 7f3f 1265 803f f895 803f 8163 803f
000000a0: 327c 803f f387 803f ae6c 803f dc49 803f
000000b0: 1771 7e3f 5d1d 803f fd8c 803f b973 7f3f
000000c0: 775e 7f3f 81a8 7f3f c590 803f 0f4f 7f3f
000000d0: 010f 803f 1e32 803f b351 7f3f 9271 7f3f
000000e0: f97d 803f 763e 803f 61d7 7e3f b219 7f3f
000000f0: a8b3 7f3f ec0d 803f 8d59 803f dd70 803f
00000100: dae5 7f3f 881e 803f 21f0 7e3f 4bd4 7e3f
00000110: aa55 7f3f 594c 803f f3ba 7d3f fa69 7f3f
00000120: eeba 7e3f bd09 803f 2a10 803f ad2c 7f3f
00000130: fb1e 803f 300c 803f 2e91 803f da4f 7e3f
00000140: d395 7f3f ba8d 7f3f 17ef 7e3f 51d8 7e3f
00000150: c478 7f3f 31f9 7d3f 8e64 803f 818e 7e3f
00000160: 018a 7e3f d7a3 803f 8787 7f3f 857b 7f3f
00000170: 22f8 7f3f cc64 803f caec 803f 3827 7f3f
00000180: b02e 7f3f fb3c 803f 89d1 803f 9f95 7d3f
00000190: 777c 803f 96e4 803f ac3d 803f 328a 803f
000001a0: 83ad 7e3f 3db9 7e3f a59a 7f3f bb48 803f
000001b0: 9857 7e3f f4d0 7e3f f34f 803f ce64 803f
000001c0: 312d 803f e72b 803f 852c 803f 7345 803f
000001d0: 4844 7f3f c119 7f3f 9ecd 803f 6b1e 803f
000001e0: 0076 7f3f 3b2d 803f 220c 803f 874c 7e3f
000001f0: f0b1 803f e3fd 7e3f fadf 7d3f 49af 7e3f
00000200: 0381 7f3f 0b1f 7f3f 6f0f 803f 6168 803f
00000210: 061e 803f e667 803f 3763 7e3f 6268 803f
00000220: 2f64 7f3f cc81 803f 0467 7f3f 01b8 7e3f
00000230: 3089 7d3f a627 803f f92f 813f 6da8 803f
00000240: 04e0 7e3f 5ddb 7f3f 4f78 7f3f 8987 7f3f
00000250: 655e 7f3f 902a 803f af23 7f3f 0203 803f
00000260: 680d 7f3f e72d 7f3f dc94 803f 59d4 7f3f
00000270: f4c5 7f3f b89f 803f e927 803f d242 7f3f
00000280: cece 7e3f cfc5 803f ba6a 803f 3208 7f3f
00000290: a56b 7e3f 9466 7e3f e129 803f ced2 7f3f
000002a0: afa7 7e3f 08e8 7f3f f487 7e3f 89f7 7f3f
000002b0: 107a 803f 1f7f 7f3f 5e56 7e3f d6fb 7e3f
000002c0: f0de 7f3f 4510 7e3f 4f3a 7f3f e3f2 803f
000002d0: a144 7f3f e3d3 7f3f 4159 7e3f b3a6 7f3f
000002e0: 056b 803f 6d5f 803f f4fc 7f3f 143d 803f
000002f0: 872c 7e3f 4f2e 803f 36dd 7f3f f2d8 7f3f
00000300: d113 803f 6657 803f ee82 803f abd6 7f3f
00000310: 3c1a 803f a6dc 7f3f fe36 803f d2ae 803f
00000320: 270c 7f3f 63c7 7f3f 1833 7f3f 10c8 7e3f
00000330: 8bef 803f eec5 7f3f 8708 803f e97f 7f3f
00000340: 5fb0 7f3f 4311 803f d339 7f3f d03f 813f
00000350: f479 7f3f fe43 803f bf0b 803f 6040 7f3f
00000360: 413f 7e3f 3c35 7f3f 5251 7f3f 9d62 813f
00000370: 45a9 7f3f 7522 803f 6fc0 7e3f 23c7 803f
00000380: 8903 7f3f 2640 803f 8f2d 803f d418 803f
00000390: e362 803f 7932 7f3f 3d0b 803f 7410 7f3f
000003a0: 4309 803f a425 813f beee 7f3f 4050 803f
000003b0: e07e 7f3f 7a0c 7f3f 81c5 7f3f 66d0 7f3f
000003c0: 622d 7f3f 69a0 7d3f 96a9 7f3f 4582 803f
000003d0: cc58 803f cbeb 7e3f 3b30 803f 9f95 803f
000003e0: baaf 7e3f 8dc6 7e3f e42b 803f f098 803f
000003f0: dafc 7e3f 2aa0 7f3f 4d77 7e3f d36f 7f3f
0.99694043 1.0034758 1.0019513 0.9967438 0.99420995 0.99710435 1.0034503 1.0047193
0.9992262 0.9926185 1.0027479 0.9961914 1.000862 0.9967359 1.0033916 0.9969606
1.0033965 0.9996256 1.0045495 0.9929447 0.9962843 0.9996977 0.99840117 1.0000087
1.0059347 1.0016315 0.99888414 0.9939698 0.9999838 1.0023967 1.0010052 0.99921596
1.0013943 1.0008948 0.993442 0.99121886 0.9994106 1.0030844 1.0045767 1.0030366
1.0037901 1.0041488 1.0033166 1.002254 0.9939131 1.0008961 1.0043026 0.99785954
0.99753517 0.9986649 1.004418 0.9973001 1.0004579 1.0015295 0.9973404 0.9978267
1.0038444 1.0019062 0.9954739 0.9964858 0.9988351 1.0004249 1.0027329 1.0034443
0.999601 1.0009317 0.9958516 0.99542683 0.9974009 1.00233 0.99113387 0.9977108
0.9950398 1.0002972 1.0004933 0.99677545 1.0009454 1.0003719 1.0044305 0.99340594
0.9983799 0.9982563 0.9958357 0.9954882 0.9979365 0.9920836 1.0030687 0.99436194
0.9942933 1.005 0.99816173 0.9979785 0.99987996 1.0030761 1.0072262 0.9966922
0.99680614 1.001861 1.0063945 0.9905643 1.0037984 1.0069759 1.0018821 1.0042174
0.9948351 0.995014 0.99845344 1.0022196 0.9935241 0.9953759 1.0024399 1.0030763
1.0013791 1.0013398 1.0013586 1.0021194 0.99713564 0.9964867 1.0062749 1.0009283
0.9978943 1.0013803 1.0003703 0.9933552 1.0054302 0.9960615 0.99169886 0.99486214
0.9980623 0.9965674 1.000471 1.0031854 1.0009162 1.0031707 0.9937014 1.0031855
0.99762243 1.0039611 0.99766564 0.9949952 0.99037457 1.00121 1.0092765 1.00514
0.9956057 0.99944097 0.9979295 0.99816185 0.9975341 1.0012989 0.99663824 1.0000918
0.9962983 0.99679416 1.0045428 0.9993339 0.9991143 1.0048742 1.001218 0.99711335
0.9953431 1.0060366 1.003257 0.9962188 0.99383 0.9937527 1.001278 0.9993104
0.99474615 0.99963427 0.994262 0.99987084 1.003725 0.99803346 0.99350536 0.9960302
0.9994955 0.99243575 0.99698347 1.0074123 0.99714094 0.9993269 0.9935494 0.9986374
1.003266 1.0029122 0.9999535 1.001864 0.99286693 1.0014132 0.99946916 0.9994041
1.0006047 1.0026672 1.0039957 0.9993693 1.0008006 0.9994606 1.0016782 1.0053351
0.9962792 0.99913615 0.9968734 0.9952402 1.0073103 0.9991139 1.0002602 0.9980455
0.99878496 1.0005268 0.9969761 1.0097599 0.9979546 1.002075 1.0003585 0.99707603
0.9931527 0.99690604 0.9973346 1.0108219 0.9986766 1.0010515 0.9951238 1.0060772
0.9961477 1.0019577 1.0013903 1.0007577 1.0030178 0.9968639 1.000343 0.9963448
1.0002826 1.0089612 0.99973667 1.002449 0.9980297 0.9962841 0.9991074 0.99927366
0.99678624 0.9907289 0.9986814 1.0039755 1.0027099 0.9957854 1.0014719 1.0045661
0.9948689 0.99521714 1.0013394 1.0046673 0.9960457 0.99853766 0.9940079 0.99780005

norm1.bias f4 [256]
00000000: ceb5 69bb 9a60 0cbb 3dd9 513b fa1b 05bb
00000010: 9207 a9bb 8ffa fc3a 9d73 3d3b 6cf7 0d3b
00000020: ce0b 01b9 1871 1ebc dc48 4bbb f2d1 89ba
00000030: 5acb 5b3b d2c8 c8bb d6f7 5abb fc52 85bb
00000040: 648c 993a 9395 9f3b 80b7 003b 0980 f8b9
00000050: b870 82b9 3727 7abb d641 a0bb 2bfc 0f3b
00000060: 2b79 ab3b 1027 4c39 c4e8 03bb 4463 9dbb
00000070: 5ab5 7fbb 1f41 e23b 7fdf f63b ba81 9cb8
00000080: 7449 2e3b c532 fd3b 6fb1 9bbb 2456 3ebb
00000090: 6a5a 6b3b 1488 41bb 797f 23bb 1172 4e3b
000000a0: 5b18 d739 8ee2 9a3b 73f4 13ba c586 57bb
000000b0: f8e7 68ba cfb9 0abc a886 bd3b c886 63bb
000000c0: 4f29 a8b9 bfdd 7439 e47e 6fbb 702f fbb9
000000d0: 5a78 503b 7900 123b 6911 04bc b58f 67bb
000000e0: 373d 653a 681c aebb e2a2 0dbb fa41 12bb
000000f0: 527e 123b 0469 8f3b 0acd 993a bc37 6fbb
00000100: 4faa ff39 3b4c 4bba bb12 07bb 7799 35bb
00000110: b850 b6b9 282f b338 0532 77bb 51cf af3b
00000120: ebe9 2abb 1dae 00bb 1a8b 933b 2385 89b9
00000130: a866 c8ba fb50 c1ba c355 4c3b 5da0 453b
00000140: 6ae6 c1bb 6840 caba 0906 9cbb 8fa0 b9bb
00000150: 5831 7fbb a622 dabb 8930 bd3b 4bdf 86bb
00000160: c059 e0bb d7ca 563b e428 bbbb 950b f1bb
00000170: 0ef4 caba e974 d839 263f a43b eaa7 dcb8
00000180: 99d4 a7bb 8d9c 3c3b 51cf f13a d1ee adbb
00000190: f346 a03b fa50 6d3b 288a c9ba 1971 243c
000001a0: dc13 27bc f812 edba e42b 183b 3bdf 053b
000001b0: 8909 bfba c111 d7bb 920b 87bb bc1d 1ebb
000001c0: 5f2c 813a b643 0f3a 1de8 7bbb 8da8 803b
000001d0: f3bf 8ebb e822 58bb e0c9 133b 4800 83b8
000001e0: 76d0 93bb e7f4 7d3b 2566 9fba d2af 71ba
000001f0: 3396 253b 4087 e4bb 2225 de3a 7e6e 2ebb
00000200: cd27 323b 6755 09bb 0a86 d23b 713f 7d3b
00000210: 1cd1 d6ba aa58 8c39 2b08 c3bb ff31 753b
00000220: b064 693a a4b1 8a3b 6911 0bbb f91f 88bb
00000230: 7384 96bb 2b92 f9bb ff7e a33b 492a 7ebb
00000240: 5ed8 a2b9 ebce 2c3b b6c6 fdba 9dd2 b03a
00000250: 299a 40bb b1f7 a6bb 55c9 d1ba 435f 3bb9
00000260: ee03 22bb 2834 913b d69b 873a 18a6 093b
00000270: 1628 a13a 1a39 94ba 70b2 723b 1a68 0fba
00000280: f7bf c0bb bb67 b73b 0b15 9c3a 3b56 2a3b
00000290: 478d 9ebb 96b7 8abb b922 d9b9 dc91 aebb
000002a0: db3b cfbb 8dfc eeb9 c639 93bb 0ce3 4cbb
000002b0: 0744 563a bba2 28b9 7f00 dabb a567 93bb
000002c0: 80d5 09ba d7aa 533b 3ba4 1d3a 628e 92ba
000002d0: 0e9b fc39 c041 473a 2a15 5f3a 336f 0a3b
000002e0: e49b 933b 0e39 df3b cf24 643a c0b8 c23a
000002f0: 2b03 2bbc a7c8 d1ba d974 52bb 5e3d 91bb
00000300: 39d4 5a3b 66df d13b 64b0 5e3b 2269 3bba
00000310: f865 19bb 4eaf 9839 e6be 19bb f906 373b
00000320: d225 17bb f88f d93b 1c5e 643b 905c 0dbb
00000330: ceab 053b fe2c 1d3a c74d 18bb f6fe 5abb
00000340: e7b2 b0ba c6d9 b4ba 1bc1 1bbb c3fc e63b
00000350: 9c3c feb9 3471 a7bb b17f 45ba 2853 6fba
00000360: fc25 b2ba b7b9 6b3a aa38 903a c2cd 233a
00000370: 3b34 c03a f893 25ba da7e 423b 8a0a a93a
00000380: 6342 6ebb df56 d33b 3993 a6bb 2311 2139
00000390: 0ead b83b 9ec8 8d3a d956 103b fb99 d4bb
000003a0: 8acd 57bb d9a2 ff3b 4c03 abbb 9938 883b
000003b0: 0e2b 933a aad3 3abb c36f febb c619 4cbb
000003c0: 6af0 d6bb 86f8 01bc 827f 5aba ba81 773b
000003d0: 995c 9bb9 27cd 8339 528b e2b9 f154 5e3b
000003e0: d3e1 ddbb 3fd2 94bb e8cd f23a 40e2 573b
000003f0: 6816 08bb 624d df3a 3744 26bb c134 68ba
-0.0035661343 -0.0021419884 0.0032020353 -0.0020310865 -0.005158373 0.0019300746 0.0028908022 0.0021662368
-0.00012306796 -0.009670518 -0.003101877 -0.0010514839 0.0033537955 -0.0061274553 -0.0033411882 -0.0040687304
0.0011714813 0.0048701256 0.0019640625 -0.0004739764 -0.00024879514 -0.0038170347 -0.0048906608 0.0021970372
0.00523295 0.00019469508 -0.0020127753 -0.004803093 -0.0039018006 0.0069047357 0.007533967 -7.462823e-05
0.0026594074 0.0077269995 -0.0047513763 -0.0029043043 0.0035912045 -0.0029530572 -0.0024947806 0.0031501094
0.00041026142 0.0047267145 -0.0005644031 -0.0032886725 -0.00088846637 -0.008467152 0.0057838745 -0.0034717787
-0.00032074234 0.0002335226 -0.0036544139 -0.00047909794 0.0031810016 0.0022278114 -0.0080607915 -0.0035333459
0.00087447785 -0.005313445 -0.0021611978 -0.0022317157 0.0022353125 0.0043765325 0.001173408 -0.0036501726
0.0004876428 -0.00077551947 -0.002061053 -0.002770988 -0.00034773885 8.544169e-05 -0.0037719023 0.00536529
-0.0026079367 -0.001963503 0.004502666 -0.0002622987 -0.0015289383 -0.0014748866 0.0031179048 0.0030155398
-0.00591736 -0.0015430572 -0.0047614616 -0.005664892 -0.0038939323 -0.0066569624 0.005773608 -0.004115974
-0.0068466365 0.003277471 -0.0057116617 -0.007356117 -0.0015484111 0.00041285835 0.0050124107 -0.00010521694
-0.005121779 0.0028779835 0.0018448626 -0.00530801 0.0048912703 0.0036211596 -0.0015376257 0.01003673
-0.010197606 -0.0018087318 0.002321952 0.0020427245 -0.0014574985 -0.0065633957 -0.0041212523 -0.002412661
0.0009855143 0.0005465107 -0.003843791 0.003926343 -0.004356378 -0.003297979 0.0022550747 -6.246619e-05
-0.0045109345 0.003875071 -0.0012161179 -0.00092196197 0.0025266528 -0.006974131 0.0016948322 -0.0026616151
0.0027184368 -0.0020955445 0.00642467 0.003864255 -0.0016389224 0.0002676894 -0.0059519014 0.0037413833
0.0008903248 0.004232602 -0.0021220094 -0.004154202 -0.004593426 -0.0076163015 0.0049895043 -0.0038782528
-0.00031060254 0.002636845 -0.0019361589 0.0013490502 -0.0029388762 -0.005095445 -0.0016005436 -0.00017869197
-0.002472158 0.0044312663 0.0010346125 0.002100354 0.0012295272 -0.0011308521 0.0037032627 -0.00054705294
-0.005882259 0.0055970824 0.0011908127 0.0025991339 -0.004838619 -0.004233311 -0.00041415336 -0.0053274464
-0.006324274 -0.00045583062 -0.004492971 -0.003126326 0.0008173589 -0.0001608235 -0.006652891 -0.0044984394
-0.0005257949 0.0032297873 0.0006013547 -0.0011181349 0.0004818071 0.0007601045 0.00085099286 0.0021123409
0.0045046676 0.0068122214 0.00087029947 0.0014856085 -0.010437767 -0.0016005234 -0.0032113104 -0.0044323644
0.0033390655 0.006404805 0.0033979649 -0.000714915 -0.0023406725 0.0002912231 -0.0023459732 0.002792774
-0.0023063314 0.006639477 0.0034846133 -0.0021570064 0.0020396593 0.0005995779 -0.0023239718 -0.0033416129
-0.0013481051 -0.0013797812 -0.0023766223 0.0070491745 -0.00048491813 -0.0051099304 -0.0007533981 -0.0009129518
-0.0013591642 0.0008992212 0.0011003215 0.0006248617 0.0014664003 -0.00063162996 0.002967766 0.0012896818
-0.0036355488 0.006449565 -0.0050834683 0.0001536054 0.005635864 0.0010817235 0.0022024421 -0.0064880825
-0.0032928907 0.0078013954 -0.005218899 0.0041571376 0.0011228041 -0.002850751 -0.007764788 -0.0031143292
-0.0065594213 -0.007932788 -0.000833504 0.0037766532 -0.00029632894 0.00025139117 -0.0004320988 0.003392514
-0.006771305 -0.004541665 0.00185245 0.0032941252 -0.0020765308 0.0017036612 -0.002537025 -0.00088579586

norm1.running_mean f4 [256]
00000000: 80a9 7a3d 1fbd bb3e 37b0 863c 85f4 18be
00000010: ca04 b1bd 75ef 94bd 02ae e3be 56bc d33d
00000020: 23b5 6a3e 2f80 213d dd94 3abe 2b32 e63d
00000030: cc1b b03d fa8e 1fbd 3a8f 3fbe b85e 8abe
00000040: 0d10 413e 41ab f33c 52b8 54bd 54aa 5dbe
00000050: 3bf6 993e 3a95 2c3d d5de b0be 49dd 9b3e
00000060: 8403 103e 6368 403e 7fd3 f13c 6b0f e1bb
00000070: a456 a63e 9f89 d5be c900 113d e393 8c3e
00000080: b8b7 b13d 3f10 1a3c b5f9 1dbe f563 0e3d
00000090: bbb5 04bc 74ba 8e3d 7509 943e a783 02bc
000000a0: c230 b13d 42fc 88be 5fc3 5bbe 59a6 27be
000000b0: 6895 12be 5697 e33d 1a14 723d 5ab2 c6be
000000c0: dc48 903e e3e2 9d3e 4b37 883d df77 123e
000000d0: 78c1 f1bd 03fb ec3d 51a4 403e f4d9 873e
000000e0: b9ca e2bc 378b 5f3d 001b 8cbe 6db3 553e
000000f0: f4ad 0abe d1f7 15bd 924b 673e 08f3 533d
00000100: 408b b1bd e7bf 9abe 47ea aabe d9d2 b93d
00000110: 09e2 bd3e fcf8 383e bbd9 2c3e 1ad4 f43d
00000120: 6624 c03e 5df9 3e3e a38b 5ebd 5e8f 2cbc
00000130: b7b7 acbc 5a8d 3bbe b394 8ebd c0eb c8bd
00000140: f404 98be 9a9b 9ebe 4896 6e3d 1111 40be
00000150: ae90 0bbe 4e71 463e af08 b13d dd4c 4d3e
00000160: edd6 17be f429 53bd ed5f 1dbe f605 0b3e
00000170: 54f4 d03d 81bd 9cbc b64f 1c3d 394d 99bd
00000180: fe14 73be 364d b93d a012 06be b12f 9e3d
00000190: 0679 6fbe 35ec ad3d a77f 0a3e e42f af3d
000001a0: 91fb bf3e 8c1e 19bd dba2 053d d7dc b63d
000001b0: 04a9 27bd 1645 38be 2079 993d 3ae1 0bbe
000001c0: 0c90 aa3b 3314 25bf 39f9 59be 4452 403b
000001d0: e19d 29be 3e88 b4bd ae58 5e3e d6d8 063d
000001e0: e0a3 26be 7ab0 42bd 8e80 543d 36a0 2ebe
000001f0: 4be9 42be 8dc7 213c fe17 7b3d 02c3 bdbe
00000200: d76f 673e fe1e 923c aa0d 89bd 60de 8b3e
00000210: deb6 50bd 5c48 813d 4707 00be 05c3 42bd
00000220: 94dd bb3d 05a2 c83d ed76 ea3d 5009 543e
00000230: 3923 b8be 33bd 81be cd6b 23be 4cc9 9dbc
00000240: f46a 023e a7df c23e 8238 71be 191d c6bd
00000250: 381d d9bd 2960 003e 8ac8 253e cc53 613b
00000260: 0b5b b63d 9219 1cbe ecfc 2e3e f3eb 913d
00000270: cfe8 b43e 2a6f c3bd 5538 c0be 6b42 77be
00000280: 8e9e 763b a98a ddbd 1f92 e6bd fe0b a33e
00000290: 8cc5 723e 2249 6dbe 0bc6 16bd 176e bdbe
000002a0: 8765 a93d c839 1a3b 7bc5 963e 135e 7abd
000002b0: ba53 6c3e b659 c63e 4b81 283c 2e64 a3bd
000002c0: 12c6 1bbf a3ac 6cbd 37ce 173e 6de7 97bd
000002d0: c07b c23d 5886 983e 9ad3 243d 94d6 2abe
000002e0: 778b f23c 4cd2 b4bd a7e4 8c3d 1a40 703d
000002f0: 6f1f c2be 32bb 5e3e 3776 f0bb bd3c 263e
00000300: b5b9 003e 3e12 c63e 6f1e 523e de0d 85bc
00000310: 202e af3e b2cb 66be 07d1 8abe feff dabd
00000320: a552 8dbe 9bb9 ec3c c23c 973d 1801 163e
00000330: 150e bbbe d2f4 36bc 1193 62bd dbb3 493c
00000340: 394b 3e3e 43fe e43e 1917 423e ca7b cebd
00000350: 5614 d13e 0adc 083e 06f6 98be 8632 443e
00000360: 5f18 78bd 22bd adbe d513 5abe ca3d 70bd
00000370: 75fe 2e3d 0913 febd 0637 b8be 23de 4dbd
00000380: aa9b 0c3e e28f febd 0fcc 783d 6232 9cbd
00000390: d8c5 873e e1f5 413d 6e22 033f a93c 113d
000003a0: ce96 743e 1ec9 a8bd 4eb2 cf3e 41d7 f93d
000003b0: f790 ad3e f3e6 02be 2ac4 18bc 100b 493e
000003c0: d33a c0bd f4a9 b1bd 8dd9 03bf d0a3 d7bb
000003d0: 7d28 d93d eec8 303c 63b2 1cbd 9bc3 4d3d
000003e0: 2cbb 86bc b144 dd3d 59d7 21bd 81fa a3bd
000003f0: 4e09 d43d c51b 2a3d 2508 663e 23b0 a5bd
0.061196804 0.36667725 0.016441448 -0.14937027 -0.086434916 -0.07272235 -0.44468695 0.103386566
0.2292066 0.039428886 -0.1822085 0.112400375 0.08599052 -0.038954712 -0.1870698 -0.2702539
0.18853779 0.029744746 -0.051933594 -0.21647006 0.3007067 0.0421345 -0.34545007 0.30442265
0.14063841 0.1878982 0.029519795 -0.006868293 0.32487977 -0.4170656 0.03540114 0.2745658
0.0867762 0.009403287 -0.15427287 0.034763295 -0.008099969 0.06969157 0.28913465 -0.007965959
0.08651878 -0.26754957 -0.21461247 -0.1637205 -0.14314806 0.111128494 0.0591012 -0.38807946
0.28180587 0.30837163 0.06651171 0.1430354 -0.11804479 0.11571314 0.18812682 0.26533473
-0.027684556 0.054576125 -0.2736435 0.20869227 -0.1354292 -0.03661329 0.22587422 0.051745445
-0.08669138 -0.30224535 -0.33381864 0.09073419 0.37086514 0.1806373 0.16879933 0.11954518
0.3752777 0.18649812 -0.054332387 -0.010532228 -0.021083696 -0.1831564 -0.06961956 -0.09810591
-0.2969128 -0.3097809 0.058248788 -0.1875651 -0.1362941 0.1937916 0.086442344 0.20048852
-0.14828081 -0.05155368 -0.15368624 0.13576493 0.10202852 -0.019133331 0.038161956 -0.07485432
-0.23738477 0.0904793 -0.13093042 0.0772394 -0.2338601 0.084923185 0.13525258 0.08554056
0.37496617 -0.037382647 0.032626014 0.089288406 -0.04093267 -0.17995104 0.07493806 -0.13660136
0.00520516 -0.64483947 -0.21286477 0.002934591 -0.16564132 -0.08815049 0.21713516 0.032921635
-0.16273451 -0.047531582 0.05188041 -0.17053303 -0.19034307 0.009874237 0.061302178 -0.37062842
0.22601257 0.017837044 -0.06692059 0.27318096 -0.050955646 0.063126296 -0.12502776 -0.047549266
0.09173122 0.09796528 0.114484645 0.20706677 -0.35964373 -0.2533966 -0.15959091 -0.019261025
0.12736112 0.38061258 -0.23556712 -0.09673519 -0.10601276 0.12536682 0.16189781 0.0034382222
0.08904084 -0.1524413 0.1708867 0.07125082 0.3533387 -0.09542687 -0.37542978 -0.2414643
0.0037631127 -0.10817463 -0.11258339 0.31845087 0.2370817 -0.23172429 -0.036809962 -0.36998054
0.08271318 0.0023532975 0.2944754 -0.061124872 0.23078814 0.3874032 0.010284732 -0.07978092
-0.60849106 -0.057781827 0.14824758 -0.07417188 0.0949626 0.29789996 0.04024086 -0.16683418
0.029607518 -0.088291734 0.068795495 0.058654882 -0.37914607 0.21751097 -0.007338311 0.16234107
0.12570842 0.38685793 0.20519422 -0.016241964 0.34214878 -0.22538641 -0.271126 -0.10693358
-0.27602115 0.028897097 0.073846355 0.14648855 -0.3653418 -0.011166768 -0.055316035 0.012310947
0.18583383 0.44725236 0.18954124 -0.10082205 0.40835828 0.13365188 -0.298752 0.19159898
-0.060570117 -0.3393336 -0.21296628 -0.058652677 0.042723138 -0.124059744 -0.3597948 -0.050260674
0.13731256 -0.12429787 0.06074148 -0.07626797 0.2651813 0.04735363 0.5122441 0.03545824
0.23885652 -0.08241485 0.40565723 0.121992595 0.33899662 -0.12783413 -0.009324113 0.19633126
-0.0938622 -0.08674994 -0.5150383 -0.0065808073 0.10603426 0.010790093 -0.03825606 0.050235372
-0.016446672 0.108041175 -0.039512012 -0.08006764 0.10353337 0.04153039 0.22464044 -0.08090236

norm1.running_var f4 [256]
00000000: be28 1a3d f0dd df3c 7fd0 863c bfb3 ce3c
00000010: 49d1 0c3d 6a3d a03c f28e 393d f116 713c
00000020: 58ac 6a3d a09b 063d 66e7 5a3d 41b2 5f3c
00000030: 1057 6e3d 39ec 053d a408 e83c a3ee 2c3c
00000040: b6ee de3b 48df 563c fbb0 6c3c a5ea 533d
00000050: 40d3 ca3c aee7 013d f486 b53c b44d 093d
00000060: 260e 5d3d 2156 813d 9b17 db3c cb06 1c3c
00000070: 2ea7 e93b 246f 7b3c 148a 243c 68b8 c33c
00000080: b779 533c 832c a13c 09d8 803c 59b4 623c
00000090: 5a7e e23c ee86 da3c 740e 9e3c 9e71 053d
000000a0: 9edf 6f3c 8bfc f33c ec5d 583d d6c0 953c
000000b0: f458 083c 3dbf ab3c 0377 a33c f44d ff3c
000000c0: ec00 ae3c e790 783d 44f6 1a3d 1209 6b3c
000000d0: c028 993c 00fd 463c 6936 413d c5e1 7e3c
000000e0: 7239 a63c 7e8c 963c 563a 5c3c 58d5 843b
000000f0: 18bf d53b 4cb2 c63c 0f41 c43c 38f4 f03c
00000100: a0c3 973c d6e5 0d3d ea53 693c 8170 6a3d
00000110: 4d55 ad3c df0f 903c f0c9 483c 44a6 063d
00000120: 0039 c03c 71fe 463d bb9b ef3c 8346 833c
00000130: f5b6 803d fd80 183d 55bf 753d 0761 963c
00000140: c68b af3c 66de ba3c 3a25 183c 0d96 563d
00000150: 7b43 0c3d 3da3 b73c 6d33 8d3c ffeb 0b3d
00000160: b46c 723d 8842 973c 7f93 873c 06f8 9d3c
00000170: 82f2 303d 6825 ab3c 02a9 303c d77c 3a3d
00000180: f070 e13c 103a 4f3c 982d 1a3d e1b9 bd3c
00000190: 02e4 ff3c 4fd2 6c3c cbe1 8c3c 07ea 203c
000001a0: 4404 383d 464d bb3c 8833 883c ca1a ed3c
000001b0: b29f 1b3d 0dd2 083d 3aad 1a3d e6eb 1e3d
000001c0: 51d3 8b3c 6dac 923c d76f e13c 2ccf 283d
000001d0: 3a26 c43c cc7d 313d 2598 9c3c 5b6a 1f3c
000001e0: cf41 293d 5ede 3b3d 8814 bf3c 1252 1e3d
000001f0: 60f7 dc3c 3353 d33c 9df9 e23b e538 3a3c
00000200: 56a2 5a3d 78c2 183c e55d e83c 27ef 253d
00000210: 061b c03c a759 243d 2f0a 143d d46e 9b3c
00000220: 18fb 913c 0a26 933c 6a54 ae3c 4161 913c
00000230: 12a9 6d3c 5f9c 4f3d b03e 303c ae85 073d
00000240: 9ac8 c33c 8b3a f73c a526 db3c 7997 3b3c
00000250: 9884 083d 3b1b 0f3d b637 1b3c c32e 833c
00000260: 31b8 4a3c cdbf 0d3c 5c74 b33c 1401 793c
00000270: a209 653c 1fcf 2e3d b52a c93c efd8 453c
00000280: 87d3 323d 70cd f93c 5155 c33c da2b 903c
00000290: 0219 4f3d df35 0d3d 30d2 333d 0135 df3c
000002a0: d9d9 4f3c 6b2a ef3c edf1 b13c 10fd 593c
000002b0: a9c3 f43c 1de5 ee3b 620e 263d af69 893d
000002c0: 1548 173d 85ac 873c 9626 043d 7a64 e83c
000002d0: d9e2 ae3d b849 163d 3f3b b53c 7e6e 123d
000002e0: 31f5 b13c 4221 ec3c da34 993c 29b4 253c
000002f0: 8683 0f3d 7dc3 363d 307b da3c 1bbe f63c
00000300: cfd8 343c 1005 8c3d 7424 423d cca9 9e3c
00000310: 10bc c63c 22b8 003d fc51 e33c 5873 933c
00000320: ba6a 223d 5f7d 923c 7945 fd3c 99d4 5f3c
00000330: b9ba 113d be61 b53b 9575 a73c fd39 b53c
00000340: 3800 a93c d29e 413d 4276 8c3c 1f52 cc3b
00000350: e23d 003d ea5c 0d3d 2626 253d 6ea8 2d3d
00000360: 7e6f ad3c 265d 163d da46 8d3c c171 ac3b
00000370: 985b 363c ed78 d73c 1d8a 403d 67f6 353d
00000380: 0290 273d 93cd da3c f19e 023d 952a eb3c
00000390: 9a82 aa3c cc43 233d 4ff1 f03b 9e91 d83c
000003a0: fcc9 823d 1836 573c 4cf3 6d3d a416 9c3d
000003b0: cde0 e83c 2a41 bc3c bff6 533c fb78 653d
000003c0: bc03 a23c cffd c93c c422 953c 339b db3c
000003d0: 0924 1f3d c6c8 233d e241 ff3b 169b 403d
000003e0: 9347 0a3c 6b03 023d e96e 273d cfbc 943c
000003f0: cda5 a23c 5382 933c 0da3 db3c dc5d b73c
0.03763651 0.027327508 0.01645684 0.025232194 0.034379277 0.019560535 0.04530234 0.014714942
0.057293266 0.03286326 0.053443335 0.013653339 0.058188498 0.032695983 0.028324433 0.010554942
0.006803359 0.013114758 0.014446492 0.051737446 0.024758935 0.031715088 0.022159077 0.03352137
0.05396857 0.06315256 0.026744654 0.009523104 0.007130525 0.015346322 0.010042686 0.023891643
0.012907437 0.019674545 0.015728014 0.013836944 0.02764814 0.026675668 0.019294001 0.032579057
0.014640717 0.029783508 0.052823946 0.018280428 0.008321989 0.020965213 0.01995421 0.0311651
0.021240674 0.060685065 0.037832513 0.014345424 0.018696189 0.012145281 0.04717103 0.015556757
0.020291064 0.018377539 0.013441643 0.004053753 0.0065230243 0.02425494 0.023956804 0.029413328
0.018525898 0.034643017 0.014241198 0.0572362 0.021158839 0.017585693 0.012255177 0.032873407
0.02346468 0.048582498 0.029249063 0.016024834 0.06284896 0.037232388 0.05999692 0.018356813
0.021428954 0.022811126 0.009286219 0.052389193 0.034244042 0.022416705 0.017236436 0.03416061
0.0591857 0.018464342 0.016549824 0.019283306 0.043200023 0.02089186 0.010782482 0.045529213
0.027519673 0.0126481205 0.037641138 0.023159923 0.031236652 0.014454438 0.01719751 0.0098214215
0.044925943 0.022863995 0.016626135 0.028943438 0.037994094 0.033403445 0.037762858 0.03879919
0.017068537 0.017904485 0.02751915 0.0412132 0.02394401 0.04333286 0.019115517 0.009729947
0.041322526 0.045866363 0.02332522 0.038652487 0.026973426 0.025796508 0.006926729 0.011366104
0.053377472 0.009323709 0.028365085 0.040511277 0.023450386 0.04012456 0.036142524 0.018973745
0.017819926 0.017962474 0.021280486 0.01774657 0.014505642 0.050686236 0.010757133 0.03308647
0.023899365 0.030179283 0.026751826 0.011449688 0.033329576 0.03493808 0.009473732 0.016013509
0.012373016 0.008651686 0.02190607 0.015198011 0.013979347 0.042677995 0.024556497 0.012075647
0.04365876 0.030493468 0.023844393 0.017599035 0.05056096 0.034475204 0.043901622 0.027246954
0.012686216 0.029195031 0.021721805 0.013304964 0.029878454 0.007290496 0.04054106 0.06709611
0.036933977 0.016561756 0.03226336 0.028368223 0.085393615 0.036691397 0.022122977 0.035749905
0.021723362 0.028824452 0.01870196 0.010113754 0.03503754 0.044620026 0.026670069 0.030119946
0.011038019 0.06836903 0.047398046 0.019368075 0.024259597 0.031425603 0.027749054 0.017999336
0.039652564 0.017882047 0.030916916 0.013661527 0.035578463 0.0055353334 0.02044181 0.022122378
0.020629987 0.047270603 0.017146233 0.0062353755 0.031309016 0.034512438 0.040319584 0.042396955
0.021171328 0.036709927 0.017245699 0.005262584 0.011130236 0.02630278 0.047006715 0.04442444
0.04090882 0.026709354 0.03188986 0.028706828 0.020814229 0.039859578 0.007352985 0.026436623
0.06386182 0.013135456 0.058093354 0.07621506 0.028427506 0.022980291 0.012937247 0.05602358
0.019777171 0.024657158 0.018205054 0.026807403 0.038852725 0.039986394 0.0077898363 0.0470229
0.008439916 0.03174154 0.040877257 0.018156437 0.01985445 0.01800648 0.026811147 0.022383623

convs.0.bases_weight f4 [256, 32]
00000000: d37e 2cbd e56d 47bd 894d 88bd 653a d8bb
00000010: f829 943d 9f86 cb3d a924 853d 92ff c1bd
00000020: ced4 0a3e 50d8 debc 687d e23b c196 ad3c
00000030: a4d2 093d d36b 88bd 0f09 0bbe 8c37 b63d
00000040: 7262 613c 5205 873d 37e9 a8bc 8c18 6cbd
00000050: fadc 68bc b625 a0bc b1fa 0a3d b952 03be
00000060: 586f 0e3e 2e98 90bd 1b6c 2abd f0e9 ab3d
00000070: 96b7 0abe 45c8 b23b c5fa 0c3e 9f36 80bd
00000080: f03c dcbd e933 a7bd ad49 1abd 2f29 10be
00000090: 3340 693d f0bb 58bc b030 f3bd cfb9 533c
000000a0: 5f42 03be 4306 0fbe 960a 103e 7bd4 e33d
000000b0: d2e3 9d3d af7e d13d 11cd f8bd 303a 5fbd
000000c0: a386 d5bd 80a6 3b3d 1ffe c13d 5cff cdbc
000000d0: c76e d13d b82a 3f3d d121 11be ab48 533d
000000e0: 6d68 0bbd a6b9 3dbd 4ab6 e53c 4d08 c63c
000000f0: 3c18 003e 1f37 8abd c1c4 ce3d c52d 9bbd
00000100: e22a 143e 7ddd babd 2515 04bd ed2e 82bb
00000110: b951 cd3d cbc4 f6bd ed69 133d 84ac 4ebd
00000120: 3523 01be 3347 6b3d b952 e63d 3a86 a73c
00000130: f9be 0dbe 96d4 f73d 8643 843d 07b0 e53d
00000140: 245a a0bc 2523 a63d 67e4 ffbd a903 98bd
00000150: 014e 923d 1d63 2bbd aec2 8cbd 7fee 00be
00000160: 7c56 35bc 8b00 66bd 8dcc 08be 331c 04be
00000170: 2739 b4bd ea94 073e de05 703c 34ad b43d
00000180: 39fa f33c c9c0 c5bd f036 24bd 0aab d8bd
00000190: 625f cc3d ead5 c13c 21dd 233d dd3f 0dbe
000001a0: 662e 18bd 13e4 6cbc 45b4 edbc 6b4e f0bc
000001b0: 8874 92bd 1e2a ecbd c12e 153d 3695 0f3e
000001c0: 99a0 693d 267e 87bd cb1d 0dbe ffd5 b6bd
000001d0: 9db2 09be c3db 473d 757c 5bbd 8a0f a73d
000001e0: 4127 ecbc a042 7f3d e834 963d 2abf 273c
000001f0: f7d1 0bbc 9888 0fbd 5d6d aebc b60f c7bd
00000200: 678b 103e 69e5 bf3d 810d 07bd 2577 4f3d
00000210: eb81 04be 0a66 d6bd 2b9c 06be c584 42bd
00000220: b164 073e 92fa 663d cc78 0ebe 2278 04be
00000230: b868 a53d bca0 a1bd 4ff5 8a3d 79d7 9d3c
00000240: ef1e 8bbd 4585 e1bd 74e7 cfbd 1944 46bd
00000250: a223 62bb 33e1 ddbd 0b87 82bd 8a13 cebd
00000260: 2fa2 cbbd a2b6 f13d 18bf 053e a449 823c
00000270: 1951 22bd 512f 10be 4637 0ebe 5319 84bd
00000280: 0149 833d 6465 5cbd aa02 04be 2310 843c
00000290: b1eb b4bb d0dd dd3d c750 183d cd81 fa3d
000002a0: b765 07be ecea 9b3d fd0e 0dbd 79de b6bd
000002b0: 15f3 da3d fe29 08be ee4f 98bd cffc 0f3d
000002c0: 166e c8bc 948f c4bd e975 263d 9bfa aa3d
000002d0: 1434 d43c 8515 b63d feab 08be 35b3 89bd
000002e0: 1ae4 493d 4359 f7bd a66c c3bd 2b01 83bd
000002f0: 27a4 ae3d 6266 60bc 675b b73c 66b4 6dbd
00000300: 4994 ef3d f325 43bd 7045 bd3d 9215 ddbd
00000310: badc 953c 46b9 093e d062 a23d ab12 1dbc
00000320: 9204 8cbc 4514 523d 42eb 033e 4f21 3b3d
00000330: 1931 1a3d 0580 883c b80d cb3c 9951 debd
00000340: 7cfd 0dbe 6fbf 003e 4f1d ad3d c778 c83d
00000350: af58 b83d bf64 f93d 5ee3 05bd ac26 b83d
00000360: c1eb f2bd c066 b03d 7ea4 003e 02a6 57bd
00000370: f8d0 7b3d fdc8 5f3d 8a8a 5f3d 608f e63d
00000380: 2ad6 a23d 6c96 0fbe 4e46 3bbd b1df 173e
00000390: a140 ba3d 786c 0d3e 0397 bfbc 6db6 9a3c
000003a0: 23f5 a53d 073c 963d 0b20 d03d 0939 a43d
000003b0: 1311 0a3e bc7b 1cbe ecda 2ebd d84e f43d
000003c0: bdf1 c8bc 2e4a 05be ec2a ab3d 6f1d 1abd
000003d0: 671a 243d 4dcc 38bd 6767 81bd c614 09be
000003e0: 5245 943d 1a59 663d 809a e1bd 6e47 19bd
000003f0: 7f9b 253c f21a 093e 0d1b 8ebb 8817 b8bc
-0.042113137 -0.048688788 -0.06655414 -0.006598758 0.072345674 0.09937786 0.06501133 -0.09472574
0.13557741 -0.027202755 0.0069119222 0.02119005 0.03364815 -0.06661191 -0.13577674 0.088973135
0.013756381 0.06592812 -0.020619018 -0.057640597 -0.014212841 -0.019549232 0.033930484 -0.12824525
0.13909662 -0.07060276 -0.041607004 0.083942294 -0.13546595 0.005456003 0.13767536 -0.06260418
-0.107538104 -0.08164198 -0.03766792 -0.1407821 0.05694599 -0.013228402 -0.11874521 0.012922718
-0.12818287 -0.13967232 0.14066538 0.11124512 0.07709469 0.10229241 -0.12148488 -0.05449885
-0.104260705 0.045813084 0.09472298 -0.025146179 0.10226207 0.0466716 -0.14173056 0.051582973
-0.034035135 -0.046319626 0.028041024 0.02417388 0.12509245 -0.06748795 0.100961216 -0.07577089
0.14469483 -0.09124277 -0.032246727 -0.003972879 0.10025353 -0.12049254 0.03598969 -0.050457492
-0.12611087 0.057440948 0.11246247 0.020449746 -0.13842382 0.121010944 0.064581916 0.11215215
-0.019574232 0.08112172 -0.12494736 -0.07422573 0.07143784 -0.04184257 -0.0687307 -0.12590979
-0.011067983 -0.05615286 -0.1335928 -0.12901382 -0.087999634 0.132404 0.014649836 0.088220984
0.029782401 -0.096559115 -0.040091455 -0.10579498 0.0997913 0.023661572 0.040005807 -0.13793893
-0.037153624 -0.014458674 -0.029016623 -0.029334268 -0.07151133 -0.11531471 0.03642154 0.14021763
0.057037923 -0.06615858 -0.13780896 -0.08927535 -0.13447042 0.048793565 -0.05358549 0.08157261
-0.028827311 0.062319398 0.0733431 0.010238448 -0.008533946 -0.035042375 -0.021292383 -0.097197935
0.14115678 0.093699284 -0.032971863 0.050650734 -0.12940185 -0.10468681 -0.13145511 -0.0474899
0.13222004 0.056391306 -0.13913268 -0.12936452 0.08076614 -0.07891986 0.0678507 0.019267784
-0.067930095 -0.11011747 -0.10151568 -0.048404787 -0.0034506102 -0.10833969 -0.06373414 -0.100623205
-0.099430434 0.118024126 0.13061178 0.015904255 -0.039628122 -0.1408055 -0.13888273 -0.06450143
0.06410409 -0.05380763 -0.12891641 0.016120976 -0.0055212607 0.10833323 0.03718641 0.12231789
-0.13222395 0.07613167 -0.034438122 -0.08929152 0.106908955 -0.13297269 -0.074371204 0.035153206
-0.024466556 -0.09597698 0.04063979 0.083485804 0.025903739 0.08890823 -0.1334686 -0.06723634
0.0492898 -0.12077572 -0.095422074 -0.06396707 0.08527403 -0.013696285 0.022382451 -0.05803337
0.11698205 -0.047643613 0.0924176 -0.1079513 0.018293727 0.13449582 0.07929003 -0.00958697
-0.017092023 0.05128886 0.12882712 0.045686062 0.03764448 0.016662607 0.024786815 -0.10855407
-0.13866228 0.12573026 0.08452856 0.097886615 0.0900129 0.12177419 -0.032687537 0.08991751
-0.11861373 0.08613348 0.12562749 -0.05264855 0.061478585 0.054635037 0.05457548 0.11257815
0.07951005 -0.14022225 -0.045721345 0.14831425 0.09094358 0.13810909 -0.023387438 0.018885816
0.08103397 0.07335668 0.10162362 0.08018691 0.13483076 -0.15281576 -0.04268925 0.11929101
-0.024529332 -0.13016579 0.08357796 -0.037625726 0.04006424 -0.04511671 -0.063185506 -0.1338683
0.07239784 0.056237318 -0.11015797 -0.037421636 0.010107874 0.13389185 -0.004336721 -0.022472158
