production/TDC/sr-are/checkpoint/state_dict.pt (torch, 301003 bytes, 25 tensors)

lin1.weight f4 [128, 27]
000000 ee 6b d3 bd 0f 6d 64 3e 4b 39 48 be 2e 01 fd bd
       -0.1032332 0.22307228 -0.19553106 -0.12353741
000010 48 7c 9a bd be 0c ab bc a5 6b 34 3e 95 07 b5 3d
       -0.07543236 -0.0208801 0.17619188 0.08839337
000020 7c 9b 2e be eb 44 63 3d 62 61 ec 3c ea 85 c6 bd
       -0.170515 0.055485647 0.02885503 -0.09693511
000030 11 c6 26 3e e8 80 2c bd 14 14 cb 3c 6e 24 cb bd
       0.16286494 -0.042115122 0.024789847 -0.09919058
000040 ae f4 ac 3d 53 43 dd bd b7 7e 40 3d e9 68 85 3d
       0.084451064 -0.10803857 0.046995845 0.06514151
000050 68 7a 71 bc 01 2d 89 bd 42 85 34 bd 87 d2 ed 3c
       -0.014738657 -0.06698037 -0.044072397 0.029031051
000060 d0 c4 14 3e 9a 9a 15 bd bb 8f 52 be 11 14 36 3e
       0.14528203 -0.036524393 -0.20562641 0.17781092
000070 c3 f2 cf bd 6e c2 1d 3e 00 58 1a 3d c0 cf 3e 3d
       -0.10153725 0.154062 0.03768158 0.046584845
000080 96 67 8d bd b6 fd 36 3e 70 77 19 be 0c 65 fa b9
       -0.06904523 0.1787022 -0.14986968 -0.00047759002
000090 37 24 0b be 56 61 b5 3d cd 72 05 3e 24 d7 e7 bc
       -0.13588034 0.08856456 0.13032074 -0.02830083
0000a0 0c d0 98 bd 0b 60 8d 3d 48 90 ae 3d a9 bd 38 be
       -0.07461557 0.06903084 0.08523613 -0.180411
0000b0 27 04 c2 3b 29 3c b8 3d 51 bf 33 3e 1a eb 26 3e
       0.005920905 0.0899585 0.1755345 0.16300622
0000c0 38 49 ee 3d 13 35 30 3e e9 dc d0 3d 9d 89 e5 3d
       0.11635059 0.17207746 0.10198385 0.11207888
0000d0 91 37 b2 bc 52 b0 fb bd a6 27 11 3e 7d 42 49 3e
       -0.021755012 -0.1228949 0.14175281 0.1965427
0000e0 d2 ca 31 be ff 35 9e 3d e6 16 07 3e 65 72 04 be
       -0.17362526 0.07725143 0.13192329 -0.12934263
0000f0 bd 96 21 bd 95 55 25 3c cd 19 16 3e db 40 d8 bd
       -0.039450396 0.010091205 0.1465828 -0.10559245
000100 3c 39 3e 3d 48 e7 94 bd e1 d1 b9 bc 89 6e 30 be
       0.0464413 -0.07270676 -0.022683086 -0.17229666
000110 a1 40 16 be 0e cd 24 be dd c2 22 bd d8 ca 28 3e
       -0.14673091 -0.16093847 -0.039736617 0.16483629
000120 fa e0 ba bd 76 73 cf bd 26 9c a3 3d 54 c7 c6 3d
       -0.09124942 -0.10129444 0.07988767 0.097059876
000130 36 7a b7 bd 63 3a 23 3e 22 67 31 be 26 8e 5a 3c
       -0.08958857 0.15940242 -0.17324498 0.013339555
000140 a3 73 d6 bd 8b a9 10 3e 8a 6d d4 3c 97 89 6d 3b
       -0.10471275 0.14127176 0.025931139 0.003624534
000150 8c 02 0d 3e 6b 48 be bb 07 f3 58 3e be 64 d9 bc
       0.13770503 -0.0058069727 0.21186458 -0.026537295
000160 ec 9b b7 bc b3 f9 8b bc b6 3b 22 3e c8 86 cb 3d
       -0.022413217 -0.01708684 0.1584309 0.09937817
000170 9d dc c1 bd 6c 28 d2 bd c4 06 1f 3d b6 73 18 3e
       -0.09465907 -0.10261616 0.03882481 0.1488789
000180 53 46 82 bd 61 8c 34 be f4 c7 b7 3d 80 6f 06 be
       -0.063610695 -0.17631675 0.08973685 -0.13128471
000190 ec 83 2a be f0 44 bb bd cf 57 7e 3d aa 1f 99 3d
       -0.16651887 -0.09144008 0.06209546 0.074767426
0001a0 ab 42 b7 bd c3 00 6d bd 6f 92 2d 3e 55 94 5d 3e
       -0.08948263 -0.057862055 0.16950391 0.21638615
0001b0 7f c5 43 be 95 85 f2 3b 2d a1 7c be 17 be 44 bc
       -0.19118308 0.007401178 -0.24670859 -0.012008212
0001c0 cb b6 25 3d 5a 25 1c 3e 7a 7b 8e 3c db a6 1f 3e
       0.040457528 0.15248623 0.017392863 0.15590994
0001d0 81 89 60 3e a7 1b 3a 3e a3 d3 02 3e fe ed 13 bc
       0.21927454 0.18174611 0.12776046 -0.00902891
0001e0 e6 d9 b2 3c 72 0f 9a bd 34 96 42 b9 70 60 92 3c
       0.021832418 -0.07522477 -0.00018557237 0.01786825
0001f0 83 06 67 bc 18 50 43 3e 42 fa a4 bc 75 6c 06 3c
       -0.014100674 0.19073522 -0.020138863 0.008204569
000200 ea 64 0c be 67 01 17 3e 5e 62 da bb d8 46 05 bd
       -0.1371037 0.14746629 -0.0066645583 -0.032538265
000210 2b 0b 6a be ea ae fe 3d 6f d0 14 3c 99 34 1c be
       -0.22855823 0.12435706 0.009082898 -0.1525444
000220 8e c6 09 3e 5d 96 0c be a9 1f bd bd c6 69 2f 3e
       0.13454649 -0.13729234 -0.09234554 0.17130193
000230 bc c3 81 3d ec 50 08 be be b3 cd bd 36 db da bc
       0.063361615 -0.13312119 -0.10044049 -0.026715856
000240 5e 05 3b bd 57 5f f0 bd 5f 22 b6 bd af b0 67 bd
       -0.045659415 -0.11736935 -0.088932745 -0.056564983
000250 6a db 30 3c ed be ba ba 2b 30 49 3d 20 9c 0f 3e
       0.0107945 -0.0014247574 0.049118202 0.140244
000260 e7 cb e5 3d bb c6 0a bd 9f a2 a4 3d ba 7a af bd
       0.11220532 -0.03388093 0.0803883 -0.0856833
000270 7b a7 01 bb 2b ef a6 3d c7 12 87 bd bd 2c 36 3e
       -0.0019783664 0.081510864 -0.06595378 0.17790504
000280 28 76 2d 3e f2 65 6c be 18 ad c2 3d 96 5f d5 3d
       0.16939604 -0.23085764 0.09505671 0.10418622
000290 f9 6f d3 3c 82 58 2e be e8 e3 40 bc cb 93 24 3e
       0.025810229 -0.1702595 -0.011773087 0.16072004
0002a0 76 ce eb bd a0 6d 1c 3e 37 98 5c bd c6 96 a6 bd
       -0.11513989 0.15276194 -0.0538561 -0.081342265
0002b0 a0 a1 55 3d 2a e8 34 3e 43 a6 b6 bc e2 b5 06 bd
       0.05215609 0.17666689 -0.022296077 -0.0328883
0002c0 3f 5d bc 3d c8 d4 9a bc 8b 53 1a 3e 70 a0 0f 3c
       0.09197473 -0.01890029 0.15070932 0.008766279
0002d0 fb 32 a7 3d b1 42 86 3d 9c 05 57 3e ec 60 68 3c
       0.08164021 0.06555689 0.20998234 0.014183264
0002e0 5d b0 42 bd 8b d1 1b 3e 1c f9 4a bd 71 dd 93 bc
       -0.047531474 0.15216653 -0.049553975 -0.018049927
0002f0 05 a0 11 be 1f 92 2c be f0 af 92 bd 3c 15 1b 3d
       -0.14221199 -0.16852616 -0.07162464 0.037862048
000300 15 c5 d4 3d 62 e7 05 be 67 59 25 3d bc 99 dd 3d
       0.10389153 -0.13076547 0.040368464 0.10820338
000310 6d f4 a5 3c 32 57 9b 3d b2 db de 3d 1d ce 96 3c
       0.020258153 0.075849906 0.10881747 0.01840883
000320 b7 4c 29 bb 94 36 cf 3d a6 b6 f3 bc e7 3c 13 bd
       -0.002583308 0.10117832 -0.02975018 -0.035946753
000330 d5 fa ed bd 00 2c e1 bd 00 3a 45 be ce 6e 17 3e
       -0.11620108 -0.109947205 -0.19260406 0.14788362
000340 47 52 23 be 86 f9 46 3e ec 45 2d 3e ba a4 2b be
       -0.15949355 0.19431123 0.16921204 -0.16762057
000350 70 ac 81 bd 97 3b 2d be 2f 7d 5d bc 09 65 17 3e
       -0.06331718 -0.16917263 -0.013518616 0.14784636
000360 42 93 14 be ba c7 f6 bd 71 a7 ea bd 28 7e 95 bd
       -0.145093 -0.120498136 -0.11457718 -0.07299453
000370 b2 4c 0b be a6 e4 02 3e 57 af 24 3e 35 2a 17 3e
       -0.13603476 0.12782535 0.16082512 0.14762194
000380 69 29 4e 3e fd 1f 38 be b4 d0 91 3d 87 3f 0e 3d
       0.20132984 -0.17980953 0.07119885 0.034728553
000390 ea 03 0f 3e 13 0a de bd 23 71 f8 bd 1e 68 b8 3d
       0.13966337 -0.10841765 -0.12130954 0.09004234
0003a0 4e a4 f3 3c fd 69 19 bd 0d 7d 40 be b5 2f 1a be
       0.029741433 -0.037454594 -0.18797703 -0.15057261
0003b0 46 33 8c bd ce d5 2f be c4 a2 12 3e 4f d1 26 be
       -0.06845717 -0.17171404 0.14319903 -0.16290782
0003c0 16 33 75 3b 3d 66 a4 3c f2 a8 87 be 89 5a 41 be
       0.0037414483 0.020068282 -0.26496083 -0.18882193
0003d0 d7 fa 62 be af d1 a7 3c 5c c5 1c 3e 03 40 0b 3d
       -0.22166 0.020485727 0.15309662 0.033996593
0003e0 e6 cc 4c 3e b2 47 a7 bd f8 a1 a6 3d a7 90 fa 3d
       0.20000038 -0.08167972 0.08136362 0.122346215
0003f0 58 8d 60 bb e2 fa bf bd 27 69 c9 3d 6d 20 0a bd
       -0.0034263935 -0.09374024 0.09834509 -0.03372233

lin1.bias f4 [128]
000000 d2 8a 07 be 6e 86 d0 3d f1 3d 87 bd 1f ce d7 bd
       -0.1323655 0.101818904 -0.06603611 -0.10537361
000010 03 e3 ae bd 25 d9 56 bd 7d 78 e9 3d f7 5c f0 bd
       -0.08539393 -0.05245318 0.113999344 -0.11736482
000020 4a 8e e2 3d 57 ff e6 bd 3f 86 39 3e 00 f8 6b bd
       0.11062296 -0.11279171 0.18117617 -0.057609558
000030 34 49 32 3c 7f 81 40 3e cc c9 72 bd 76 1e 82 3c
       0.010881711 0.18799399 -0.05927448 0.015883666
000040 3e 7d a9 3c f6 56 8b 3d 42 28 4b 3d d3 39 22 be
       0.020689603 0.06803696 0.04959894 -0.1584237
000050 eb c0 8f bd 44 f0 ec 3d ae 03 1a bd a4 ac 07 3e
       -0.07019218 0.115692645 -0.037601165 0.13249451
000060 e4 a7 16 3e 8b 9c 6f 3d 2d 77 f6 3d 2d 3a 9d bd
       0.14712483 0.0584989 0.1203445 -0.07677112
000070 af 8d 51 3d fe d9 1b 3e 5c 39 92 3c 3b 9b c5 bd
       0.05116051 0.15219876 0.017849617 -0.096487485
000080 70 71 2d bd 42 83 70 3c 7f 49 b5 bd 63 ca 36 3e
       -0.04234451 0.014679732 -0.08851909 0.17850642
000090 f3 2e 0c 3e b8 54 3f 3d ab 62 8a bd 22 b7 83 3d
       0.13689785 0.046711653 -0.06757101 0.06431414
0000a0 07 e4 e8 3d e1 51 1e 3d c5 d7 42 bd 13 c2 15 3e
       0.11371618 0.038652305 -0.047569055 0.14624815
0000b0 d6 24 00 3d 07 69 5f 3c fb 0d 3a be c7 f6 fb bd
       0.03128513 0.01363588 -0.18169396 -0.123029284
0000c0 8a 36 f1 bd f7 7b 5c 3d 24 d7 61 bd 5d c5 45 3d
       -0.117779806 0.05382916 -0.055136815 0.048283923
0000d0 ac 59 5f 3c 18 43 e8 3d 1f e4 19 3d 70 06 85 bd
       0.013632219 0.11340922 0.03757107 -0.064953685
0000e0 c7 b9 05 bd 99 c8 3a 3e 54 28 e1 3d 1a 7c a4 3c
       -0.032647874 0.18240584 0.1099402 0.020078707
0000f0 07 3b 1e be d8 63 a8 bc 8b 13 53 be 14 e0 1f be
       -0.15452205 -0.020555422 -0.20612924 -0.15612823
000100 c8 49 35 bd 98 08 1d 3e fa 39 10 be 60 90 06 3e
       -0.044259816 0.1533531 -0.14084616 0.13141012
000110 b0 d8 2d bd 58 2c 2b be 50 18 ff bd fb b0 49 3c
       -0.042442977 -0.16716135 -0.12455809 0.012310262
000120 fb 87 f0 bd 74 19 25 be 70 24 ad 3d 30 18 f4 3a
       -0.11744686 -0.16122991 0.084542155 0.0018622931
000130 61 75 03 3e 38 d9 ad 3d 56 73 35 be 94 d7 1b 3e
       0.12837745 0.08488697 -0.17719778 0.15218955
000140 05 95 ae 3d e0 bb 41 3d ad a3 1c be ff ce 36 3e
       0.08524517 0.047298312 -0.15296812 0.178524
000150 ae 57 12 3e 83 57 a5 bd d7 ee cd bb 77 c1 e0 bd
       0.1429126 -0.08073332 -0.0062845754 -0.109744005
000160 da d4 e1 3d 95 a4 15 3e fb 77 dc bd 7e 82 35 be
       0.11026926 0.14613564 -0.10765072 -0.1772556
000170 7b 20 da bd ea 16 79 bd 29 21 75 3c a6 b1 dc bd
       -0.106507264 -0.06081287 0.014961519 -0.10776071
000180 5a 3e 92 bd d9 91 81 3d 23 09 a8 bd e8 e8 c4 3d
       -0.07140799 0.06326646 -0.08204868 0.09614736
000190 89 1d 80 3d e5 c8 2e be f9 a7 a4 bd 31 03 3f be
       0.062556334 -0.17068823 -0.08039851 -0.18653561
0001a0 77 0a 20 bc 45 51 09 3e 95 b1 32 be 13 49 e6 bd
       -0.00976812 0.13409908 -0.17450555 -0.112444066
0001b0 7b 2b cf bd d2 65 d5 bd 37 89 35 3d 12 9e ce bd
       -0.10115715 -0.10419811 0.04432031 -0.10088743
0001c0 34 bc 48 bd 6b d5 bf bc 5e 03 c6 3d cc f6 14 3e
       -0.04900761 -0.023417195 0.09668611 0.1454727
0001d0 73 e5 bb bd 31 8a 2f 3e 7b 74 dc 3d 56 67 3b be
       -0.09174623 0.1714256 0.107644044 -0.18301138
0001e0 89 9b 5a bd dc 2e 0d be 57 02 a5 bd c2 ec 1f be
       -0.053370986 -0.13787407 -0.08057087 -0.1561766
0001f0 90 ca 8c 3d 91 79 7b bd 54 7d 04 3e 94 91 8f bd
       0.06874573 -0.06139523 0.12938434 -0.07010189

norm1.weight f4 [128]
000000 aa c0 6e 3f fc b9 7c 3f c7 68 7d 3f 62 d0 7a 3f
       0.9326273 0.9872129 0.98988 0.97974217
000010 49 19 7d 3f 3d bb 75 3f ea 62 83 3f eb d1 79 3f
       0.9886671 0.9598883 1.0264561 0.97585934
000020 bf 00 83 3f 05 26 80 3f cc 7c 82 3f 2a 13 77 3f
       1.0234603 1.0011603 1.0194335 0.9651362
000030 65 1c 71 3f 99 8a 7b 3f d2 88 80 3f 96 df 82 3f
       0.9418395 0.9825836 1.0041754 1.0224483
000040 b8 36 79 3f c3 ec 74 3f 1c bf 81 3f 48 3f 73 3f
       0.9734912 0.9567377 1.0136447 0.95018435
000050 7e d1 7c 3f 15 64 7d 3f 0b 54 82 3f a3 4b 83 3f
       0.9875716 0.9898084 1.0181898 1.0257457
000060 35 ff 78 3f 57 7a 73 3f ab 5f 82 3f 2d 1f 77 3f
       0.97264415 0.9510855 1.0185446 0.96531945
000070 d2 26 87 3f 1d de 84 3f f3 37 6c 3f cc 6c 81 3f
       1.0558722 1.0380284 0.9227287 1.0111327
000080 b8 5e 88 3f 5e c2 78 3f 2c b6 80 3f c3 fd 6b 3f
       1.0653906 0.9717158 1.0055594 0.92184085
000090 33 38 7c 3f f2 65 84 3f 76 9b 7b 3f 5e 11 7e 3f
       0.98523253 1.0343611 0.9828409 0.9924525
0000a0 2e 90 74 3f f5 2a 74 3f 66 25 7f 3f f1 4f 84 3f
       0.955325 0.9537805 0.9966644 1.0336896
0000b0 4e d8 80 3f 38 aa 75 3f 8a b8 82 3f 1d 84 74 3f
       1.0066011 0.9596286 1.0212567 0.9551409
0000c0 f7 42 81 3f 11 2b 7c 3f 2f 7b 81 3f 36 04 7d 3f
       1.0098561 0.98503214 1.0115718 0.9883455
0000d0 12 bb 81 3f 91 6a 80 3f 8c 35 80 3f ce ca 84 3f
       1.0135214 1.0032521 1.0016341 1.0374391
0000e0 cc f6 7d 3f cd 14 7a 3f 0d ec 6a 3f aa 1f 7d 3f
       0.9920471 0.9768799 0.91766435 0.9887644
0000f0 e8 68 78 3f 4e f1 86 3f 41 94 8a 3f 63 32 7e 3f
       0.97035074 1.054239 1.0826494 0.99295634
000100 33 f6 84 3f dd 3b 87 3f be 26 70 3f d1 7f 76 3f
       1.0387634 1.0565144 0.93809116 0.9628878
000110 99 db 84 3f 0f 65 72 3f 3b 44 71 3f 71 fd 7c 3f
       1.0379516 0.94685453 0.94244736 0.9882422
000120 31 ca 7f 3f 2d 1e 83 3f eb 3e 87 3f 1b 7e 77 3f
       0.99917895 1.0243584 1.0566076 0.96676797
000130 f1 81 7d 3f 03 75 86 3f 50 43 6c 3f ba 01 7f 3f
       0.990264 1.0504459 0.9229021 0.9961201
000140 09 4d 82 3f 2b 9f 81 3f 34 26 78 3f 97 b3 7f 3f
       1.0179759 1.0126699 0.96933293 0.9988341
000150 74 39 72 3f f1 a4 81 3f 3a 96 7d 3f 0b 76 74 3f
       0.94618917 1.0128461 0.9905735 0.9549262
000160 85 05 7c 3f b5 7d 70 3f 79 5e 7f 3f e4 0d 6c 3f
       0.9844592 0.93941814 0.9975353 0.92208695
000170 ac e2 80 3f 35 eb 89 3f 16 24 76 3f c0 f9 75 3f
       1.0069175 1.0774904 0.9614881 0.96084213
000180 af 7c 90 3f 70 d2 75 3f 1d 1e 81 3f 6c aa 6a 3f
       1.128805 0.9602423 1.0087315 0.91666293
000190 6b cd 79 3f 04 53 82 3f 8b c7 7e 3f 31 6f 7c 3f
       0.9757907 1.0181584 0.9952323 0.98607165
0001a0 b5 ed 73 3f 15 4e 7d 3f 1e a4 82 3f c5 fe 76 3f
       0.9528459 0.9894727 1.0206335 0.964825
0001b0 7d b8 70 3f e9 79 80 3f 02 22 78 3f 94 1b 7d 3f
       0.94031507 1.0037204 0.9692689 0.98870206
0001c0 d3 32 70 3f af df 7b 3f d6 c7 73 3f 9b a0 7c 3f
       0.9382755 0.9838819 0.952268 0.98682564
0001d0 97 54 7e 3f 76 7f 7f 3f d9 7d 7f 3f a8 22 6d 3f
       0.99347824 0.99803865 0.99801403 0.92631006
0001e0 3e e4 76 3f 61 ef 79 3f 1f da 71 3f 5f 98 71 3f
       0.9644202 0.9763089 0.9447345 0.94373125
0001f0 f4 86 7a 3f b0 d5 82 3f b2 77 82 3f a1 bd 77 3f
       0.9786217 1.0221462 1.0192778 0.96773726

norm1.bias f4 [128]
000000 8e 60 74 bd ea 22 60 bd 63 44 e6 bc dd 51 57 bd
       -0.059662394 -0.054720797 -0.028108781 -0.052568305
000010 68 4b ff 3b 58 ea 87 bc b2 3d c7 3c d4 58 36 bc
       0.0077909715 -0.016591236 0.02432141 -0.011129577
000020 ae 32 37 3c 9d a2 0a bd 28 2d 22 bc 4a 82 69 3a
       0.011181517 -0.033846486 -0.009898461 0.0008907659
000030 16 ef a9 bd 10 0e 2b bd 74 8d d2 bc e7 53 76 3c
       -0.08297555 -0.041761458 -0.025702216 0.015034652
000040 b0 ec 6b bd 68 15 5d bd 27 7d fa bc 3f de 7d bd
       -0.05759877 -0.053975493 -0.030577255 -0.06197953
000050 cd 07 6b bc ad 5c da bb c6 98 75 bc 49 42 62 3c
       -0.014345122 -0.00666388 -0.014990037 0.013809749
000060 1c 9b 0c bd 82 37 3b bd 0b a0 45 bd 0e 0e 42 bc
       -0.03432761 -0.045707233 -0.048248332 -0.011844171
000070 9e c1 89 3d fe 01 10 bd 0e cc a2 bd 53 32 00 bd
       0.06726383 -0.03515815 -0.079490766 -0.031297993
000080 c2 57 18 3d 8c fa 29 bd c6 87 5a bd 85 96 92 bd
       0.037193067 -0.041498706 -0.05335214 -0.071576156
000090 1e 80 5e bd cd 77 3c bc 73 f2 c6 bc dd 9a 7d bc
       -0.0543214 -0.011503172 -0.02428553 -0.015478817
0000a0 e5 93 38 bd 18 a7 3f bd a9 3b 35 bc 92 f3 4b bd
       -0.04506292 -0.046790212 -0.011061587 -0.049792834
0000b0 f7 88 da bb 88 11 8c bd ef 01 04 bd 71 eb 4d bd
       -0.0066691595 -0.06839281 -0.032228407 -0.050273363
0000c0 81 83 e3 bb 7b 29 3e bd a3 de 77 bd f6 a0 16 bb
       -0.0069431667 -0.046426278 -0.060515057 -0.0022984124
0000d0 63 34 4b bd 33 57 67 bc 68 0d 89 bc c5 08 47 bc
       -0.049610507 -0.014119911 -0.016730025 -0.012148087
0000e0 e8 50 34 bd f8 af 1c bc bc c4 43 bd c7 34 39 bd
       -0.04402247 -0.009563439 -0.047795042 -0.045216348
0000f0 be e3 6d bd 47 4b 44 3c 4c ed 91 3d 96 b7 89 bd
       -0.05807852 0.011980838 0.07125339 -0.06724469
000100 74 d9 b6 bb 33 9e 13 bc 50 75 96 bd 13 80 48 bd
       -0.0055801217 -0.009009886 -0.07346594 -0.048950266
000110 0f 96 82 3c e8 03 40 bd e8 54 d1 bd 82 64 72 bd
       0.015940694 -0.046878725 -0.10221273 -0.059177883
000120 ed 6d 1d bc 78 03 02 3c 6f bf 07 bd c6 be 94 bc
       -0.009608728 0.007935397 -0.03314155 -0.018157374
000130 ed 14 87 bd a2 b4 3c 3d 06 75 9e bd a5 ec 9e bd
       -0.06595788 0.046070702 -0.07737164 -0.0775998
000140 0a ff b5 bc e5 30 fb bc 27 90 c3 bc fd 43 e4 bc
       -0.022216339 -0.030662963 -0.023872448 -0.02786445
000150 4c ad 5d bd 4f 9d 44 bc 45 1f 4a 3d 7c be 34 bd
       -0.054120347 -0.012000396 0.049346227 -0.044126973
000160 3f fc d3 bc 8b 80 89 bd 05 89 d1 3c e9 f5 92 bd
       -0.025877116 -0.06713971 0.025578031 -0.0717581
000170 24 d1 88 bc 82 f0 a5 3c 88 7a 9d bc 34 6e 82 bd
       -0.016701289 0.020256285 -0.019223467 -0.06368676
000180 d8 34 1c bd 42 ad 93 bd 63 c6 5f bd 2a 2a 89 bd
       -0.038136333 -0.07210781 -0.054632556 -0.06697495
000190 36 10 a2 bc 5f b2 47 bd 72 c0 99 bd 75 85 de bc
       -0.01978312 -0.048754092 -0.07507409 -0.027163247
0001a0 6c 76 86 bd c1 99 54 bd 38 52 e3 bc 98 10 31 bd
       -0.06565556 -0.051904444 -0.027749166 -0.043228716
0001b0 2a 70 6c bd 77 85 b7 bd 7d 09 6d ba d0 1c 83 3c
       -0.057724155 -0.08961003 -0.00090422464 0.01600495
0001c0 b5 1e 41 bd 95 94 12 bd c5 19 29 bd d5 76 10 bd
       -0.047148425 -0.03578623 -0.04128434 -0.035269577
0001d0 37 b2 3a bd fa 7b de bc 38 5f 0d bc c6 2c 91 bd
       -0.045580115 -0.027158726 -0.008628659 -0.07088618
0001e0 c0 e3 93 bd 58 47 8b bd 3c d5 18 bd 84 93 9b bd
       -0.07221174 -0.06800717 -0.03731273 -0.07596496
0001f0 24 fb 3e bd 98 9b 3f bb 38 bb a3 bc 39 9e ca bc
       -0.046626225 -0.0029237028 -0.019986734 -0.02473365

norm1.running_mean f4 [128]
000000 85 c3 cd 3d 52 41 90 3e de 3f c1 bd ee 34 9b be
       0.10047058 0.28174835 -0.0943601 -0.3031382
000010 7e e0 5a be e6 c4 9d bc a8 ed b5 3e f2 8a 3c be
       -0.213747 -0.019258928 0.3553288 -0.18412378
000020 93 58 82 be c5 01 ba be 32 81 12 3e 9e dd 3a be
       -0.25458202 -0.36329475 0.14307097 -0.18248603
000030 da cd 56 3d 84 2f 57 3e ab 0d ec 3c e6 c8 c1 bc
       0.05244241 0.2101422 0.028815111 -0.023655366
000040 01 45 b2 3e e6 97 2b 3e e8 a6 48 bd 5b 76 6f bd
       0.3481827 0.16757163 -0.0489873 -0.058462482
000050 98 d3 b6 be c4 99 9d 3e 00 8f 6a 3c f3 a1 ad 3e
       -0.35708308 0.30781376 0.01431632 0.3391262
000060 1c bc 54 be b7 cd 36 3e 89 bb 06 3e 4d 35 e3 be
       -0.20774883 0.17851911 0.13157476 -0.44376603
000070 56 39 d4 bd 76 58 8d 3d a6 03 49 be 77 09 71 be
       -0.103624985 0.06901638 -0.19630298 -0.23538767
000080 5e 9b 30 3e 26 3e 47 bd 4d c1 2f 3e 1f f2 a3 3e
       0.17246768 -0.048643254 0.17163582 0.3202066
000090 b8 b5 aa 3e 8a a8 8c 3e 7c 38 61 be 9a 4b 85 3e
       0.33341765 0.27472335 -0.21994203 0.26034242
0000a0 c5 6c ba 3d 2f bf 63 be f1 b7 69 be c2 dc 7f 3d
       0.091027774 -0.222409 -0.22824074 0.06246639
0000b0 0a 6c 5c 3e d6 70 e9 ba a1 19 ac be e6 28 89 be
       0.21525589 -0.0017810117 -0.33613303 -0.26789016
0000c0 0e f8 e5 be 66 b8 c4 3c 90 b4 e1 bc 00 d2 01 be
       -0.44915813 0.02401371 -0.02755192 -0.12677765
0000d0 0e 49 2d be d0 91 39 3e 8e 69 20 be 77 bc d8 3c
       -0.169224 0.1812203 -0.15665266 0.026457055
0000e0 35 b8 e0 3d 00 8c 8d 3e f5 9d 94 3c 70 ec e3 3d
       0.10972635 0.27645874 0.018141726 0.11129081
0000f0 aa a5 80 3d 2d fd 96 3c dd d7 a9 be 98 8a 09 3d
       0.06281598 0.01843127 -0.33172503 0.03357944
000100 5d 33 04 bd de 99 1f 3e 38 a1 88 be ad 6e da 3d
       -0.032275546 0.1558604 -0.266855 0.10665641
000110 a5 24 62 bd 28 f4 bc be a7 ec 64 be 57 67 c5 bb
       -0.05521073 -0.36905026 -0.223559 -0.006024282
000120 1b 3d 8b be cb 9c 7f 3d 00 9e 91 3e e5 f6 0d bd
       -0.27195057 0.06240539 0.28440857 -0.034659285
000130 12 9e 24 3e 51 02 50 3e ab 47 af 3d a5 2e 82 3d
       0.16075924 0.20313384 0.085585915 0.06356553
000140 74 e0 aa bd 65 93 35 3e 8c 88 f9 3d a2 d6 66 3e
       -0.08343592 0.17732008 0.121842474 0.22542813
000150 b4 12 88 3e bb 7f 67 3c 8f 85 3d be 98 92 c7 bc
       0.2657677 0.014129574 -0.1850798 -0.024361894
000160 33 cb a7 3e c4 ab d8 3c 61 31 af be ba 97 8a 3d
       0.32772216 0.026449092 -0.3421736 0.06767221
000170 ac a5 49 bd a8 4c 29 bd a5 5f 81 3e 8a df 46 bd
       -0.049230263 -0.04133287 0.25268283 -0.048553027
000180 e6 04 e1 bd 76 15 6c 3d 56 a7 99 be 0f 24 f5 3d
       -0.109872624 0.057637654 -0.3001048 0.11969768
000190 55 c2 f6 bc b6 0a 35 be 72 ba 7c be 2f 44 98 bd
       -0.030121962 -0.17679867 -0.24680498 -0.0743488
0001a0 c6 15 3c 3e 3b 9c 8b 3e 77 1d 4e be 10 dd 62 be
       0.18367681 0.27267632 -0.20128427 -0.22154641
0001b0 07 d5 43 3e 06 aa 7c 3d e5 80 db 3d 5c 0c 35 be
       0.19124232 0.061685584 0.10717944 -0.17680496
0001c0 e6 29 06 be ec 58 96 3d 6c 9f 9d bd 3d b9 09 3e
       -0.1310192 0.07341179 -0.07696423 0.13449569
0001d0 4f 05 56 3c ad e9 b1 3e b5 29 1f 3b 19 c3 92 be
       0.013062789 0.34748593 0.0024286334 -0.28664473
0001e0 a1 cb 2f be 81 63 04 be 3b 5f 05 3e 57 e0 e5 bd
       -0.17167522 -0.12928583 0.13024609 -0.1122443
0001f0 34 30 53 3e 7d 2d 7d bd d8 56 6d 3e 30 f9 4f bd
       0.20623857 -0.06181096 0.2317766 -0.050774753

norm1.running_var f4 [128]
000000 52 d9 b3 3d ab cf 83 3c c2 cf 9e 3c eb ce df 3c
       0.08781685 0.016090235 0.019386176 0.027320346
000010 31 91 a7 3c 3c 85 36 3d 13 4b ef 3c 18 7b 33 3d
       0.020454975 0.044560656 0.029210603 0.043818563
000020 f5 f0 7d 3c 47 41 8e 3d 11 c4 08 3c cd fc 35 3d
       0.015499343 0.069460444 0.008347527 0.044430543
000030 95 eb e1 3c 20 03 c6 3c c4 57 9c 3d 52 3e da 3c
       0.027578155 0.024171412 0.076339275 0.026641045
000040 4a 36 b9 3c 10 7a fa 3c ac ad 10 3d 36 73 7f 3c
       0.022608895 0.030575782 0.035321876 0.015591433
000050 25 d2 5b 3d bf 2b a7 3d bd 02 64 3c 10 f3 a2 3c
       0.053667206 0.08162641 0.0139166685 0.019891292
000060 0d 76 81 3d 22 6c f9 3c ab 28 2d 3c 77 71 57 3d
       0.063213445 0.03044707 0.010568778 0.052598443
000070 01 35 00 3c 7b c7 7e 3c b6 db 00 3d 61 5a 6b 3c
       0.007825137 0.01555049 0.031459533 0.01436481
000080 b1 3e 0f 3d 1c f2 98 3d 40 c9 d3 3c 85 08 32 3d
       0.034971897 0.07468054 0.0258528 0.043465156
000090 6a 30 ad 3c f3 44 8d 3c 5c 34 37 3c 69 3f e7 3c
       0.02114125 0.017244792 0.011181917 0.028228479
0000a0 a7 8a f7 3c aa d9 cd 3c cc 2b 45 3d e8 ff 26 3c
       0.030217482 0.025128204 0.04813747 0.010192849
0000b0 db 9f bb 3c 1c f7 13 3d c5 8c 7c 3c 38 38 6c 3c
       0.022903373 0.036124334 0.015414421 0.0144177005
0000c0 9a 23 0f 3d 94 62 03 3d af 25 29 3d d6 7f b2 3c
       0.03494606 0.032076433 0.041295704 0.021789473
0000d0 10 25 9d 3c db c7 66 3c 42 88 97 3c ef 5b 84 3c
       0.019182712 0.014085735 0.01849759 0.016157119
0000e0 f9 8c 59 3c 2d 25 28 3d 21 b1 58 3d b0 f8 62 3c
       0.013278239 0.04105108 0.0529033 0.013853237
0000f0 a5 e6 b3 3c aa ed ec 3c 39 ef 68 3c 2c 7a fd 3b
       0.021960566 0.02892192 0.014217191 0.0077355113
000100 e5 e7 61 3c 50 bb 57 3c 36 bd b3 3d a3 2b f8 3c
       0.013788198 0.013167217 0.087763235 0.030294245
000110 a3 99 93 3c 79 70 c8 3c fc 26 eb 3c a3 45 db 3c
       0.018017596 0.024467694 0.028705113 0.026766604
000120 bb aa b0 3c 46 4d 10 3c d6 19 4a 3d 2f b9 e9 3c
       0.021565786 0.008807486 0.049341045 0.028530685
000130 c2 65 9d 3c cd dc 7f 3b 6b e2 03 3d 94 d1 0f 3d
       0.019213561 0.003904152 0.03219835 0.03511198
000140 71 7f 0a 3d 02 f0 9f 3c e4 68 0e 3d b2 06 ce 3c
       0.033812944 0.019523624 0.034768 0.025149677
000150 dc c6 ab 3c 75 25 05 3c a1 08 aa 3c a2 9b af 3c
       0.020968847 0.008126606 0.020756068 0.021436516
000160 06 23 99 3c d4 54 74 3d bc 31 28 3d b0 de 9b 3d
       0.018693458 0.05965121 0.041063055 0.07610834
000170 b8 1c 03 3d ff 13 3c 3c a5 1a 50 3d d7 49 11 3d
       0.03200981 0.011479377 0.05080666 0.03547081
000180 b6 0c a5 3b 48 17 3d 3d 92 c9 09 3d 3f 0b 1f 3d
       0.0050369157 0.04616478 0.033639498 0.038829084
000190 52 75 94 3c 4a fb 26 3c 36 b3 89 3c 47 45 92 3c
       0.018122349 0.010191748 0.016809087 0.0178553
0001a0 d4 a4 e2 3c 90 a6 61 3c d3 5d 14 3d 04 2c 91 3c
       0.027666487 0.013772622 0.03622229 0.017721184
0001b0 ff 22 3d 3d f6 cc 12 3d 9b 59 71 3d 64 60 0a 3d
       0.046175953 0.035839997 0.058923345 0.03378333
0001c0 c8 e2 4c 3d bf 26 7e 3c 92 ba 4b 3d 28 fd 1f 3c
       0.050020963 0.0155121675 0.049738474 0.009764947
0001d0 bf 9f 9c 3c f1 55 97 3c cf c7 bd 3c 66 b5 ed 3c
       0.019119142 0.018473597 0.023166565 0.029017162
0001e0 b6 e3 87 3c 53 60 dc 3b bb 5d d1 3c be 89 13 3d
       0.016588073 0.00672535 0.02555739 0.036020033
0001f0 0a 11 2e 3d 0a 28 73 3c 5f 7f 25 3c 4b 48 ef 3c
       0.04249672 0.014841089 0.010101168 0.029209277

convs.0.bases_weight f4 [128, 64]
000000 a4 4b 26 3e 5a fe dd bd 16 21 35 be cf 63 1e be
       0.16239792 -0.10839529 -0.17688403 -0.15467761
000010 51 06 99 bd fd 27 ad bd 51 cd 09 3e c2 36 bd ba
       -0.07471908 -0.08454893 0.13457228 -0.0014435875
000020 ba ae ef 3d 25 f9 b5 3b 85 24 79 bd f5 07 f2 bd
       0.11703248 0.005553382 -0.060825843 -0.11817924
000030 60 cc 01 be 15 5a 49 3d c4 46 18 be 99 cc dd 3d
       -0.12675619 0.049158175 -0.14870745 0.108300395
000040 55 78 d0 bc e0 94 1c 3e 16 a9 b7 bd d1 16 56 bc
       -0.025448004 0.15291166 -0.089677975 -0.013066963
000050 99 cd 4a 3e fa 38 d0 bc 1a cb 87 bd d1 af b4 3c
       0.19804992 -0.025417794 -0.066305354 0.022056492
000060 82 8d 01 3e 41 a2 de 3d 65 a8 5f bd 9a 7b b2 bb
       0.12651637 0.10870791 -0.054603953 -0.0054468634
000070 8a 3e b1 3d 44 ce 32 bd 5d 4a a0 bd 3e ae 77 3d
       0.086545065 -0.04365374 -0.07826684 0.060468905
000080 64 8f b3 bd 4a 5d e1 3d f2 32 be 3d 37 18 8b bd
       -0.08767584 0.110041216 0.09287061 -0.06791728
000090 b2 fe 0b be c8 03 3b 3d 5f e4 48 bd ad a8 9e 3d
       -0.13671377 0.045657903 -0.049045917 0.07747016
0000a0 09 20 88 bd ab f3 21 be 20 33 d5 3d d4 65 9c bd
       -0.06646735 -0.15815608 0.10410142 -0.0763661
0000b0 40 72 58 bc ee 97 82 3d 07 df bf 3d e1 ae 64 3d
       -0.013210833 0.063766345 0.09368711 0.05583084
0000c0 be c9 11 bd 62 0b 45 bd b1 ef af bd 87 fb 3d bd
       -0.035592787 -0.04810656 -0.085906394 -0.046382453
0000d0 34 cc 84 bc f0 af 62 bd 10 e6 2b 3d fb b0 d4 bd
       -0.016210653 -0.05534357 0.04196745 -0.10385319
0000e0 da ac d1 3d 4f 2c cf bd af df 08 3e b5 0d 28 3e
       0.10238047 -0.10115873 0.13366579 0.16411479
0000f0 aa 3a de 3c 95 f1 26 3e 08 ca e3 bd de f4 a4 3c
       0.027127583 0.16303094 -0.11122519 0.020136293
000100 e3 3b 88 bd 08 e8 30 3e 33 dd 21 bd de f3 a9 bc
       -0.066520475 0.17276013 -0.039517593 -0.020746168
000110 97 ab d2 3d 6f e2 19 3e 28 80 1f be 57 07 69 3d
       0.102866344 0.15027784 -0.15576231 0.056891765
000120 79 f5 0b be 8b fa 1e 3e 36 dd a8 3c 81 e4 ae bd
       -0.13667859 0.15525262 0.020613294 -0.085396774
000130 86 68 85 3e 4d a1 2c be b5 99 c1 bb 29 00 fb 3d
       0.26056308 -0.16858406 -0.005908216 0.1225589
000140 83 ae cf bd 10 63 29 3e e6 85 b2 3d 4a c4 f9 bd
       -0.10140707 0.16541696 0.08716945 -0.12195642
000150 06 51 9b 3d 06 1d 65 3d f4 fb 83 3d 8a 8a f9 3c
       0.07583813 0.055935882 0.064445406 0.030461568
000160 32 cc e4 bd 49 f5 ac bd 24 09 29 bd c2 53 06 be
       -0.1117176 -0.08445222 -0.041268483 -0.13117889
000170 bc ee ca bd db a3 08 3c f5 d8 23 be 93 1c f3 3d
       -0.09908816 0.008339847 -0.16000731 0.118706845
000180 cd a1 5f 3d 73 9c 22 3e f2 9d 0a 3e 47 69 f9 bd
       0.054597665 0.15879993 0.13536814 -0.12178283
000190 18 9d 47 bd 1c 3b 29 3e a6 51 f0 3d d6 fd 10 3c
       -0.0487338 0.16526455 0.11734323 0.008849582
0001a0 ba 0a 22 3c 94 8d 18 3d e8 89 89 bc 94 61 2d 3e
       0.009890253 0.037244394 -0.016789392 0.16931754
0001b0 7f 08 14 be cc d5 a7 3d 61 05 d0 bd 04 8b 53 3d
       -0.14456366 0.081950754 -0.10157276 0.051646248
0001c0 21 17 7c bc b4 01 38 bd d7 6e 90 3d 6a 40 c7 3b
       -0.015386374 -0.0449235 0.07052391 0.006080677
0001d0 f3 c3 1e 3b f8 8b 29 be ec 5d ab 3d 61 47 42 3d
       0.0024225682 -0.165573 0.083675236 0.047431353
0001e0 6c fd 1f 3e 2f 77 b2 bd 22 46 f0 bd 26 09 b6 3c
       0.15624017 -0.08714139 -0.11732127 0.02222116
0001f0 de 64 ed bc 65 76 38 bd 7a 16 8c bc 1d 2d 4a 3e
       -0.028978761 -0.045034785 -0.017100561 0.19743772
000200 4e fa cc 3b 2e f9 19 3e c3 0e 02 be 85 bb aa 3d
       0.0062554246 0.15036461 -0.12700944 0.08336548
000210 ae 43 32 be 80 cf e9 bd f1 f2 6b 3d 4e b5 f1 3d
       -0.1740863 -0.114165306 0.057604734 0.11802159
000220 cb 2a 2a 3e 97 25 0c 3e 76 27 20 3e ea dd 98 bd
       0.16617887 0.13686214 0.15640053 -0.07464202
000230 72 c4 13 bd 5b 99 63 bd a9 60 0a be 53 95 05 3e
       -0.036076017 -0.055566173 -0.13513435 0.13045244
000240 7b 4a a6 bd 73 c3 dd 3d c4 b1 9e 3d e0 c7 4a be
       -0.08119675 0.108282946 0.0774875 -0.19802809
000250 d4 cb 45 3e 84 fb e5 bd 49 89 09 3e c6 5e 95 3d
       0.19316036 -0.112296134 0.13431276 0.07293467
000260 90 7d 83 bd 9b 32 1c 3e 08 b1 d4 bb e1 bf 53 be
       -0.064204335 0.1525368 -0.0064908303 -0.20678665
000270 de 42 9e 3c 8b 10 ec 3d df 10 1f 3e 36 34 f5 bd
       0.019318994 0.11526593 0.1553378 -0.11972849
000280 05 9f dd bc 5e fc e1 3d 60 f8 85 bd c1 01 5b bd
       -0.027053365 0.11034463 -0.065415144 -0.05346847
000290 49 c5 d1 3d 6e f9 28 be 48 81 fc bc 35 79 82 3d
       0.10242707 -0.165014 -0.030823365 0.06370775
0002a0 54 a5 2f 3d 6f 47 0a 3e 3c fb 77 3e 85 b2 1f 3d
       0.04288228 0.13503812 0.24216932 0.03898861
0002b0 64 d3 2f bd f4 d2 32 3e b7 74 c8 3c b7 68 52 bd
       -0.042926207 0.17463285 0.024469716 -0.051369395
0002c0 45 dc aa 3b 08 aa a0 3d d5 22 7b bb 53 ac cc 3d
       0.0052142465 0.07844931 -0.0038320322 0.09993806
0002d0 2b 2c 78 3d c4 c6 b1 bd 0b 99 89 bb b4 ed 11 3b
       0.060588997 -0.0868049 -0.0041991523 0.0022266926
0002e0 e2 9e b7 3d 90 5c 9d 3c 2f 24 5c 3d 9a 53 98 bd
       0.08965851 0.019209176 0.053745445 -0.07437821
0002f0 fe bf 12 3d 9b 8c b2 3d c0 e5 82 3d 4c 12 23 3c
       0.03582763 0.087182246 0.063914776 0.009953093
000300 4c 04 11 3e 13 00 e3 3d e6 88 99 bd 98 2b 08 be
       0.14161795 0.110839985 -0.074968144 -0.1329788
000310 d2 31 11 be 8a 66 ce bd 14 a5 9b bd 38 e2 3a bd
       -0.14179161 -0.100781515 -0.075998455 -0.045625895
000320 05 5a 26 bc e4 a8 1c be ea 13 2d be 92 21 38 bb
       -0.010153298 -0.15298802 -0.16902128 -0.0028096181
000330 51 f8 94 bd 9b e4 07 be fa be e0 bd de d0 52 3e
       -0.07273925 -0.132708 -0.10973926 0.20587489
000340 46 d1 36 3e c3 90 bf 3d e4 1c 23 3e 48 00 d4 3c
       0.17853269 0.09353783 0.1592899 0.02587904
000350 8a cb 0b be fe 98 0a bd c3 d2 82 bd e3 f2 02 3e
       -0.13651863 -0.03383731 -0.06387856 0.12787966
000360 6e b5 05 bc 8e 6e f5 3d d2 12 55 bd 96 3f 19 be
       -0.008160932 0.11983977 -0.0520199 -0.14965662
000370 f1 a1 12 3e 24 dc 6d bd 75 7c eb 3d 2d 9a 25 3e
       0.14319588 -0.05807127 0.11498348 0.16172095
000380 53 be da 3d 9a 16 03 3e 7b 42 4f 3e b3 f2 cc bd
       0.10680833 0.1280159 0.20240204 -0.10007229
000390 a7 c1 c0 3d 75 8c 84 3c 39 b6 30 be e0 48 33 be
       0.09411936 0.016180256 -0.17257012 -0.17508268
0003a0 bb 3b 0a be dd 65 b6 3d dc 23 08 3e 86 c9 c4 3d
       -0.13499348 0.08906148 0.1329493 0.0960875
0003b0 d4 48 02 3e 41 8e 2f 3e 3e 2d 47 be 27 a0 04 bb
       0.12723094 0.1714411 -0.19450852 -0.002023706
0003c0 da e9 b6 bc 72 bd e7 bc 9e d3 d6 bc 73 56 86 3d
       -0.022328306 -0.028288577 -0.026223954 0.06559458
0003d0 20 73 e8 bd 95 c9 9a 3d ae 1a 01 be c3 2b 6c bd
       -0.11350083 0.0755798 -0.12607834 -0.057658922
0003e0 1e 92 3e 3d fc 46 29 bd 47 90 35 3d f0 4e e7 bd
       0.046526067 -0.04132746 0.044327047 -0.11294353
0003f0 3c bc 2b 3e 55 4e 0f be b7 7f 23 3d 84 1c 4d 3c
       0.16771024 -0.13994725 0.03991672 0.012519006

convs.0.bias f4 [128]
000000 de 1d 62 b9 e6 b9 9b b8 b3 4d 82 38 0b 9d 7a b9
       -0.00021564166 -7.425602e-05 6.213356e-05 -0.00023900361
000010 6b 80 cb 37 81 93 8b b9 6c 12 b7 38 d3 96 6e b9
       2.4259285e-05 -0.00026622045 8.729551e-05 -0.00022753635
000020 4a d4 89 b6 33 4f e0 37 20 02 7d 39 bc a0 cd 38
       -4.107632e-06 2.673976e-05 0.00024128752 9.805101e-05
000030 b5 00 94 39 17 c8 66 b9 e1 20 55 b9 ed 75 e6 39
       0.00028229287 -0.00022009049 -0.00020325511 0.0004395688
000040 5d d9 27 ba b1 4b b7 b9 01 97 23 ba e4 c8 be 37
       -0.0006402934 -0.00034960874 -0.0006240458 2.2743312e-05
000050 1d 25 bd b9 79 98 f5 38 79 eb 25 ba 8d d1 e6 b8
       -0.0003607654 0.000117109106 -0.00063293386 -0.000110062865
000060 0a 0d b1 b8 99 23 19 ba 9b c8 13 39 ed da 85 39
       -8.4424464e-05 -0.0005841791 0.00014093744 0.0002553085
000070 f2 92 a4 39 23 0e 59 b9 a8 0a 22 39 13 41 d4 39
       0.0003139 -0.00020699999 0.00015453494 0.00040484275
000080 be 90 a4 b8 94 0b 64 b9 60 0f ca b9 b7 76 98 b7
       -7.84709e-05 -0.00021748088 -0.00038539898 -1.8175093e-05
000090 36 08 4b 39 da 5b e7 39 f7 49 54 b8 f8 00 27 36
       0.00019362647 0.00044128188 -5.0613624e-05 2.4885503e-06
0000a0 28 8c 3b 39 cf 65 25 39 87 d6 b3 39 63 19 c4 39
       0.00017885922 0.00015773553 0.00034301376 0.00037402948
0000b0 57 47 96 b8 7d 24 98 b9 41 85 07 ba 6b 0b 32 39
       -7.1658455e-05 -0.00029018885 -0.00051696977 0.00016979656
0000c0 21 50 05 39 be c0 24 39 15 8e 6d b9 0e b3 ad b9
       0.00012713719 0.00015712061 -0.00022655011 -0.00033130537
0000d0 3b 80 56 38 b5 0f 95 b7 fd 3c 8a 38 48 22 9f 38
       5.1141e-05 -1.7769498e-05 6.591713e-05 7.588096e-05
0000e0 98 0d 1e ba a6 e0 fb b8 7a 65 15 b9 b3 78 11 ba
       -0.00060292473 -0.00012010457 -0.0001424755 -0.00055492966
0000f0 75 d7 d4 b9 0e e9 ff b8 58 df 89 39 28 1a ef 39
       -0.0004059632 -0.00012202757 0.0002629708 0.0004560512
000100 ce a7 37 b9 d2 89 90 b9 1b 9f 9d 39 51 06 c1 b6
       -0.00017514752 -0.00027568504 0.00030063916 -5.7525835e-06
000110 8f ce ea b7 66 c8 30 b9 8d c2 9e 39 70 cf 1d 39
       -2.799116e-05 -0.00016859322 0.0003028106 0.00015049963
000120 3f a4 70 39 2f d4 59 3a dc d1 4d b9 25 c5 96 39
       0.0002294937 0.0008309511 -0.00019628502 0.00028757114
000130 af e5 d2 b9 62 f0 fd b6 ab c0 a0 b8 58 9e 81 38
       -0.0004022545 -7.567972e-06 -7.665282e-05 6.180693e-05
000140 d7 81 ef 36 97 ff 14 3a ef e3 e9 38 c5 2a 0c 39
       7.1378704e-06 0.0005683838 0.00011152762 0.00013367373
000150 fa b9 7d b9 b5 fc e6 39 14 a1 15 3a 03 a1 11 37
       -0.00024197242 0.000440573 0.00057079014 8.680162e-06
000160 72 ba 4c 3a ee e2 ba 38 62 cf 92 39 9f 42 f6 b9
       0.0007809765 8.91144e-05 0.00028001802 -0.00046970413
000170 c0 42 9b b9 c5 59 55 39 a4 71 2e 39 80 8f 5a 39
       -0.00029613636 0.00020346705 0.00016636268 0.00020843558
000180 10 94 13 b9 13 de 1a 3a 46 22 1b b9 bb 82 03 ba
       -0.0001407417 0.00059077254 -0.0001479472 -0.0005016734
000190 5b be fe 39 8c 50 1d b8 f7 62 a6 39 a7 11 23 b9
       0.0004858848 -3.7506732e-05 0.00031735722 -0.00015551467
0001a0 b4 4b a9 39 ba bd ad 3a 71 66 c5 b9 6e 62 2a b9
       0.00032290595 0.0013255395 -0.00037651093 -0.00016249131
0001b0 55 93 8d b9 1b 9b 94 38 af c3 8e 38 b4 07 be b9
       -0.00027003387 7.0860806e-05 6.8075366e-05 -0.00036245363
0001c0 91 88 df 37 e7 8f 5c b8 64 ee 1b b8 b6 50 98 39
       2.6647265e-05 -5.2586107e-05 -3.71769e-05 0.00029051834
0001d0 3e 63 a2 38 84 bd a8 39 9a 1a 9d b8 97 03 ce b8
       7.743247e-05 0.00032184657 -7.491298e-05 -9.823514e-05
0001e0 a4 cb 5a 39 ed 1d 90 39 4a 58 ff 38 7d d7 2f ba
       0.00020865962 0.00027488117 0.00012175793 -0.00067078305
0001f0 a5 7c 96 38 a6 9f 0b 39 03 02 45 ba 45 9e e1 37
       7.175774e-05 0.00013315547 -0.00075152534 2.689579e-05

convs.0.comb_weight.weight f4 [384, 128]
000000 8b 8c e8 3c 27 1a 30 bd dd ce 55 bd 11 09 11 bd
       0.028387329 -0.04299369 -0.052199233 -0.035409037
000010 9f a3 c3 bd 71 6d 00 3d a0 9b eb bd 6d 74 a4 3d
       -0.095526926 0.03135437 -0.115042925 0.08030019
000020 4b 52 9e bc da 91 be bd a9 fc 61 bd 83 bc f5 3d
       -0.01932635 -0.09305163 -0.055172596 0.119988464
000030 67 b9 1a bd a1 e8 9d 3d 9a f3 17 3d 14 c2 41 3d
       -0.03777447 0.07710386 0.03709755 0.047304228
000040 12 8d 04 3d cc de b7 bd 0d 8d 2c bc e6 60 0d 3d
       0.032361098 -0.08978042 -0.010531676 0.034516238
000050 83 1b b0 bd c4 05 63 bd 52 04 8e bc e7 b0 45 bd
       -0.085989974 -0.05542542 -0.017336044 -0.04826441
000060 99 4f 86 bd 42 e8 85 ba 4c 25 9f bc 58 a5 2c bc
       -0.06558151 -0.0010216313 -0.019426964 -0.010537468
000070 50 c9 ce 3c 64 42 5a bd bf 1f a9 3b f0 c4 a2 bd
       0.025242478 -0.05328597 0.005161255 -0.07947719
000080 8c 13 79 bd 05 ac b2 bd af 5f c0 3c 80 ae a7 3d
       -0.060809657 -0.08724216 0.023483125 0.0818758
000090 9e 14 a3 bc 2b b8 88 bd df 2a 75 3c fc 05 08 3d
       -0.019907292 -0.06675752 0.014963835 0.033208832
0000a0 71 9c 1d 3d d8 5e 05 3d fe f5 ee bc 2c a3 11 3d
       0.038479272 0.032561153 -0.029170033 0.035556003
0000b0 d1 ea c4 bd cb 71 9f 3d 89 d2 bd bd 72 45 5b bd
       -0.096151 0.07785376 -0.09268672 -0.053533025
0000c0 09 20 66 3d 56 9c 40 bd fa a4 4b 3d 86 46 57 bd
       0.056182895 -0.047024094 0.04971788 -0.05255749
0000d0 a9 60 f1 3d 34 37 8a bd f0 69 7c bd aa f3 35 3d
       0.117860146 -0.067488104 -0.061624467 0.04442183
0000e0 db e8 ca bd d8 46 31 bd 22 f5 9f bd cb 62 87 bc
       -0.09907695 -0.043280452 -0.07810427 -0.0165266
0000f0 e5 f4 00 3d ee 40 05 3d 45 48 8a 3d 6c 06 d2 3c
       0.03148355 0.032532625 0.067520656 0.025637828
000100 ef 17 a0 ba 90 47 4f bd 51 d2 4f bd 07 75 82 3d
       -0.0012214164 -0.050605357 -0.050737683 0.063699774
000110 03 cd b1 3d 38 3d 31 bd b3 3c 67 bd 56 a1 94 bc
       0.08681681 -0.043271273 -0.05645437 -0.018143337
000120 89 e3 ad 3d c5 05 c9 bd aa c1 6f 3d 91 ec 72 bd
       0.084906645 -0.098155536 0.0585343 -0.05930764
000130 6a ba 2d 3d 3b 7c 9a 3c 4c ed 0b bd 0d d0 a4 bd
       0.042414106 0.018858066 -0.03416185 -0.08047495
000140 37 52 99 3c b5 59 11 3d ca 39 c9 bc 42 61 be bc
       0.01871596 0.035485942 -0.024563689 -0.023239736
000150 6e b3 33 3d ee 49 3f bd 76 6a 87 bb 2b de cb 3d
       0.04387229 -0.046701364 -0.004132564 0.099544846
000160 70 f7 1b bd c1 14 a9 3d ed b9 cd 3d 14 00 ae 3b
       -0.03807777 0.082559116 0.10045228 0.005310068
000170 ef 30 27 3d e7 e1 0e bd 04 1a 88 3c 2b ff e2 3d
       0.04081815 -0.034883406 0.016613968 0.11083826
000180 fb d4 85 bd 38 32 8f 3d 0e a9 96 bd 9c b9 16 3d
       -0.065347634 0.06992 -0.073564634 0.036798105
000190 c5 0a 1c 3d 0c f1 30 3d 1b 28 11 3d f9 c0 60 bd
       0.038096208 0.04319863 0.03543864 -0.054871533
0001a0 53 fd be bd 1f 43 a3 bd 3c 29 43 3d e5 a6 bf bd
       -0.093256615 -0.07971787 0.047646746 -0.093580045
0001b0 9a 7a 2e bd 6a 49 e5 bc ac c4 50 3d b3 9c e7 bc
       -0.04259739 -0.027989108 0.05096881 -0.028272962
0001c0 36 e8 60 3d 22 17 45 3d bf 89 68 bc c2 e5 a8 bd
       0.054908954 0.048117764 -0.0141929975 -0.08246948
0001d0 9d 5d a6 3c 08 46 2e bd b8 88 67 3d 5c 75 b5 bd
       0.02030831 -0.042547256 0.05652687 -0.08860275
0001e0 34 f2 76 3d 47 97 9f 3d b7 b6 a6 bd 28 35 1f 3d
       0.060289577 0.07792526 -0.08140319 0.038869053
0001f0 e9 c4 b3 3c ad f4 65 3d 43 96 b6 3c ef 19 37 3d
       0.02194448 0.056141544 0.022288447 0.044702467
000200 86 0f 40 bb 9a 57 ac bd 26 33 1e bc 92 bb df bc
       -0.0029306128 -0.08415146 -0.009655749 -0.02731112
000210 f9 60 4c bd 46 e9 b6 bd 1e 1e e9 bb b5 6a 1f bb
       -0.049897168 -0.08931212 -0.007114186 -0.0024325077
000220 03 6e 96 3d 06 04 6a bd bb ba 3e 3c 9d c1 ac bb
       0.07345202 -0.057132743 0.0116412 -0.005272104
000230 be 0e db 3c 86 de 38 bd 97 a6 e1 3d ff 22 77 bc
       0.026740428 -0.04513409 0.110181026 -0.015084027
000240 4f ee 5f 3c e0 1e c2 bb 3d 52 5e bc d5 94 ea 3d
       0.013667657 -0.0059240907 -0.013569412 0.11454169
000250 17 d2 af bc fe 06 0e 3e a5 16 21 bd d0 46 96 3b
       -0.021462483 0.13869855 -0.039328236 0.004586078
000260 96 78 38 bb 5a 49 f3 3d b6 b3 94 bd 17 11 40 bd
       -0.0028148047 0.11879225 -0.0726084 -0.0468913
000270 94 33 2a 3d 78 f8 f4 bc fa 26 3e 3d 98 0a ad 3c
       0.041553095 -0.029903635 0.04642389 0.021123216
000280 ed 53 ab 3b 60 fc cc 3d 60 47 a9 bd 43 ff 81 3d
       0.0052285106 0.10009074 -0.08265567 0.063475154
000290 d6 0f a4 bd a3 68 33 bd 82 df aa bc 20 43 aa bd
       -0.08010833 -0.04380096 -0.02085853 -0.08313584
0002a0 12 1c 92 bd 25 b6 83 3d dc d6 3c 3b c7 ba 73 3d
       -0.0713426 0.06431226 0.002881459 0.059504297
0002b0 4a d5 bb bd ac 0c 52 3c a8 05 78 bd 75 0b 97 bd
       -0.09171541 0.012820404 -0.06055227 -0.07375232
0002c0 6e 0c 81 3d 8b bd 1a bc 95 6d a5 3c f4 28 8a 3b
       0.06301199 -0.009444605 0.020193854 0.004216308
0002d0 23 9b 09 3d f2 e4 b1 bc 7d 0e 6f 3d d6 af 06 bd
       0.033595216 -0.021715615 0.058363426 -0.032882534
0002e0 9e 85 2e bd 0c 9d 72 3c f8 c7 8c 3d 4f 42 19 bd
       -0.042607896 0.014807951 0.068740785 -0.037416752
0002f0 97 a8 42 3d a1 a0 ae bd 73 82 11 bd 98 fa 4b bd
       0.04752406 -0.08526731 -0.035524797 -0.04979953
000300 34 5d 0a 3e 67 e2 c9 3c 5f ca c0 3c 37 d4 91 bc
       0.13512117 0.02464409 0.023533998 -0.017801387
000310 01 4c 03 be 7b 7c 7e 3d 99 14 39 3d 7a 9f 6f 3c
       -0.12821962 0.062130433 0.04518566 0.0146254245
000320 f9 75 25 3c ed b5 05 be 63 00 e3 bd 90 bd a1 3c
       0.010098928 -0.1305768 -0.11084058 0.01974371
000330 7e 78 4c bd f0 6b e5 ba 7e bc 33 3c e9 97 79 3d
       -0.049919598 -0.0017503481 0.010970233 0.06093589
000340 d6 12 27 3d d6 44 71 3d a7 c1 9e 3d 59 36 21 bd
       0.040789448 0.058903538 0.0775178 -0.03935847
000350 b9 79 98 3c f0 00 9e 3c f9 04 4a 3b 6f d6 3a bd
       0.01861273 0.019287556 0.0030825718 -0.045614656
000360 72 1e 8a 3d 02 b6 83 bd 33 22 ca 3d 46 0c 31 bd
       0.06744088 -0.064311996 0.09869804 -0.043224595
000370 73 34 46 bd b5 80 87 bb 79 95 93 3d 51 d0 ac bd
       -0.048389863 -0.004135216 0.07206244 -0.08438171
000380 cc 84 71 bd c7 8d 52 3d 11 11 6d 3c 40 8b 33 bd
       -0.058964536 0.05140474 0.014469401 -0.04383397
000390 ff 5a 2a 3d a7 4e 98 3d d1 6f 01 3d 63 66 5f bd
       0.041590687 0.07436877 0.031600777 -0.054541003
0003a0 50 ef c2 3c 4e ef f1 bc be 67 29 bd 20 b8 63 3d
       0.023795754 -0.029533055 -0.041358702 0.055595517
0003b0 f7 70 7d bc 86 9e af bc 61 21 f5 3d 28 ec 41 3d
       -0.015468827 -0.021437895 0.11969257 0.047344357
0003c0 9d b5 de 3d 6d 1f 04 3c 7a d5 8c 3c 5d c8 9e 3d
       0.10874484 0.008064133 0.017191637 0.0775306
0003d0 6d 03 4a bd cd e3 7d 3d 92 fc 00 3e 65 43 e2 3d
       -0.049319673 0.061984826 0.12596348 0.11048011
0003e0 9a 68 06 bd 17 f2 c6 3b 92 27 80 3d 9c 05 11 3d
       -0.0328146 0.00607134 0.062575474 0.03540574
0003f0 d4 c5 a0 3b 4b 56 11 3c 69 98 c0 bd 31 95 6c 3d
       0.0049063955 0.0088706715 -0.0940407 0.057759468

convs.0.comb_weight.bias f4 [384]
000000 75 0a f1 3c 51 57 b7 3c 39 04 65 3d 3b 6e 92 bd
       0.029423932 0.022380503 0.05591223 -0.07149931
000010 40 7a 0a 3d a1 10 76 bd 92 e1 ba 3d c0 14 15 3b
       0.033807993 -0.060074452 0.091250554 0.0022747964
000020 51 dc cc bc 0b 65 0e 3d fd be 03 3d b4 f7 6c 3d
       -0.025007399 0.03476433 0.032164562 0.057853416
000030 dd b1 dc 3c fd e1 95 bd 6b a6 d1 bc 03 67 5f bd
       0.02694028 -0.073184945 -0.02559205 -0.0545416
000040 45 68 00 bd 54 06 05 3d 95 75 d7 3d ca 19 7c 3d
       -0.03134944 0.032476738 0.10520474 0.061548032
000050 ea bd b6 bc 80 c6 79 bc 28 b8 a2 bc 11 d2 c5 bc
       -0.022307355 -0.01524508 -0.019863203 -0.024148019
000060 66 5b a8 3d 2b 21 9b bd 59 65 88 bd 6b 5d 3d 3d
       0.08220558 -0.07574686 -0.066599555 0.04623167
000070 d3 7c cb 3c 0e 99 71 3d 69 e0 19 bd 8d 00 2f 3d
       0.024839794 0.058983855 -0.03756753 0.042725135
000080 6b 62 03 3d 4a 2b ec bc ae 36 9d bd 23 12 ad 3d
       0.03207628 -0.028829236 -0.07676445 0.08450725
000090 97 09 e0 3d ec ab 51 3d e9 f4 bd 3d 27 f5 d8 bb
       0.10939329 0.051189348 0.092752285 -0.0066210213
0000a0 74 cd 8a 3c b3 4a dd 3c 56 31 a1 bd c2 25 e5 3d
       0.01694367 0.027013158 -0.07870738 0.11188842
0000b0 06 50 59 bd 2c 1b 2a 3d 2e b8 8f 3d ab 3c 2f bd
       -0.053054832 0.04152982 0.07017551 -0.042782467
0000c0 df 5e 41 3d 8c eb c5 3c 4f eb a5 3d a4 b0 7f bd
       0.047209617 0.024160169 0.08101522 -0.062424317
0000d0 01 6d 70 bd 93 3d 16 3c b8 7c 9c 3c c8 4d a3 bd
       -0.058697704 0.009169954 0.01910244 -0.0797382
0000e0 83 cc 83 bc 96 ba a7 bd 7f ac 8f bc 3a 00 b1 bd
       -0.01608873 -0.08189885 -0.017538307 -0.08642621
0000f0 c1 e9 93 3d 11 78 e0 3c 0c ca 41 bd 12 5a 17 bc
       0.072223194 0.027401002 -0.047311828 -0.009237783
000100 e0 30 26 bc 87 84 b4 3c db 72 ee bc 2e 08 64 bc
       -0.010143489 0.02203585 -0.029107502 -0.013917966
000110 8b d0 1a bd 1b 14 18 3e 86 96 0d bd d7 50 cb 3d
       -0.03779654 0.1485142 -0.03456738 0.09927528
000120 72 ad 73 bd 12 5f 4d bd 46 5a c3 bb a8 85 5f bd
       -0.059491582 -0.050139494 -0.005961689 -0.054570824
000130 cd 49 64 bc 52 df 4c bd 7e 8a f3 bc 26 63 10 bd
       -0.013933611 -0.050017662 -0.029729124 -0.035250805
000140 cb 25 c9 3b f5 0f b7 3d f7 fe e5 3c 88 ba 3e 3d
       0.0061385385 0.089385904 0.028075678 0.04656461
000150 90 a2 42 3d 92 f7 fe 3c cf 82 5b bd 84 2f b3 bd
       0.047518313 0.03112391 -0.053591546 -0.08749297
000160 87 12 cd bd df 23 3c 3d 80 51 90 3d ac 4a 8c bc
       -0.100132994 0.045932647 0.07046795 -0.01712545
000170 66 41 82 bd ff a4 3e bd 76 88 c4 3d ae 0c 9a bd
       -0.0636013 -0.04654407 0.0959634 -0.0752195
000180 98 4e 22 bc 29 b8 2b bd fb d5 a5 bd a4 5a 55 bd
       -0.0099064335 -0.041923676 -0.08097454 -0.052088395
000190 9a 03 44 3d ef a2 1e bd cf 20 03 3d 0d df 2c 3d
       0.047854997 -0.038729604 0.03201371 0.042204905
0001a0 a2 93 b2 bd 95 48 a0 3d 3b db fe bc 85 c9 dc bd
       -0.08719565 0.07826344 -0.031110397 -0.10780624
0001b0 0e cf f5 bc 08 ca e8 bc 8a 24 8d 3d bc a0 b9 3b
       -0.030005958 -0.028416649 0.06891735 0.005664913
0001c0 4f 19 97 bc 10 0a 96 3c 01 b9 99 3d 5f 44 b2 bb
       -0.018444685 0.018315345 0.0750599 -0.0054402794
0001d0 14 5f 3d bd 7c 84 96 3d 55 3a 09 bb f9 92 44 3d
       -0.04623325 0.07349488 -0.002093931 0.047991727
0001e0 66 45 94 3d 92 67 e6 3b a0 97 56 bc e2 fb b8 bb
       0.07239799 0.0070313895 -0.013097674 -0.005645261
0001f0 23 a3 70 bd 04 f3 87 bd 0c 0f b4 bd 99 31 85 3d
       -0.05874933 -0.066381484 -0.087919325 0.065036006
000200 85 01 24 3d 43 97 70 bd c1 f9 26 bd d5 a6 cb bd
       0.04004051 -0.058738004 -0.040765528 -0.0994393
000210 b9 3b 91 3d 60 8f c7 3d 97 16 c2 3c 38 4d 5d 3c
       0.07091469 0.097441435 0.023692412 0.01350718
000220 42 cd 00 3d e4 78 10 bd 8e 86 ae 3c ec d2 c9 bc
       0.03144575 -0.03527154 0.021304395 -0.024636708
000230 f9 bb 1d 3d 45 1d e9 3d 14 20 83 3a 66 4f 51 3d
       0.038509343 0.11382536 0.0010004067 0.05110111
000240 19 b1 b2 3c 9d ad 84 3d a9 e6 5e 3d e1 51 98 bc
       0.021812962 0.064784266 0.054419193 -0.01859373
000250 71 56 2d bd a3 4d 08 bd 7c db d4 b9 6d c6 1f bd
       -0.042318765 -0.033277165 -0.0004059932 -0.039007593
000260 5f 83 0e bd 05 06 d0 3d 45 51 36 bd c2 87 05 bd
       -0.034793254 0.10157398 -0.0445111 -0.032600172
000270 b6 b0 b4 3b ce dd c5 3c d0 c4 ba bc 46 2b 1b bd
       0.0055142296 0.024153616 -0.022798926 -0.037883066
000280 ca 49 4c 3d cc 89 9f bd a3 75 1f bd 93 88 8e bc
       0.04987506 -0.077899545 -0.038930546 -0.017399108
000290 7e 4f 76 bd 09 1a 58 bc fd 8f ab bd 21 bc 9d 3d
       -0.060134403 -0.013189801 -0.08377073 0.07701898
0002a0 cb 47 02 3b 9b 2b e0 bb 80 22 9e 3d 6d 3f 11 3d
       0.0019879218 -0.0068411357 0.07721424 0.03546088
0002b0 82 e5 82 3d f8 2d b1 3c 23 29 39 3d d2 4a b7 bd
       0.063914314 0.021628365 0.045205247 -0.08949818
0002c0 f0 51 5b 38 4e 47 c8 3c a7 43 52 3c a0 14 ec 3b
       5.228998e-05 0.024448063 0.012833512 0.007204607
0002d0 47 bd 81 3d c2 f4 cc bc ed 2a 1f bd 69 90 7a bd
       0.0633493 -0.025019053 -0.038859297 -0.061172877
0002e0 e7 ee 8b bd ce fe 80 bd 0a 13 cd 3c 3c 33 80 3d
       -0.068326764 -0.062986 0.025033493 0.06259772
0002f0 81 de bc bd e2 15 6b bd 72 b0 04 bd 8d 3c d4 bc
       -0.09222127 -0.057393916 -0.032394834 -0.02590778
000300 27 63 80 bd c8 55 ac bd 3a 46 ca 3c 3f e5 ed bc
       -0.06268912 -0.08414799 0.02469169 -0.029039977
000310 39 70 1b bc 11 61 2e bd 3d b7 47 bc 92 f2 82 3c
       -0.009487205 -0.04257304 -0.0121896835 0.015984807
000320 45 e6 c9 3d 93 2d 44 bd bf 49 9f 3d ab f4 8f 3d
       0.098583736 -0.047895025 0.07777738 0.070290886
000330 39 72 f5 3c 18 c3 3b 3d 2c 0c 28 3d 9b 2d 86 3c
       0.029961692 0.045840353 0.041027233 0.016379168
000340 c1 8c 49 3d e1 86 02 bc 95 ad 4d 3d 73 ab 66 bd
       0.0492065 -0.007966728 0.05021437 -0.05631585
000350 b4 f6 a8 bd 93 5c 91 bc 39 d5 1b 3d 91 51 be bd
       -0.0825018 -0.017744338 0.03804514 -0.09292901
000360 b0 65 39 bc f3 a6 e8 3d a5 13 af bd 05 3b 64 3d
       -0.011315748 0.11359968 -0.08548669 0.055720348
000370 4a 3c 5b bd f7 d0 20 3b 43 62 55 3d ef 39 f4 bd
       -0.053524293 0.0024538615 0.052095663 -0.119251125
000380 57 c7 da bc e4 d7 97 3d c6 9d 1c bd 6c c2 7c 3d
       -0.02670638 0.07414225 -0.038236402 0.061708853
000390 4f 63 a0 bd f1 27 4d 3d 53 f2 b7 3d d4 bc 28 3d
       -0.078314416 0.05008692 0.089817666 0.041195706
0003a0 51 ae 85 3d 8b 21 23 bb 58 36 4f 3d 25 85 fa 3c
       0.06527389 -0.002489182 0.050588936 0.030581066
0003b0 38 27 dd 3c 51 e9 49 bd b8 80 bb 3d b5 14 0e 3c
       0.02699624 -0.049294773 0.091554105 0.008671929
0003c0 4d 7c c6 3d ce 58 87 3c 00 71 5d 3c 3f d8 95 3d
       0.09691677 0.016521838 0.013515711 0.07316636
0003d0 44 56 41 3d 3c b0 2a 3c b4 65 5a 3d 32 de e4 bb
       0.04720141 0.010417994 0.053319648 -0.0069844956
0003e0 09 f1 88 3d da 83 1b 3d de 59 9f bd cb 1d cb 3d
       0.06686599 0.03796754 -0.07780813 0.09917792
0003f0 3e 1b 69 bd 67 9f 08 bd cd a3 92 3d 5f b3 49 bd
       -0.056910746 -0.033355143 0.07160149 -0.049243327
