production/TDC/nr-ar-lbd/checkpoint/state_dict.pt (torch, 201018 bytes, 49 tensors)

lin1.weight f4 [128, 27]
00000000: f61c 6f3d 16d8 343e bb54 043e 3867 fabd
00000010: d797 e6bd 5061 38be 617f f2bd cd1f 43bb
00000020: 774a c93c 53f3 b3bd aad8 ef3c 8200 643d
00000030: 9d6c 033d 8256 0ebe 7ae7 103e 38f5 86bc
00000040: 5edd 143c be50 30be 0051 123e b7d6 50bd
00000050: 373d 87bd b72c fdbc 5908 fc3d 4077 98bd
00000060: 0620 7bbd 34e4 b7bd d24d fbbd 5a68 ed3d
00000070: 78a0 1c3e 029f 823d 20f0 ce3c b03b 6cbd
00000080: 674c ffbd 4654 8d3d 5067 18be 7ce6 7fbd
00000090: f7be 03bd 48e4 76be 047e 553e 53f2 dbbd
000000a0: 44eb 9cbc f22f 3f3e be50 d43d 513a fbbd
000000b0: b5e7 16be 6df7 613c 146c 0dbd b945 18be
000000c0: b8ee e4bd 4244 3cbe c4a6 a23c 81e8 e6bc
000000d0: 89c8 b3bc bcc4 c7bd 3481 c23d 05fa fe3d
000000e0: 9507 263e 9836 f93d 112d 213e d2dc 75bd
000000f0: facc 833d 0fac ed3d 7b32 163e fc1a b2bc
00000100: 281f fabd cde1 acbd b4ec 083e 99b4 16be
00000110: 9ffc 0a3d 7e03 85bc ad0e 973d bd8c 143d
00000120: c606 323e f633 9ebd bd03 34bc f588 3e3e
00000130: 4339 31be 1134 aa3d 4b51 16be 495b 123e
00000140: 776a bd3d 17ff 14be b9d8 87bd 07ba 0a3e
00000150: 7021 b3bd 1a70 acbd 899a c73c 275b 483c
00000160: 4b81 92bd 0b8b c3bd d8f9 5dbe 0839 093e
00000170: cb43 563e 493d 02be 38e2 a3bd ebd1 423d
00000180: 3840 633d 269f f43d b26d 84be 1b98 54bd
00000190: 0aee 583d 2ffd 143e 4b1f a03d 4a3d 26be
000001a0: 2cdd 78bd 4d19 ab3d a1cc 62bd 7998 0cbe
000001b0: 2c23 2fbd 8146 d2bb 223b 1fbd bc54 4e3e
000001c0: 02e5 55be 34ae a9bc 550c 11be 6cfe 923d
000001d0: 8c96 36bd 8742 55be 0f73 1c3e 4fcc ccbd
000001e0: 12bd 003e fa8a 8bbd 6d77 cc3d 6e7f 0c3e
000001f0: 7b47 1b3e d580 70bd cf6b 2f3e c937 3ebe
00000200: 8eea 123e 0c9c e03c 2dc8 3bbe 9632 063e
00000210: 98ec c1bc eb96 b3bd 7dd9 dc3c 755b e4bd
00000220: e4bf 653e b349 3cbe 9221 20be f89c 98bd
00000230: 62c0 ccbd 904c 613e 68c3 4fbd b9b3 d53d
00000240: a111 363e cccd 093d 2f13 72be 253f 083e
00000250: 3cd8 93bd c541 75bd 5ec1 2a3e 674c fc3d
00000260: af43 0fbd 763a b03d 6fdb be3b 67ea 66bd
00000270: ac1d 58bd d7cd babd 0cbe e7bc 6731 54bd
00000280: 92d0 6cbd 0502 23be f05e 8dbd 6568 3b3e
00000290: 2448 b0bc 8ded ab3d b79a 51be dd03 d6bc
000002a0: 4335 173d c674 f43d 9ff9 d63d b083 25bc
000002b0: da01 333e 1c95 4bbe 9741 ab3d f535 b5bd
000002c0: a64e cdbc a300 18bd a98d 32be 22e7 ce3c
000002d0: a71b b7bd c50b 21be 98dd 20bd 6a98 24be
000002e0: 321c 16bd 6ee7 1d3d 8ccc f93c 12b5 e6bd
000002f0: 3a15 fabd 9c74 3bbd fded 3dbc 7e35 f1bd
00000300: ced0 a63d 7169 9abd 3518 ad3d 28e3 2b3e
00000310: 3e2b 85bd 6659 713e 822d f0bc 1f03 b9bd
00000320: 969b a2bc b4e6 233e 5f9d 16bb 2b4d 84bd
00000330: ac2d 11be 7107 a33d 6d25 f93d dd8d 163e
00000340: f876 d23d a8e6 b43a d6f3 e5bc d303 043e
00000350: 8637 07be 0926 20be 91e1 4a3c 365f fcbd
00000360: 0669 393d be3d 24be b207 3d3e ab9f 0fbe
00000370: 5a06 1f3e 296a 59be 8fd9 05be 39ba 56be
00000380: 4e03 8ebd 6c43 083e 5979 ae3d 1621 c2bc
00000390: 838d 403e eaaa c1bd 0425 20be c493 a1bd
000003a0: 9faf 24bc f7e4 933d 2c29 25be 7a85 e8bd
000003b0: 27b3 2dbd 93a8 383e cb45 1d3e f7c3 78bd
000003c0: 61f0 2ebe 70c2 18bc 6103 6e3d f925 a63d
000003d0: f13e 3abd 587a a8bd 8c30 7fbc 0810 fd3d
000003e0: f48a 283e 6f27 2abd 28e9 12be ff6d 0dbe
000003f0: bfae 003e a9bf b4bd 2684 76bc 9700 c73d
0.05837723 0.17660555 0.12922947 -0.12226719 -0.1125943 -0.18005872 -0.11840702 -0.0029773593
0.02457164 -0.08786645 0.029278118 0.055664547 0.032086004 -0.13900188 0.14150801 -0.016474351
0.009085981 -0.172183 0.14288712 -0.050986018 -0.06603473 -0.03090511 0.1230628 -0.0744462
-0.061309837 -0.08979073 -0.122707024 0.11592169 0.15295589 0.063779846 0.025260985 -0.05767411
-0.124657445 0.069008395 -0.1488316 -0.062475666 -0.03216454 -0.2411052 0.20848852 -0.10739579
-0.019155152 0.18670633 0.10366963 -0.12266982 -0.14736827 0.013791901 -0.0345269 -0.14870347
-0.111783445 -0.18385413 0.01985491 -0.028187038 -0.021946209 -0.09754321 0.094973 0.12450031
0.1621383 0.12168616 0.15739848 -0.060025044 0.064355806 0.11605083 0.14667694 -0.021741383
-0.12212974 -0.084415056 0.13371545 -0.1471733 0.033932324 -0.016237017 0.07375846 0.03626703
0.17385396 -0.077247545 -0.010987219 0.18606932 -0.17307 0.08310712 -0.14679448 0.14292635
0.09248822 -0.14550434 -0.066331334 0.13547526 -0.08746612 -0.08419819 0.02436568 0.012228764
-0.07153567 -0.09548005 -0.21677339 0.13400662 0.20924298 -0.12718691 -0.08002132 0.047563475
0.055481166 0.11944418 -0.2586494 -0.05190287 0.052961387 0.14549707 0.07818469 -0.16234317
-0.0607578 0.08354435 -0.05537093 -0.13730039 -0.042758152 -0.006417096 -0.038874753 0.20149511
-0.20888141 -0.02071295 -0.1416486 0.07177433 -0.044577166 -0.2082616 0.15278266 -0.09999906
0.12572125 -0.06813617 0.09983716 0.13720486 0.15163986 -0.058716614 0.1713097 -0.18575968
0.14347288 0.027418159 -0.1833808 0.13105235 -0.023672387 -0.0876902 0.026959175 -0.111502565
0.22436482 -0.18387489 -0.15637806 -0.074518144 -0.099976316 0.22001863 -0.050723463 0.1043467
0.17780162 0.03364353 -0.2364013 0.13305338 -0.07218978 -0.059877176 0.16675326 0.1231926
-0.034976657 0.086049005 0.0058244984 -0.056375887 -0.052762672 -0.09121292 -0.028288864 -0.051804926
-0.057816096 -0.15918739 -0.069028735 0.18301542 -0.021518774 0.083949186 -0.20469175 -0.026124889
0.03691603 0.11936335 0.1049683 -0.0101021975 0.17481175 -0.198811 0.0836212 -0.08848182
-0.025061917 -0.037109982 -0.17436852 0.025256697 -0.08940821 -0.15727146 -0.03927383 -0.16073766
-0.036647983 0.038550787 0.030493043 -0.11265005 -0.1221108 -0.045765504 -0.011592385 -0.11777781
0.08145295 -0.075396426 0.08451883 0.16785872 -0.065023884 0.23569259 -0.029318575 -0.090337984
-0.01984958 0.16005975 -0.0022981984 -0.06460031 -0.14177579 0.07960404 0.121653415 0.14702554
0.10276598 0.0013801651 -0.028070372 0.12892084 -0.13204774 -0.1563951 0.012382881 -0.123228475
0.045266174 -0.16039178 0.18459967 -0.14025752 0.15529767 -0.21231903 -0.13071273 -0.20969476
-0.06934224 0.1330697 0.08519239 -0.023697417 0.18803982 -0.094564274 -0.1563912 -0.07889512
-0.010051637 0.07221406 -0.16128987 -0.11353584 -0.04240718 0.18033056 0.15358655 -0.06073376
-0.17083885 -0.009323701 0.05810869 0.081127115 -0.04547018 -0.0822646 -0.015575539 0.12356573
0.16459256 -0.041541513 -0.14346755 -0.13811491 0.1256666 -0.08825619 -0.015046155 0.097169094

lin1.bias f4 [128]
00000000: 9ca4 58bd f9af 31be f219 033e 11a2 9a3d
00000010: 62d4 bbbd 99b7 983d ef9d 9abd dfed a23c
00000020: 7fa2 8bbd 856a d8bd 131a 9b3d 3a8a ffbd
00000030: b084 a33d e438 ed3d 78d1 f2bd 8931 5bbe
00000040: 76cb 53bc 46e9 06be 5dc1 993d 3c72 963d
00000050: f1dc 46be e53d 4f3d a8ed 4bbd 267c b8bd
00000060: 9584 28be 176d 12be 3e36 5a3e 38cf 183e
00000070: 0a41 35be 3971 ce3d 2398 cf3c 2198 8e3d
00000080: 14e0 5ebe d570 a2bc d883 1a3e 4798 253e
00000090: 198b c4bc ca67 32bd 9ccb ea3c 70f1 0dbe
000000a0: 6ddb 343e d6b5 48be e078 e33d f651 05be
000000b0: 9b95 0bbe f9d5 ba3d f3f6 2c3d a4a1 ea3d
000000c0: e39e 233e a7d6 213e 0964 303c 45ea 47bb
000000d0: 35aa 24be 985f 413d bceb e13d b7fd 493e
000000e0: 888f 20be 6181 1fbc 0500 03be 69c5 443e
000000f0: 7265 c0bd da3b 0c3e 89b5 1fbe 98ff 77bd
00000100: 492d f1bc 3cf0 a53c fad5 7b3d a90f 093e
00000110: 9da1 a6bd 1832 1fbe 108d 8abc 1461 053d
00000120: d935 bb3c 2f15 fe3d aef7 bd3d f355 93bd
00000130: 863a 4b3d b90e 63be 3074 fd3d a87d f33d
00000140: fceb 51bd 656e ea3b d766 323e 61f9 493d
00000150: e38f b4bc 5b6c b43d 7f8e 593d c936 b53d
00000160: 1efe b23c 67ee 433e e9b5 77bd 5a13 133e
00000170: 08b7 3c3e fb29 6dbd 6c6d 07be 5cda 81bd
00000180: 4bd3 1b3e d5b9 13bd 1a71 0c3d bd08 fbbd
00000190: b9c0 17be f368 2f3e 4a77 213e b866 9cbd
000001a0: a1f6 56bc 3bae 44bd ae34 9fbc 691c fbbd
000001b0: 12fd 61bd ea15 3a3c 5660 1a3e 2ce1 c5bd
000001c0: 5702 693d 1560 b6bd a864 debd d103 2b3d
000001d0: 73b4 403d 8bbc a43d bf05 41be 142b 5dbe
000001e0: 9f31 04bd f8e5 833d e010 253e 9b1f 5bbd
000001f0: f3ed 49be 6297 cb3d 7b9b 24be 2b52 033e
-0.05289136 -0.17352284 0.12802866 0.07550443 -0.09171368 0.074568935 -0.07549655 0.019888816
-0.06818103 -0.10567192 0.07573333 -0.124775365 0.079842925 0.11583117 -0.11856359 -0.21405615
-0.012926927 -0.13174924 0.07507584 0.07346007 -0.1942022 0.050596137 -0.049787194 -0.090080544
-0.16456826 -0.14299427 0.21309754 0.14922798 -0.17700592 0.10080189 0.0253411 0.0696261
-0.21765167 -0.019829193 0.15089357 0.1617137 -0.023992108 -0.043556012 0.028661542 -0.13861632
0.1766183 -0.19600615 0.111070395 -0.13019547 -0.13631289 0.09122843 0.042227697 0.11456612
0.15978579 0.1580454 0.010766038 -0.0030504626 -0.16080554 0.047210306 0.11031291 0.19725691
-0.15679753 -0.009735436 -0.12792976 0.19215931 -0.09394349 0.13694707 -0.15596594 -0.060546488
-0.029440539 0.020256154 0.06148336 0.1338488 -0.08136294 -0.15546453 -0.016912967 0.032563284
0.022852825 0.12406384 0.09275757 -0.07194128 0.04961636 -0.22173585 0.12375677 0.118892014
-0.051250443 0.0071542733 0.17422043 0.049310092 -0.022041267 0.0880973 0.05311441 0.0884834
0.021849688 0.19133912 -0.060476217 0.14362851 0.18429196 -0.057901364 -0.13225335 -0.06340477
0.1521732 -0.036065895 0.03428755 -0.12257526 -0.14819612 0.17129879 0.15768161 -0.076367795
-0.013120324 -0.04801772 -0.0194343 -0.12261278 -0.055172987 0.011357764 0.15075812 -0.09662089
0.056886997 -0.08905045 -0.108590424 0.041751686 0.04704709 0.08043774 -0.18849848 -0.21598464
-0.032273885 0.064403474 0.16119719 -0.05349694 -0.19719677 0.09940983 -0.16074936 0.12824313

norm1.weight f4 [128]
00000000: 51f0 823f 8020 7e3f 696c 823f eee6 7f3f
00000010: ca14 753f f185 7b3f b9dc 6c3f f344 8a3f
00000020: 0504 813f 1512 713f 4530 883f c79c 813f
00000030: f602 7a3f b30c 793f 5ab6 7e3f c59f 793f
00000040: c027 7b3f 4c5b 753f f4a9 6e3f 3e44 753f
00000050: 93e8 7b3f 9573 6c3f 2e46 763f 9b2b 863f
00000060: 7988 803f eb09 763f 6986 763f 6803 8b3f
00000070: ccb1 833f db9a 6d3f 613d 823f 7547 823f
00000080: ccf1 7b3f 8829 733f a982 7e3f 9932 803f
00000090: e224 753f 47ae 773f 1d9b 7d3f b886 833f
000000a0: b616 7a3f 22f2 7b3f 28f0 803f a802 803f
000000b0: f9a1 863f 4eda 753f dd86 823f d828 7b3f
000000c0: e34f 833f 1522 823f cf08 833f 3122 813f
000000d0: 1538 813f 435b 7a3f f1bf 6c3f 85e0 863f
000000e0: 2568 743f a014 803f f688 823f d8b3 833f
000000f0: 3b34 7d3f 6425 813f ff43 7b3f 8823 7e3f
00000100: 49d3 803f e795 7e3f 8477 7a3f d3f2 813f
00000110: f04f 7e3f 6f27 823f 4f27 743f 983c 793f
00000120: a412 843f d113 853f e656 7c3f 5cef 7d3f
00000130: 5edf 733f f0c6 783f 92e4 7a3f 3c08 833f
00000140: 39c7 833f 6afc 7c3f 9e4c 853f c329 803f
00000150: 7649 793f 0e2c 763f 8f02 7d3f 1833 7a3f
00000160: 181c 6f3f f6c6 813f aee9 7d3f 56cb 753f
00000170: bd79 823f 6059 7d3f 028a 833f 7329 7d3f
00000180: eb45 823f 603d 673f 9314 733f 817a 773f
00000190: b23c 793f 7002 793f 80f9 6e3f b288 7b3f
000001a0: cf17 7c3f 6d72 853f f511 803f 9d7a 7f3f
000001b0: bb7a 7e3f 9e69 723f 29ea 8a3f a46f 7e3f
000001c0: c851 7a3f 0545 7c3f 8986 7a3f 4ad1 7e3f
000001d0: 97e2 763f d124 763f 7be0 8d3f 894e 7f3f
000001e0: 3e0c 7c3f f1c7 7e3f b82a 803f 4df4 823f
000001f0: 1569 843f 7efc 733f c981 763f aaf0 793f
1.0229589 0.9926834 1.0189334 0.99961746 0.95734847 0.98251253 0.92524296 1.0802292
1.0079352 0.94168216 1.0639731 1.012597 0.9766077 0.97285 0.99496996 0.97509414
0.9810753 0.9584243 0.9322808 0.95807254 0.98401755 0.92363864 0.96200836 1.0482057
1.0041648 0.96108884 0.96298844 1.0860415 1.0288634 0.92814416 1.0174981 1.0178057
0.9841583 0.94985247 0.9941812 1.0015441 0.95759404 0.967503 0.9906481 1.0275488
0.97690904 0.9841634 1.007329 1.0000811 1.051818 0.9603623 1.0197407 0.981092
1.0258754 1.0166651 1.0237063 1.0088559 1.009524 0.97795504 0.9248038 1.0537268
0.9547141 1.0006294 1.0198047 1.0289259 0.9890782 1.0089536 0.9815063 0.99272966
1.0064479 0.9944748 0.97838616 1.0152229 0.99340725 1.0168284 0.9537248 0.97358084
1.0318189 1.0396672 0.98570096 0.9919336 0.95262706 0.97178555 0.9800502 1.0236888
1.0295173 0.98822653 1.0414007 1.0012745 0.9737772 0.9616097 0.9883203 0.9773421
0.9340224 1.0138843 0.9918469 0.9601339 1.0193402 0.989645 1.0276492 0.9889137
1.0177587 0.90328026 0.9495327 0.966713 0.9735824 0.97269344 0.93349457 0.98255455
0.9847383 1.0425545 1.000548 0.9979647 0.9940602 0.9469241 1.085271 0.993891
0.9778104 0.98542815 0.97861534 0.995381 0.964395 0.9614993 1.1084131 0.9972921
0.9845618 0.99523836 1.0013037 1.0230805 1.0344568 0.9530715 0.96291786 0.9763285

norm1.bias f4 [128]
00000000: 11e3 cf3c 6652 cc3b 2268 52bc 0396 033d
00000010: f0ad 2ebd b6af 25bc b2c0 c0bd 64e3 ffbc
00000020: e504 af37 1479 d4bc f80b 943d b49b 3f3d
00000030: 2b5c 473b b30a 0bbd c67b 4dbb 7013 4aba
00000040: 284c 0ebd 71bb 9fbc d54c 18bd 34d8 c6bc
00000050: bb3a 6ebd a5ce 0abd f38a 56bd 3392 2c3c
00000060: a3f2 223c 7cf3 673c c163 4bbc 9a6b c8ba
00000070: abdc 23bc 186e 6abd 277b a9bc 50da efba
00000080: 4153 3ebc 8608 81bb 82e3 f9ba a8a0 c639
00000090: 0b9e b7bc 3b7d febc 3a1a 973c bbc4 dfbc
000000a0: beba cfbc 1bb8 00bd 79f9 8bbc 9f95 48bd
000000b0: 8875 343d 4959 cdbc 2c17 7dbb c43f bc3b
000000c0: 9646 20bd 7046 4bbc 0e25 6abb 509e 293c
000000d0: faf2 8d3c 7923 acbb 87de 93bd cba6 96bd
000000e0: 3f54 8dbd a1cb 9e3c dbb9 87bc d26f 86bd
000000f0: a78c e3bc 08b2 033c 8650 91bd 31a1 c7bc
00000100: 0c32 3abd ab13 15bc c3da 0dbd 4d8f d7bc
00000110: c85d 6ebd eacb 2ebc 6a72 95bc 1f15 f3bc
00000120: 66e4 16bd 87d1 b43c 1f65 0bbc f7f6 42bd
00000130: 4210 93bc 9678 48bd 82ec 2ebd 1d43 333c
00000140: b8d4 54bb c1c7 16bd 6a3f 63bc 6ce2 c2bb
00000150: b4fb 6bbc c281 99bc b9df 453c c4a3 50bd
00000160: 8460 7cbd cb60 cabc f3a9 6e3c 2cf1 8cbd
00000170: 8637 4dbc f80c 43bd d8d3 b73c fbde 0abd
00000180: 1107 e6bb 8925 cbbd db1d 89bb 1a9b cabc
00000190: 81e9 393c 11dc e3bc 0bd5 3abd b908 0bbc
000001a0: cca6 d4bc 6e49 353d 1ffa cebc b98e 27bd
000001b0: efc2 18bd af45 24bd 568f 1a3d 805b c3bc
000001c0: 0156 41bd 03a0 a5bc feb3 3ebd 838e 083c
000001d0: 09ed 42bd 18be 28bd 0477 7f3d 8806 bebb
000001e0: 09f4 29bc 88b9 6bbd d67f d3bc d3ab a73c
000001f0: a76e 1c3d cc2c 67bd b57b 89bc 63ab e9bc
0.025376828 0.0062354086 -0.01284221 0.032125484 -0.04264635 -0.0101126935 -0.09411754 -0.031236358
2.0863905e-05 -0.02593664 0.07228845 0.04677935 0.0030419927 -0.03394575 -0.0031354292 -0.0007708585
-0.034740597 -0.019498559 -0.037182648 -0.024273016 -0.05816148 -0.033888478 -0.052378606 0.0105329035
0.009945544 0.014157172 -0.01241392 -0.0015290857 -0.010001342 -0.0572339 -0.020688606 -0.0018299315
-0.011616529 -0.0039377837 -0.0019064995 0.000378852 -0.022414228 -0.031065574 0.018445123 -0.027315488
-0.0253576 -0.031425577 -0.017086731 -0.048970815 0.0440574 -0.025066989 -0.0038618548 0.005744906
-0.039129816 -0.01240693 -0.0035727653 0.010352686 0.017327774 -0.005253252 -0.07220178 -0.07356032
-0.06900834 0.019384207 -0.016568115 -0.06564297 -0.02777703 0.008038051 -0.07095437 -0.024368854
-0.045457885 -0.0090989275 -0.034632456 -0.026313448 -0.058194906 -0.010668734 -0.018243033 -0.029673157
-0.03683891 0.022072567 -0.008507996 -0.047598805 -0.017952088 -0.048943125 -0.04270602 0.010941294
-0.0032475423 -0.036811594 -0.0138701 -0.0059474017 -0.014403272 -0.018738631 0.012077265 -0.05093743
-0.061615482 -0.024704358 0.014566886 -0.068819374 -0.012525445 -0.04761979 0.022439882 -0.033904057
-0.0070198854 -0.09919269 -0.0041844673 -0.024732161 0.011347176 -0.027814897 -0.04561333 -0.008485966
-0.025958441 0.04425948 -0.025265751 -0.040907595 -0.03729528 -0.040105518 0.037734352 -0.023847342
-0.04720116 -0.020217901 -0.046558373 0.008334759 -0.047589336 -0.041196913 0.06236936 -0.0057991184
-0.010373124 -0.057549983 -0.025817793 0.020467674 0.038191464 -0.056439206 -0.01678262 -0.028524106

norm1.running_mean f4 [128]
00000000: ab50 483d 9d74 41bc ef9f 9b3e 6f88 113c
00000010: 3002 88bc d225 0d3e 9e64 dbbd 4ac9 413d
00000020: 82d9 c8be 7258 dfbd a225 ae3e 9c27 e03d
00000030: 58e3 7c3e 9d82 3d3e f08d 49be b9b0 0f3d
00000040: 6d42 2abe 6efb 243e 1175 0ebe f7ec 0a3e
00000050: f13b 1bbe 6cde 813e ed4a 80be 0fb0 60be
00000060: 27e6 373d bd38 b2bd 3734 c63b 7a08 223d
00000070: 36aa f8bd 9923 283e 2aab a23d 0b95 9e3d
00000080: dc01 26be 8ccf d2bc 0e04 fe3e e85d 0d3d
00000090: 108a 6abe c083 2dbc 9af7 c53d fb17 063e
000000a0: fcdf 863e 0937 89be 91af d03d 02ac d6bd
000000b0: 0b92 5ebe 20ef 75be d0a8 69be 892a aa3e
000000c0: 7959 3f3d ad3a a53c c2db f5bd 4b4c 51bc
000000d0: 08b6 80bd 207e 0fbe be82 b83d e80a 803e
000000e0: ca7e 063e 73b5 a13e 3fe3 9b3d 1934 b7bc
000000f0: 8068 afbd 604f e03d 66b4 1dbe b8e9 8cbe
00000100: f110 863d fa52 053e bef0 60be 66fc a63d
00000110: 3e47 0dbe 34c3 7dbe d8ec cfba d71e 1e3e
00000120: 64d5 72be f909 1a3e 4f3d 2abe eb2e 77be
00000130: eaa3 96bd a489 c4bd da4d e13d e92a 123d
00000140: a568 b3be 5099 babc 3317 a63e 60b1 0dbe
00000150: 6b8e 373e 0cb9 d83d ab93 da3e 41e2 3a3e
00000160: b97a 83bd ac71 a73e 4135 b43d aa1f 0e3e
00000170: 0270 80bc c599 6cbd 912d 0cbf ee0a 783d
00000180: 2517 7a3e f0a5 583e ab07 023f 36c5 02be
00000190: 1855 fe3d 26b4 2abe 30eb 453d 4532 dcbc
000001a0: 2233 3f3c fead 0abc 9f26 01be 830c 18be
000001b0: 7a3a eebd 3996 2abd 757d 953c 3ccc d3bc
000001c0: d69e ce3c 09d8 0fbf 03fe cfbd 74f3 18bd
000001d0: 5445 82be fa57 bcbc c4be 64be 9c83 cabd
000001e0: 7349 06bd 1c0b 773e 5d2f 273e 5ecd 2abe
000001f0: 6664 05be a714 3d3e 93fd 2ebd c044 3f3e
0.048905056 -0.011807588 0.30395457 0.008882626 -0.016602606 0.13783959 -0.107125506 0.047311105
-0.39228445 -0.109055415 0.34013087 0.10945055 0.246961 0.18506856 -0.19683051 0.035080645
-0.16626902 0.16111538 -0.13911845 0.13566957 -0.15159585 0.25365007 -0.25057164 -0.21942161
0.044897225 -0.08702228 0.006048705 0.039558865 -0.1214184 0.1641983 0.07942803 0.077432714
-0.16211647 -0.025733732 0.49612468 0.034513384 -0.22904229 -0.010590494 0.09666367 0.13095085
0.26342762 -0.267998 0.10189737 -0.10482027 -0.21735398 -0.24017 -0.22818303 0.33235577
0.046716187 0.02016958 -0.12004806 -0.012774537 -0.0628472 -0.14012957 0.09009312 0.2500832
0.13134304 0.31583747 0.07611703 -0.02236371 -0.08564854 0.109526396 -0.15400848 -0.27522063
0.065462 0.13019934 -0.21966836 0.0815361 -0.13796708 -0.24781495 -0.0015863432 0.15441452
-0.23714215 0.15042867 -0.1662495 -0.24138992 -0.07355483 -0.09596565 0.11001177 0.035685454
-0.35040775 -0.022778183 0.32439575 -0.13837194 0.17925422 0.1058217 0.42690787 0.18250372
-0.06419892 0.32703912 0.0879922 0.13879266 -0.01567841 -0.057763834 -0.5475703 0.0605573
0.24422891 0.2115705 0.5079295 -0.12770543 0.12418574 -0.16670284 0.048319995 -0.02687944
0.011669906 -0.0084643345 -0.12612389 -0.14848523 -0.11632247 -0.04164717 0.0182483 -0.025854222
0.025222223 -0.5618902 -0.10155871 -0.03734155 -0.25443518 -0.02299117 -0.22338396 -0.09888384
-0.03278489 0.24125332 0.16326661 -0.16679904 -0.1302658 0.1846491 -0.042722296 0.1867857

norm1.running_var f4 [128]
00000000: 0768 e03c 0554 b53c de8c e63c faa7 be3c
00000010: 0d7d 563d ac13 903d 84d9 003d edbe 5c3c
00000020: 27d2 d03c ebe9 283d b5fb ca3c 144d 803c
00000030: 07cc a93c 9595 813c 2fca 123d b5c1 a63d
00000040: 8baf 283d 217d ab3c 7566 9f3c 331e 203d
00000050: 87f8 b93c faee 393d f562 3a3d 1e66 163d
00000060: edf9 713c 54c9 303d bccb 8e3c a415 f13c
00000070: bed6 8c3c 3d6f 013c f4d7 ab3c 5dbe d13c
00000080: 8d63 063d 25a0 1e3d fe23 263d 5e43 c83c
00000090: a15a bb3c 62d0 3b3d 3254 c73c 7da2 023d
000000a0: 5ff5 d13c 38cd 053d fff1 cb3c 26f5 723c
000000b0: 4ced 6c3c 55ef 243c 173c 803c a756 d33c
000000c0: 0f1c 613d 7629 9c3c f675 1e3c b4ad 4c3c
000000d0: 587e 803c f56b df3c 7f8b 513d 98d4 393c
000000e0: ef11 733c fa7f dc3c 043b a83c 4259 f53c
000000f0: e675 093d 050f a03c 62d4 133d 4752 9a3c
00000100: 5c55 fb3c b22c 8f3d d572 a13c 21f7 e93b
00000110: 3834 763c 6927 273c d960 563d a216 ac3d
00000120: fb07 603d c967 003d f804 443c 59e5 ef3c
00000130: cd1a 863d a3de 753d 23e8 fc3c c9df a33c
00000140: e73b 6b3c f5ed f33c eac0 893c 51ff 4b3c
00000150: b6ac 083d 0c0a 053e 9813 333d 9794 d23c
00000160: 22e7 413d 1b8a 263c 51db 833c 40e9 723c
00000170: 7831 dd3c 4a66 353c 461c 083c c664 d43c
00000180: 99d8 113d 34a5 f03c c5cd a23c 3188 463d
00000190: 327f 393c b82d ca3c 8d13 df3c 9e22 e43c
000001a0: 8f84 d53c b84a 263d dcb4 0c3d 69c3 023d
000001b0: 93c2 733d a989 953c c759 b43b d69d c23c
000001c0: e8ea d33c 6ae8 303d 755b 0f3d dde2 133d
000001d0: 72ab 913c 1c6d b83c 1cca 2c3c df21 753c
000001e0: 0505 633c 9171 873c 2619 803c caf7 0c3c
000001f0: 0820 c03c 9582 a73d f0a7 5e3d 734a 923c
0.027393354 0.02213479 0.028143343 0.023273457 0.05236535 0.07035002 0.03145744 0.013473255
0.025490833 0.041238707 0.024778226 0.015661754 0.02072717 0.015818397 0.03583735 0.081424154
0.041183036 0.02093369 0.019458035 0.0390913 0.022701515 0.04539392 0.04550453 0.03671848
0.01476906 0.04316075 0.017431132 0.029429264 0.01719224 0.007900056 0.020976998 0.025603468
0.032809783 0.038726944 0.04056167 0.024446186 0.022870364 0.045853026 0.02433214 0.031893242
0.025629697 0.032666415 0.024895666 0.014828956 0.014460873 0.010066827 0.015653653 0.025798155
0.0549584 0.019062739 0.009671679 0.012492586 0.015685245 0.027273158 0.051158424 0.01134219
0.014835819 0.026916493 0.020535953 0.029949788 0.033559702 0.019538412 0.036091216 0.018838061
0.030680351 0.06990947 0.019708076 0.0071400558 0.015027098 0.010202267 0.052338455 0.08402754
0.05469511 0.031348977 0.011964075 0.029284166 0.065480806 0.060026776 0.03087241 0.02000417
0.014357544 0.029776553 0.016815621 0.012451009 0.033367835 0.12992114 0.043719858 0.025705619
0.047339566 0.010164763 0.01609579 0.014826119 0.027001128 0.011071751 0.008307522 0.025926959
0.035606954 0.02937565 0.01987351 0.048469726 0.01132183 0.024680004 0.027231002 0.027848538
0.026064185 0.0405986 0.03435217 0.03192464 0.059511732 0.018254118 0.0055038664 0.023756903
0.025868848 0.043190397 0.03499933 0.036105026 0.017781947 0.022512965 0.0105462335 0.014961689
0.013856177 0.016533645 0.015636992 0.008603999 0.023452774 0.081792034 0.054359376 0.017857766

convs.0.bases_weight f4 [128, 8]
00000000: 65e3 5fbd b90a 123e 4156 22be 29b8 b9bc
00000010: cb33 12be e233 3dbe d2cf 41be 7e10 b33d
00000020: 587f c83d 0491 d63d cdb7 df3d 5fb9 013d
00000030: ec29 263d 0a12 34be a172 d73d 2515 133e
00000040: fb24 2cbe fda2 093e 9514 283e 6b7b 61bd
00000050: 5d31 acbd ae91 8abb 18cb ecbd b4c6 4abd
00000060: 390f 48be 1f56 243d 4c94 283e 6fe5 313e
00000070: 86cd 2d3e 2278 9f39 316c 26be 39f8 433e
00000080: 3d9a e4bd 0a62 263d 6728 95bb 11c5 96bd
00000090: 303a 42bd 37d3 26be e1f4 e53d 4ab0 8a3c
000000a0: 8f90 1f3e ef65 82bd 88bb 0dbe 2328 4d3e
000000b0: 4132 32bd ed42 92bd 35ff 223e f29e d7bd
000000c0: 5f33 3cbe 8a10 59bd d910 28be 24be 05be
000000d0: 953b 8dbc 4199 3a3e 6cfb dfbd c837 1a3e
000000e0: 154f 9a3d fa29 9b3d b227 6d3e 0fbc 073e
000000f0: a393 3dbe 7633 67bc 70a9 193c 8447 8b3c
00000100: bff0 58be 0326 0d3e 05fe 3e3d 13d7 ef3d
00000110: 4ad9 013d 057a 79bd 3302 a1bd 51e8 cb3d
00000120: 6dc4 113e 6dde a1bd e7a7 473e d95a edbd
00000130: cb06 133c bd4f ba3d 4690 fbbc 20af c2bc
00000140: 5a76 503e 72ca 21be 4d5c d63d 1fad 8ebd
00000150: d8b1 873d 19a7 67be 5fc5 cdbd 5112 663e
00000160: 9d37 9e3d bfba 08be 3a75 333e 17a0 ac3d
00000170: 91e5 dabc e65d af3c d574 483e 59cb 3b3e
00000180: 3e2c 79bc 7589 80bd 97e3 34be ee56 63bd
00000190: 4b0a 153e 292d 683d bccd 293e 34b9 2abe
000001a0: 8891 923d f789 2cbe 04ac 8dbd 1cae 893c
000001b0: d86d 0fbe 98dd 563e 4af5 dfbd b8ba 10be
000001c0: 0bb9 f0bd 1232 22be 74bd e5bd 7ea6 66bb
000001d0: 6068 803d 8da2 1abe 97a9 45be aed3 14bc
000001e0: 723e 92bd 1a4f cbbc 6131 093d 2542 103e
000001f0: d5c5 33be 5301 023e 32b1 1abe d155 00be
00000200: 2e4d 503d 01d0 24be 8410 6fbe a13e 3f3d
00000210: 1d6f 2cbe 2a0e 683e ca7d f73d 6a88 c6bd
00000220: 1d24 713d 4ffc 4bbd bd84 1d3e 5992 56be
00000230: 0803 a7bd 6d01 48be 3228 ec3d d054 cf3d
00000240: 4974 013e edd1 cb3d 04ea f6bd e29f 99bd
00000250: 6fd4 43be fffc 0abe a487 3dbd 8656 fd3d
00000260: 978b c43d a56d 5bbe 6d18 763c a4da a6bd
00000270: b820 00be eac2 763e f785 323d 6660 0a3d
00000280: 3fd7 ddbd f407 94bd 21b7 55be fbc9 1b3e
00000290: f842 0cbe a92b 1abe 56c4 353c 5870 b8bd
000002a0: cc2d 343d bd3f 56be 35f6 33be 334a 37bd
000002b0: 8f35 693c 593b 1e3e ed65 1c3e e2fb c93d
000002c0: 27b6 2d3e dc15 66bd 39ea ba3d 4d82 8cbd
000002d0: 9f4e 803e a566 2a3e 29d0 d73d 2f67 1bbe
000002e0: 8e52 2fbe 5e5d aebb 7274 df3d ed96 913e
000002f0: 448b 303e 5450 193e 1a6b 01bb 4847 10be
00000300: 8148 8e3d 7d45 26be d10f e5bd aa00 4d3e
00000310: 5c12 8fbd 8ec4 803d aea6 113e 48ca e7bd
00000320: 97a9 51be f996 4d3e 01af 4a3e f3d6 e93d
00000330: 5456 20be 8e31 be3d dd58 1a3e 4af6 f53d
00000340: 6f9c 9c3d 7595 283e d663 253d e7e0 4ebe
00000350: d5cb a43d 06dd 09bd 0316 84bb 12fe 383e
00000360: d74c 523e 6dbe e63d 73f7 2fbe 5b63 86be
00000370: 4f15 633e 1f25 233e e843 1abe 4123 9a3d
00000380: a858 f83d 477c 3fbd 71c4 13be ebbd 4cbd
00000390: 61db 603e 58aa 273e c60f 623e 6c00 213e
000003a0: 102a 0c3e 18ea 073c 4346 203a c750 58bd
000003b0: 44ef 3bbe 0138 5dbe 1a49 5b3d 9f58 38bc
000003c0: e2b4 9d3d 928c 47be 5e99 7d3d 275d bebd
000003d0: 83ab 55bd e13b 863c 629e a5bc d1ff 153e
000003e0: 4b76 4c3e a766 093e b1c7 98bb d763 1f3e
000003f0: 7992 b43d 69e0 733e e2c7 42be ac96 1b3e
-0.05466022 0.14261903 -0.15853216 -0.022670822 -0.1427757 -0.18476823 -0.18926933 0.0874338
0.09789914 0.10476878 0.10923729 0.031670924 0.040567324 -0.17585006 0.105199106 0.14363535
-0.16810982 0.13441081 0.16414101 -0.05504934 -0.08407853 -0.004228792 -0.115621746 -0.049505904
-0.19537057 0.040121194 0.16462821 0.17372678 0.16972932 0.0003041635 -0.16252209 0.19137658
-0.11162231 0.04062084 -0.0045519355 -0.07361806 -0.047418773 -0.1629151 0.112283476 0.016929764
0.15582488 -0.063670985 -0.13841069 0.20034842 -0.043504957 -0.07141671 0.15917666 -0.10528363
-0.18378972 -0.05299429 -0.16412677 -0.13060814 -0.017240325 0.18222524 -0.10936627 0.15060341
0.07534615 0.07576366 0.23159674 0.13255332 -0.1851335 -0.01411139 0.009378776 0.017001875
-0.21185587 0.13784032 0.04662897 0.11710944 0.031701364 -0.060907383 -0.078617476 0.0995642
0.14235087 -0.079037525 0.19497643 -0.115895934 0.008973788 0.0909724 -0.030708443 -0.023765147
0.20357648 -0.15799883 0.10466824 -0.06966614 0.06625718 -0.22622336 -0.10047411 0.22467925
0.07725451 -0.13352488 0.17525187 0.08428972 -0.026720794 0.021407079 0.19575818 0.1833929
-0.015208302 -0.06276218 -0.17664944 -0.055502824 0.14554708 0.056683693 0.16582388 -0.16672212
0.07156664 -0.16849504 -0.06917575 0.016806655 -0.14006746 0.20982969 -0.10935457 -0.14133728
-0.11754044 -0.15839413 -0.11217776 -0.0035194452 0.06269908 -0.1510107 -0.19302975 -0.0090836715
-0.07140817 -0.024817992 0.033494357 0.14087732 -0.17555936 0.12695818 -0.15106657 -0.12532736
0.050854854 -0.16094972 -0.23346144 0.046690587 -0.16839261 0.22661653 0.12084539 -0.09693988
0.05887233 -0.049801167 0.15382667 -0.20954265 -0.08154875 -0.19531794 0.11531104 0.101235986
0.12642016 0.099521495 -0.12056354 -0.07501198 -0.19124006 -0.13573073 -0.046271935 0.12370019
0.09596937 -0.21428545 0.015020472 -0.08147171 -0.12512481 0.24097791 0.04358479 0.03378334
-0.108320706 -0.072280794 -0.2087064 0.15213768 -0.13697422 -0.15055718 0.011094173 -0.09005803
0.043988988 -0.20922752 -0.1757439 -0.044748496 0.014233961 0.15452327 0.15273257 0.09862496
0.16964017 -0.05617319 0.09126706 -0.068607904 0.25059983 0.16640718 0.1053775 -0.1517608
-0.17121336 -0.005321189 0.10910882 0.2843546 0.17240626 0.14972049 -0.0019747675 -0.14089692
0.06947423 -0.16237445 -0.11184657 0.20019785 -0.06985924 0.0628749 0.1422374 -0.11317879
-0.2047485 0.20077123 0.19793321 0.114179514 -0.15657932 0.092867956 0.15072961 0.120098665
0.07647025 0.16463263 0.040378414 -0.20202981 0.080466904 -0.03365805 -0.0040309443 0.1806567
0.20537125 0.112667896 -0.17184238 -0.26247677 0.22176097 0.1593213 -0.15064967 0.075262554
0.12126285 -0.04674938 -0.14430405 -0.049985807 0.21958686 0.16373575 0.2207633 0.15722817
0.1368792 0.008295558 0.00061139854 -0.05281141 -0.18352991 -0.21603395 0.053536512 -0.011251598
0.07700516 -0.19487217 0.06191384 -0.09295111 -0.05216552 0.016385974 -0.020217124 0.14648367
0.19967 0.13418065 -0.004662477 0.1556543 0.08817 0.23816074 -0.19021562 0.15194196

convs.0.bias f4 [128]
00000000: 5a02 37ba 0429 d739 f4d8 6fba ee05 fc3a
00000010: 6296 d33a b954 cbb8 dd42 423b 3459 87ba
00000020: 5831 86ba eb15 8bb9 88b8 dc3a efe1 b73b
00000030: a3fa 63bb fc26 0f3b a405 223b ba55 ae3a
00000040: 7b46 e83a 8fe6 18bb aa44 04bb 3180 0abb
00000050: 3744 60bb 1e25 9cb9 a544 8aba 9222 a33b
00000060: 6f0b 973a 4da7 b03b 5cf7 c33a f188 fe3a
00000070: 6bc6 083a a8c2 5239 5a22 83ba 6d0c a2b9
00000080: b7e4 8539 eb72 5fbb d35d 47bb 4ab7 11ba
00000090: 6dc9 fa39 736f 9e3a e86d 283b 9437 f83a
000000a0: f7b3 8839 36d8 993a 1cc1 90b9 bb9f 04ba
000000b0: c8fc b3ba 9517 f33a 0c13 1dbb 7685 163b
000000c0: 63c1 c53a f1dc 02bb c7a3 fe3a 716f d13a
000000d0: 939a d9ba fde8 813a 14e7 f7b9 bc12 e13a
000000e0: 8e4b 34ba 3c78 8b3a dfbe 8e38 5e21 93ba
000000f0: 354a fc3a 9a06 35bb 4c8c 0a3b 6de1 ad39
00000100: eb3e 15bb c2f5 7abb 2d55 59b8 bd3f e13a
00000110: dfe1 a2ba f673 a1b9 8ad9 2fbb aeed 223b
00000120: 9346 80ba de2f 88ba df96 153b 6831 5ab9
00000130: 8bf2 9f3a 6315 adba 1acb 853b 116a 793a
00000140: 8356 a73a 7647 0d3b fe6b aaba fe98 47b9
00000150: 3f1f d2ba 7581 4b3a 3398 aaba efac 843a
00000160: e3fe 66bb e750 d43a c3a7 9d3a b8f9 833b
00000170: a859 11ba ebaf c33a 4f9d c2b8 73ed 96b9
00000180: 00f9 44ba ea6a 7fba 4fba dc39 5b60 a039
00000190: 758a 6bba e981 b4b9 48d1 4aba cc52 f3b9
000001a0: faab 15ba 5776 93ba 31bf 42ba 35e7 b93a
000001b0: 11e6 38ba fc4e e9ba 8eb7 2dba b8ca 4cbb
000001c0: be6e e33a 1171 5cba 01de 7bbb 2f53 23ba
000001d0: c859 9739 0c44 cb3a 46e9 d0bb b7e2 8bba
000001e0: cc94 0f3a c7ad 76b9 6ded ce39 e79a 27ba
000001f0: 598c 493a f499 e8b9 dbae 41b9 f200 a5b9
-0.00069812464 0.00041038555 -0.0009149455 0.0019227841 0.001614284 -9.695575e-05 0.0029641904 -0.0010326267
-0.0010238094 -0.00026528476 0.0016839663 0.00561165 -0.0034786842 0.0021843305 0.00247226 0.0013300695
0.00177212 -0.0023330783 -0.0020182529 -0.0021133537 -0.0034220347 -0.00029782293 -0.0010549022 0.0049784863
0.0011523793 0.0053910376 0.0014951038 0.0019419474 0.0005217555 0.00020099676 -0.0010004744 -0.00030908306
0.00025538143 -0.0034095596 -0.0030420914 -0.0005558623 0.0004783379 0.0012087658 0.0025700275 0.0018937462
0.00026074026 0.001173741 -0.00027609698 -0.0005059202 -0.0013731951 0.0018546457 -0.0023967652 0.0022967733
0.0015087541 -0.0019968117 0.0019427472 0.0015978647 -0.0016601853 0.0009911355 -0.00047283678 0.0017171721
-0.00068777136 0.0010640691 6.80664e-05 -0.0011225154 0.001924819 -0.0027622343 0.0021140752 0.00033165087
-0.0022773098 -0.0038293456 -5.1816158e-05 0.0017185133 -0.0012426934 -0.0003079471 -0.0026832544 0.0024860906
-0.0009786658 -0.0010390242 0.0022825522 -0.00020808505 0.0012203021 -0.0013205226 0.0040830495 0.00095144013
0.0012766871 0.0021557487 -0.0013002155 -0.00019035113 -0.001603104 0.0007763126 -0.001301533 0.0010122339
-0.003524714 0.0016198427 0.0012028146 0.0040275715 -0.0005544671 0.0014929747 -9.279942e-05 -0.00028787143
-0.00075139105 -0.00097434095 0.0004210048 0.00030589369 -0.000898517 -0.00034429066 -0.0007736874 -0.0004641026
-0.00057095254 -0.0011250478 -0.00074290024 0.0014183285 -0.00070533255 -0.0017800028 -0.0006626778 -0.003124876
0.0017351729 -0.0008409182 -0.0038431885 -0.0006230352 0.00028867857 0.001550795 -0.0063754646 -0.0010672425
0.00054771896 -0.00023525125 0.00039468278 -0.00063936267 0.0007688455 -0.00044365192 -0.00018471053 -0.00031471957

convs.0.comb_weight.weight f4 [48, 128]
00000000: 7932 57ba 5edd a5bd 0fa2 0abd a1a2 6bbd
00000010: b5f4 a9bd 6ff6 c7bd b1c5 6cbb 2445 0fbe
00000020: f980 b43d 6c0d b83c bddc e5bd bc4b 07be
00000030: 7d11 9fbd 58dc 18bc 55a6 a0bd 06bc 123d
00000040: 5820 883d a87a 94bd 73c0 3a3d acc9 083d
00000050: e4b7 38bc 869a ed3b 8778 49bd 2cb4 203d
00000060: 759e 13bc f685 47bc 6ff6 95bd 3326 d2bc
00000070: 2fb8 2abd 0e9b 53bd aa41 023e f670 4abd
00000080: 7bf8 c2bd 6657 07bd bac8 9f3d 30f5 8cbd
00000090: 5bf0 223d a574 923d 4523 b5bc 222f 323c
000000a0: 820d a1bd 84b7 9c3b c9f4 efbd cc2f 7ebc
000000b0: abbb 863d 7df0 19ba 1201 723d 9ab3 73bd
000000c0: ef43 40bb 1ee0 5d3d 149a c2bd 9c9d 70bd
000000d0: 25bf 66bd ee62 e4bd 4241 563a 78a6 bb3d
000000e0: 0f61 2a3d 0d60 76bc 650f 743d c267 c1bd
000000f0: 7876 1bbd bc5e acbc 30f4 983d aecf cf3c
00000100: f653 943d 9a78 b83d 6d3d 183d f546 bdbd
00000110: 2f3b e5bc a6e1 4abd d0ed 89bd 01c0 22bd
00000120: 0200 43bd fe92 9cbd bb49 d63d 41a2 efbc
00000130: efc1 ce3d 2651 1fbd 9fe8 c13d 664d 203d
00000140: 4533 58b9 bf7e 673d 624d 2a3d 57f2 cbbc
00000150: 4e5d 82bd ee8a dbbb cc3b 753a 24b7 19bd
00000160: 9d01 1d3d 4245 17bc 4d6f d2bd 0240 d6bd
00000170: 2dc2 eabd 89e3 de3d 504d 173d 445e bcbd
00000180: 0b55 76bd d0b5 6d3d dbd0 8c3d 446d b23d
00000190: ea5a 873d 98b4 31b9 ecfb b53d 0c4e 40bd
000001a0: 2515 05bd abc7 06bd c7fc d5bc cd6f d9bc
000001b0: 7a64 d3bd 9d52 093d bf06 b03d 4b5e 1bbd
000001c0: 6bae 493c 9bf1 b4bd 3416 8bbd 89fd 8a3d
000001d0: 0311 83bd 0204 29bc c10e e63d 075a bebd
000001e0: 559e ac3c f567 b63d 9439 dcbd aae6 0ebd
000001f0: 0aed 94bd 010a 2f3d fd1e 29bd 82c8 e23d
00000200: ce3c c6bd 32a5 50bd 1a97 e03b 1b09 afbc
00000210: 3337 803d b399 eabd 14bb b4bd ef7b 05be
00000220: caa2 eabc 7821 a3bd dae9 0a3d 4b62 5cbd
00000230: be15 b9bd b96a a8bd 28bc 283c 9d3a 983d
00000240: fdd4 5d3d 0d0d c93c 86e5 75bd 4164 4dbc
00000250: 218d 01bd 05b2 3cbc 9476 6fbd c064 9fbc
00000260: eb78 393d 2527 10bd 0cdf 393d 7cc2 c8bd
00000270: 8a17 9b3d 747b de3c faff 7e3b 30b7 77bc
00000280: feab c1bd 120f 883d 63f6 11bd 7d94 eb3b
00000290: 1095 973d c204 dd3d fdbe dcbc bf95 f63d
000002a0: 3565 ea3c a28c 233d b7a6 f3bc 4cd7 a83d
000002b0: dc7f ee3d 7951 35bd 343a 1c3d fe3e 983c
000002c0: d50c 6a3d 1f68 0bbd c282 4dbd 47ac 833c
000002d0: 875a 31bd 6f8d 243d 60db 06bd b107 ffbc
000002e0: e231 2b3d d0af 7cbd 4b5d cabc 18d5 2ebd
000002f0: 24eb 3e3d 60eb dfba 8cb0 60bd 59e3 683d
00000300: 8947 0f3b d5c1 9e3d db6c 9f3c 2d64 59bd
00000310: 7e36 843d 47f4 dc3d b7a1 0a3d 7bdc 033d
00000320: ed60 3a3d 2dd3 073c 39d9 493d 00de 0f3c
00000330: d0d1 923d a5da b23d 0836 013e 576d 3b3d
00000340: cab6 5dbd 0e09 583d 6bb9 453d 7305 903d
00000350: 0b0c 6fbb 96c9 b63d 84f4 aebd 7a8a 96bd
00000360: 9e5b 01bd 18a0 013d adac 44bd 9488 603b
00000370: bd7f 12bd 3700 233d 8266 49bd 381c 08be
00000380: 0737 c43c 4947 edbc 889a 15bd d3f0 85bb
00000390: 38af a13c 6ccb 603d 1822 52b9 2399 a73d
000003a0: 5556 733d 2ce7 a9bd 5df4 713c 2fcc 48bc
000003b0: 9a49 83bb 227b 9c3d aa74 d73c fd6e 46bc
000003c0: ed9f ed3a 8dd3 bebd 68e7 763c c2ad 85bb
000003d0: 2483 853d 7b3c cb3b 7f14 093e 3e39 49bc
000003e0: 73b3 903d ef9b 09bc 7c63 e6bb 3b38 e53a
000003f0: 7979 ccbd 7366 80bd d593 9c3d 6a00 ddbc
-0.000820912 -0.08098863 -0.033845957 -0.057528142 -0.08298627 -0.097638 -0.0036128575 -0.13991219
0.08813662 0.022467338 -0.11223743 -0.13212484 -0.077670075 -0.009329878 -0.07844225 0.035823844
0.06646794 -0.07249957 0.04559369 0.033395454 -0.011274312 0.0072510866 -0.04918721 0.039234325
-0.009009947 -0.012177935 -0.07322394 -0.02565298 -0.041679557 -0.051661544 0.12720361 -0.049424134
-0.0952005 -0.033042334 0.078019574 -0.06882703 0.039780002 0.071511544 -0.022111544 0.010875495
-0.078639045 0.004782619 -0.11716611 -0.015514325 0.065787636 -0.00058723224 0.059083052 -0.059497453
-0.0029337367 0.054168813 -0.09502044 -0.058744058 -0.056334633 -0.11151682 0.00081731763 0.09162611
0.04159647 -0.015037549 0.059584994 -0.09443618 -0.037954777 -0.021041267 0.0746845 0.025367584
0.07242577 0.09007378 0.037167955 -0.092420496 -0.027982322 -0.0495316 -0.06734812 -0.03973389
-0.04760743 -0.07645224 0.10463282 -0.029252173 0.10095584 -0.03889575 0.09468197 0.039136313
-0.00020618465 0.05651736 0.041577704 -0.02489583 -0.06365453 -0.0066999113 0.0009354919 -0.037528172
0.038331617 -0.009232821 -0.10275135 -0.10461427 -0.11462817 0.10883243 0.036938965 -0.09197667
-0.060139697 0.058034718 0.068757735 0.08712247 0.06609137 -0.00016947312 0.08885941 -0.04694943
-0.032490868 -0.032905262 -0.02612151 -0.026542569 -0.10321899 0.03352605 0.08595037 -0.03793172
0.012309651 -0.08835145 -0.06791344 0.06786639 -0.06399729 -0.010315897 0.11233283 -0.09294515
0.021071592 0.08906547 -0.1075317 -0.034887947 -0.07271774 0.04273415 -0.04128932 0.110734
-0.09679566 -0.050938793 0.00685395 -0.021366647 0.062605284 -0.11455097 -0.08824745 -0.13035558
-0.028642077 -0.07965368 0.033914424 -0.053804677 -0.0903735 -0.08223481 0.010298766 0.074330546
0.0541582 0.024542356 -0.060033344 -0.012536109 -0.03162873 -0.011517053 -0.058462694 -0.019457221
0.045281332 -0.03519358 0.04537873 -0.0980272 0.07572849 0.027158476 0.0038909898 -0.015119359
-0.09456633 0.066434994 -0.035635363 0.007189332 0.07401478 0.10791923 -0.026946539 0.120402806
0.028612712 0.03992904 -0.029742582 0.082441896 0.11645481 -0.04426715 0.038141444 0.018584725
0.057141144 -0.034034844 -0.05017353 0.01607336 -0.043299224 0.040173944 -0.032924056 -0.031131597
0.04179562 -0.061691105 -0.024702689 -0.04268369 0.046610966 -0.0017083697 -0.05485587 0.05685744
0.0021862707 0.07751814 0.019461086 -0.05307405 0.06455706 0.1078878 0.03384563 0.03219269
0.045502592 0.008290094 0.049279425 0.008780956 0.07168925 0.087331094 0.12618268 0.04575857
-0.0541294 0.05274301 0.04827253 0.07032289 -0.0036475684 0.08925168 -0.085427314 -0.07350631
-0.031581514 0.031646818 -0.04801624 0.0034261094 -0.035766352 0.039795127 -0.049170025 -0.13292015
0.02395202 -0.028964655 -0.036524326 -0.0040875464 0.019736871 0.0548815 -0.00020039862 0.081835054
0.059408505 -0.08296046 0.014767733 -0.012255712 -0.0040065767 0.07640673 0.026300747 -0.012111423
0.0018129327 -0.09317694 0.01506982 -0.0040795514 0.06519154 0.006202278 0.13386725 -0.012281714
0.07065477 -0.008398994 -0.0070309024 0.0017488071 -0.099841066 -0.06269541 0.07645384 -0.026977737

convs.0.comb_weight.bias f4 [48]
00000000: 50e6 6cbc 2fcc 733d 7284 1c3d 99ea c3bc
00000010: c321 62bd d2c3 983c eb80 783d 8a0f 723b
00000020: 3c52 9c3d 6a93 fa3a 7d1b a3bd 2768 29bd
00000030: cc74 9abd a122 873d 5ae2 843d 6bd0 48bd
00000040: cb86 813c 0957 66bd ac11 8b3c 932f 273a
00000050: 3c42 97bc d75f 44ba 08bd 5d3b cf15 cc3c
00000060: 1630 93bd 2691 74bd 4cd5 77bd 9ebe 98bc
00000070: ddec d8bb 6b56 da3c 8660 81bd 87b2 73bc
00000080: 7a65 48bd 26d0 863d 2732 3f3c b48c 42bd
00000090: 71e0 883d 47d2 37bc c60c 483c 6249 563d
000000a0: 2783 cfbc 07a1 3fbd b794 1b3d 82de ae3d
000000b0: 1a26 c0bc d690 abbc 5c84 b0bd 519d 6a3d
-0.014459208 0.059520897 0.038212247 -0.023915576 -0.05520798 0.018648062 0.06066982 0.0036935532
0.076328725 0.0019117419 -0.07964227 -0.041359093 -0.075418085 0.06598402 0.06488486 -0.049026888
0.015811345 -0.056235347 0.0169762 0.00063776335 -0.0184642 -0.0007491088 0.0033834595 0.024912743
-0.07186906 -0.059708737 -0.06050615 -0.01864558 -0.006620033 0.026652535 -0.063172385 -0.014874107
-0.0489249 0.0658267 0.011669672 -0.047497466 0.06683434 -0.011219568 0.012210077 0.052316077
-0.025331093 -0.046784427 0.037983622 0.08538534 -0.023455668 -0.020943087 -0.086189955 0.057278935

convs.1.bases_weight f4 [128, 8]
00000000: 4545 2abe 5454 603e 3bc5 13bb a77a 543d
00000010: 4384 45be 3dcc 743d 5437 91be b633 483e
00000020: c80b bdbc 4141 323e acc4 1aba addc 7a3d
00000030: 3ad0 19bd c8a1 1c3e 2ca4 25be 5fe1 a6bd
00000040: 0308 48be 7a12 e83d 39eb 38bd 87c0 0e3e
00000050: 05f4 1cbe 5640 1ebd 564f f0bd 0351 003d
00000060: 72c4 293e 7f23 a63d 5f09 07be 2ba0 603d
00000070: 12cd 153e 8b4f eebd db5c 0dbd 7733 013e
00000080: c892 f53d 2cbf a53d 48aa 533e e55e 62be
00000090: fa26 863d fdc9 e9bc 6675 ee3d 08f8 03be
000000a0: 1528 4a3d 70df 6bbd 5738 48be 6c20 6fbe
000000b0: ed13 4cbe b47b 0e3d da3a efbc 307b 413e
000000c0: 664b 773d f203 403e 70fa 05be 6c0b 533e
000000d0: 168b 11bd 408f 86bd 15ab 2bbe 9ac2 74be
000000e0: 49c3 46be 0f7d 9abd 1e33 3f3e 67d2 cebd
000000f0: 96b1 223e c57a 8cbc 9989 273e a660 bcbb
00000100: 3f53 6dbe 9eae 34be 24aa 3c3e 56d9 753d
00000110: 4591 74bd db24 31bc 1e08 b73d bb99 bf3c
00000120: be2c 953d 4a82 18be aed4 12be 38f5 ea3b
00000130: a7ef b43d 3498 e4bd 8f28 353d 4c38 0f3e
00000140: 66cc f3bd 4081 6abd f0d9 c33d ed2e 823e
00000150: d043 1e3e c392 4cbe 924e 11be 52ae 643d
00000160: 99fd 353e 8b00 a63d 0fab 133e c275 8a3d
00000170: e506 e9bd 555a 61be 71b7 cc3b a391 09be
00000180: 93b9 353e 5c21 3ebe 777b 533e 332e 0a3e
00000190: 33c9 133e c866 263d 8231 88bd 1b58 e93d
000001a0: 1dad 9f3d 462f 883d 4c73 9bbd 0185 c23d
000001b0: 0344 3abe d933 233e 8cd1 14be b181 003e
000001c0: d2e8 cf3d 2603 debd 5626 51bd 2ac6 5d3e
000001d0: 86c3 cc3d 06c0 40be e515 b6bd fdca 363e
000001e0: 193b 16be 0b2b f63c 8eef ad3d 699f 343d
000001f0: a05a 4d3e b205 1abc 9292 bcbd f21b 083e
00000200: 32c2 86bd a414 f1bc 9bee 0d3e 48d4 3d3e
00000210: 4b65 26be 7577 92bd 55d6 06be 0605 0bbe
00000220: e3ef 3c3e 4ea2 983d b406 cebd 321a bb3d
00000230: 0247 083d f9e5 18be ff5f 4e3e ee2b aebd
00000240: d108 e53d 5b76 553c 8764 adbd ae4b adbd
00000250: d82f 1c3e 1b54 ca3d ff0b a93d 090d bfbc
00000260: 466d ee3d d6d2 6e3d b524 11bd a4e0 963d
00000270: a7c6 dabd 2303 303e 47b9 3cbe 05a2 99bd
00000280: 6359 083c 3556 06bc a37b e5bd 26c9 53be
00000290: ea8f ddbc 075d 25be 3c66 0b3e 6663 c3bc
000002a0: efd6 06be 20c5 323d fb89 75bd b44e 923b
000002b0: c267 023e b1e5 f1bb 57c1 753c 866e 1abe
000002c0: 6c53 12be fd29 48be 8c89 043e 6e20 59bd
000002d0: 906a 04b9 da4a 473e c6da dbbd 33b0 c93b
000002e0: 8574 97bd 4b56 3c3e 9aa4 20bd 45fc 083e
000002f0: fa91 5a3e ada0 4d3e 8d98 fe3c d0e0 3fbe
00000300: 4e52 5abe 83eb 03be 9619 643c 2946 243e
00000310: 9202 273e 1dba 1ebb cadb f9ba 3738 d13d
00000320: f80e 473e aeee 423e a3ea b9bd 78e0 a63d
00000330: 5c0b 633d e581 c53d 76f5 2d3d 31d0 79bd
00000340: 3148 20be 2e19 093d a1a9 c83d e592 f1bd
00000350: e23f 703d 83e2 44be b334 f2bd 83c7 493e
00000360: bd69 02be 7f44 233e 7a12 fb3d 7e3f 623e
00000370: 4477 e9bc c844 20be 1903 403d 0593 533e
00000380: 077e 89bd a38a 77bb 748c dbbd 6838 1f3e
00000390: a06c ffbd 4cab 1e3e 2749 56be 9f63 df3c
000003a0: 93b5 2cbe bb3c 5f3e 18a3 b13a cc24 6b3e
000003b0: a80c 83bc 76e6 da3c fe3c e1bc 5410 283d
000003c0: 22c5 303d e903 e7bd c4a1 153e c638 253e
000003d0: 2bdc 7f3d 4b19 3abe e293 76bd dcfe 883d
000003e0: f990 2c3e 208e 85bd 4685 b93d 33f6 9dbd
000003f0: a844 45be 1da3 103d 98c6 323e f69e 183e
-0.16627987 0.21907169 -0.0022547978 0.051874783 -0.19288735 0.05976509 -0.28362525 0.19550976
-0.023076907 0.17407705 -0.000590394 0.06124561 -0.037552096 0.1529609 -0.16175908 -0.08148455
-0.19534306 0.11331649 -0.0451462 0.13940631 -0.15327461 -0.038635574 -0.11733882 0.03132726
0.16578844 0.08112239 -0.13187169 0.054840248 0.1462901 -0.11636265 -0.034512382 0.12617289
0.11990887 0.08093104 0.20670426 -0.22106512 0.06550403 -0.028538698 0.11643486 -0.12887585
0.04935463 -0.057586133 -0.19552742 -0.23352212 -0.19929476 0.03478594 -0.029202867 0.18894649
0.06037464 0.18751505 -0.13083816 0.20609826 -0.035533033 -0.065702915 -0.16764481 -0.2390236
-0.19410433 -0.07543384 0.18671843 -0.10098725 0.15888056 -0.017148385 0.16361083 -0.005748826
-0.23176287 -0.17644736 0.18424278 0.06002172 -0.059708852 -0.01081201 0.08937095 0.023388734
0.072839245 -0.14893451 -0.14338943 0.0071703456 0.088347726 -0.11161843 0.044228133 0.1398632
-0.1190422 -0.05725217 0.09563053 0.25426427 0.15455556 -0.1997786 -0.14190128 0.055830307
0.17772521 0.08105572 0.14420722 0.06760742 -0.11378268 -0.22007115 0.006247454 -0.13434462
0.17746572 -0.18567413 0.20652567 0.13494186 0.1443222 0.040625364 -0.06650068 0.11393758
0.077966906 0.06649642 -0.075903505 0.09498025 -0.18190007 0.15937747 -0.14533061 0.12549473
0.10151829 -0.10840444 -0.05106195 0.21657625 0.09998231 -0.18823251 -0.08890895 0.17850871
-0.14670981 0.030049821 0.08492957 0.044097338 0.20054102 -0.009400772 -0.092076436 0.1329191
-0.065800086 -0.029428788 0.13860552 0.1853801 -0.16249578 -0.07151691 -0.13167699 -0.13576135
0.18450885 0.07452832 -0.10059872 0.09135856 0.033270843 -0.14931478 0.20153807 -0.08504473
0.11183322 0.013028706 -0.0846644 -0.084617004 0.15252626 0.09879323 0.08254241 -0.023321645
0.11641936 0.058306538 -0.035435397 0.073670655 -0.10682421 0.17188697 -0.18430053 -0.07501606
0.008322093 -0.008199264 -0.112052225 -0.20682201 -0.027046163 -0.16148768 0.13613218 -0.023851108
-0.13167928 0.043645024 -0.05994604 0.0044649485 0.12734893 -0.0073821177 0.014999709 -0.15081224
-0.14289635 -0.19547267 0.12943095 -0.053009443 -0.00012628199 0.19462147 -0.10735087 0.006155038
-0.07395271 0.18392293 -0.039219476 0.13377483 0.21344748 0.20080824 0.031078601 -0.18738103
-0.21320459 -0.1288281 0.013922116 0.16042389 0.16309574 -0.002421982 -0.0019062695 0.102158
0.19439304 0.19036362 -0.090779565 0.08148283 0.055430755 0.09643916 0.042470418 -0.060989562
-0.15652539 0.03347128 0.09797979 -0.11795596 0.058654673 -0.19227032 -0.11826458 0.19705014
-0.12735648 0.15944098 0.122593835 0.22094533 -0.028499253 -0.15651238 0.046877954 0.20661552
-0.06713491 -0.0037771843 -0.10720149 0.15548861 -0.124718904 0.15495032 -0.20926343 0.027269183
-0.1686614 0.2180051 0.0013552634 0.22963256 -0.015997246 0.02672122 -0.027494904 0.041031197
0.04315675 -0.11280043 0.1461249 0.16134939 0.062465828 -0.18173711 -0.060199626 0.066892356
0.16852178 -0.06521249 0.09058623 -0.077129744 -0.19264472 0.035311807 0.1745857 0.14904389

convs.1.bias f4 [128]
00000000: 04d7 51b9 8ee4 203a a061 dab9 53f6 063a
00000010: cb6c 0cba e39b 143a 2550 043a aa30 4bba
00000020: dd40 f638 714a 8f38 4c57 4739 750f 65ba
00000030: 26a7 c1b8 b05b 6cb9 00da b3b9 87ba b9ba
00000040: 1836 c939 8787 cbb7 410d 44b9 db1f 89ba
00000050: 8687 e738 fa78 ff37 94e7 1db9 a35c bbb9
00000060: 7dc1 05ba e4c7 1eba 1560 fab7 de21 fd38
00000070: cc3e 08b9 da6a 04ba 0525 e139 78b4 58ba
00000080: dc39 4db9 fe37 2dba a073 d538 5dad 173a
00000090: 52d5 9439 72ba aa39 adb8 5bba 7d73 9238
000000a0: 66f0 23ba 2e96 91b9 74b9 c739 f5f3 4739
000000b0: 4991 0b39 9e1e adb9 d84d c33a 327f 7839
000000c0: f52e dd39 ebdf a1b9 c38f b639 e0e2 0239
000000d0: 323a dab8 c409 6039 c13f 7a39 63aa f0b9
000000e0: c9e7 4bb9 c582 5339 94da 7b38 ad9e 2cba
000000f0: be78 ab3a 0eb4 8fb9 df05 163a d4f6 0d3a
00000100: a516 2939 bc61 073a 784d 62b7 9669 3cb9
00000110: c2f7 60ba 6ede 70ba 743b 2e38 9a3b a339
00000120: 0f26 bcb9 4e7a a038 c94d a8b7 e372 38b9
00000130: 4532 d639 743d 0e39 b148 0ab9 2b38 13ba
00000140: 7921 903a 8faf 8eb9 5f29 8cb9 cbea 3239
00000150: f6a8 fc39 e8d2 22ba caa5 e138 ce57 68b9
00000160: a398 8c3a 4711 12b9 043e 60b9 2b39 c8b9
00000170: bcb0 b3b9 30cb a936 a011 e8b9 ab1c 173a
00000180: a610 5c3a 14f0 28b6 1145 c8b9 2119 ccb7
00000190: f451 163a 3871 18ba 2e90 4739 63af 95b9
000001a0: 5e08 35b9 561e fa39 b862 5c38 f0f2 103a
000001b0: 9263 01ba cd95 8e39 27e8 d4b7 6cbc 38b9
000001c0: 3889 3aba 12e3 f4b8 2393 8cb9 4199 b239
000001d0: a5ba 9139 fe4c b2b8 be37 e238 b1f5 c0b8
000001e0: d87e 893a 22aa c9b9 6afa b539 d3d4 fcb9
000001f0: a9a7 97ba 99f6 3fb8 968b 13b9 c2b6 0439
-0.00020011893 0.0006137573 -0.00041652936 0.00051483995 -0.00053567876 0.0005668981 0.0005047343 -0.0007751087
0.00011742276 6.832637e-05 0.0001901064 -0.000873796 -9.234091e-05 -0.0002254087 -0.00034303963 -0.0014169969
0.0003837801 -2.4262596e-05 -0.00018696954 -0.0010461764 0.000110401816 3.0454703e-05 -0.00015058956 -0.0003573644
-0.00051023794 -0.00060570077 -2.9847064e-05 0.00012070288 -0.00012993364 -0.00050513225 0.00042942926 -0.0008266638
-0.00019571878 -0.000660777 0.00010178168 0.0005786026 0.00028387696 0.0003256384 -0.0008381706 6.983334e-05
-0.00062537787 -0.00027768448 0.0003809441 0.00019069 0.00013310196 -0.00033019943 0.0014900519 0.00023698507
0.0004218739 -0.00030875145 0.00034820856 0.00012482284 -0.0001040589 0.00021365943 0.00023865608 -0.00045903315
-0.00019445935 0.00020171244 6.004663e-05 -0.0006584924 0.0013082249 -0.00027409237 0.0005722921 0.00054155034
0.00016125532 0.0005164405 -1.3488687e-05 -0.00017968411 -0.00085818407 -0.0009188418 4.1540203e-05 0.0003113419
-0.0003588651 7.6521756e-05 -2.0063382e-05 -0.00017590406 0.00040854714 0.00013565068 -0.00013187785 -0.00056159747
0.0010996304 -0.00027215152 -0.00026733705 0.0001706287 0.0004819107 -0.0006211237 0.00010759717 -0.00022157954
0.0010726642 -0.00013930081 -0.00021385407 -0.00038189566 -0.00034273218 5.0602466e-06 -0.0004426362 0.0005764465
0.0008394815 -2.5173695e-06 -0.0003819843 -2.4330397e-05 0.0005734258 -0.0005815211 0.0001903183 -0.00028550168
-0.00017264622 0.00047706318 5.2544026e-05 0.00055293646 -0.00049357966 0.0002719596 -2.5380474e-05 -0.000176178
-0.0007115784 -0.00011677122 -0.00026812506 0.0003406499 0.00027795616 -8.502042e-05 0.000107869026 -9.201037e-05
0.0010490073 -0.00038464466 0.00034709583 -0.00048223752 -0.0011570352 -4.576761e-05 -0.00014071012 0.00012656584
